alg/discrete_action/param/net_param/actor_net1-5-5000-1739861249.pkl (torch, 80064 bytes, 6 tensors)

fc1.weight f4 [128, 15]
0	0xbde38f80	-0.11111355
1	0x3e9177a7	0.284116
2	0xbb86b3dd	-0.004110797
3	0xbd0daec9	-0.034590516
4	0xbd929831	-0.071579345
5	0xbe1233a8	-0.14277518
6	0x3e69e464	0.2284103
7	0xbe4c75e4	-0.19966847
8	0x3ea0b98a	0.31391555
9	0x3e1f0b60	0.15531683
10	0xbe805f39	-0.2507265
11	0xbe2be9e0	-0.16788435
12	0x3ba64b46	0.0050748913
13	0x3c746eb6	0.014918974
14	0xbcc83013	-0.024436986
15	0xbcef2e77	-0.02919696
16	0x3ee845ea	0.4536584
17	0xbdca7a8f	-0.098866574
18	0x3d45d82a	0.048301853
19	0x3e096cef	0.13420461
20	0xbdbefd59	-0.09325666
21	0xbe052e52	-0.13005951
22	0x3d0aa02f	0.03384417
23	0x3dde81ef	0.108646266
24	0xbe446aeb	-0.19181411
25	0xbd5b437f	-0.053531166
26	0x3e0afcf5	0.13573058
27	0xbe1ae926	-0.15128002
28	0xbcbf1595	-0.02332572
29	0x3d43ffcb	0.047851365
30	0x3e9837c4	0.29730046
31	0xbea1f7e5	-0.3163444
32	0x3e3b89c4	0.18314272
33	0xbe9934b8	-0.29923034
34	0xbdca4060	-0.0987556
35	0x3e085127	0.13312207
36	0x3dc9dbc7	0.09856372
37	0xbd2462bf	-0.040133234
38	0xbe16c7fe	-0.14724728
39	0xbe2dbc0c	-0.16966265
40	0x3cff1cfe	0.031141754
41	0x3bbd72ba	0.0057814987
42	0x3dfcc445	0.12342123
43	0xbc3d3763	-0.01154885
44	0x3e873ecb	0.26415095
45	0x3dcc1e7a	0.099667504
46	0x3e858917	0.26081154
47	0x3f0a3a36	0.5399507
48	0x3ddd2a33	0.107990645
49	0x3e833ee6	0.25633925
50	0xbc8a71d6	-0.016899984
51	0x3dc3f592	0.09568323
52	0x3d251a59	0.04030833
53	0x3cc2c8e6	0.023777436
54	0x3e33bc0a	0.175522
55	0x3de0aaf8	0.1097011
56	0x3ec10742	0.3770085
57	0x3c355ab8	0.011068992
58	0x3e475141	0.1946459
59	0xbe1155dc	-0.14192909
60	0xbe329c16	-0.17442355
61	0x3d600c05	0.054698963
62	0xbe239d67	-0.15978013
63	0x3d3f7639	0.046743605
64	0xbeba16fc	-0.3634566
65	0xbc82e8a6	-0.015980076
66	0xbceed0ec	-0.029152356
67	0x3d89c266	0.06726532
68	0x3d04a8d2	0.032387562
69	0xbca72374	-0.020402648
70	0x3d8757cc	0.06608543
71	0xbd2e3af7	-0.042536702
72	0x3e7545e9	0.2395245
73	0x3df66161	0.12030292
74	0x3e6ce544	0.23134333
75	0xbd5b4f36	-0.05354234
76	0xbe54fe15	-0.2080005
77	0x3dfe5fe2	0.12420632
78	0xbd1d581e	-0.038414113
79	0xbe7d79db	-0.24753515
80	0x3d633ef9	0.055479977
81	0xbe7b1554	-0.24519855
82	0x3e0bc994	0.13651115
83	0x3d8d3cb2	0.06896342
84	0x3dd30a12	0.10304655
85	0x3d995b47	0.07488113
86	0x3d018c02	0.031627662
87	0x3bad9736	0.0052975668
88	0xbe2ac8cb	-0.16678159
89	0x3e951dda	0.29124337
90	0x3da4b438	0.080421865
91	0x3e1bb6be	0.1520643
92	0xbd695900	-0.056969643
93	0xbde74eff	-0.11294364
94	0xbdf9d4ea	-0.12198813
95	0xbd9f37b9	-0.077743
96	0xbd967159	-0.07345838
97	0x3e1032bd	0.14081855
98	0x3e6f4519	0.23366202
99	0xbe0c5920	-0.13705873
100	0x3d8c4893	0.0684978
101	0xbdcb96c5	-0.099408664
102	0x3dc81d21	0.09771181
103	0x3e0fbe09	0.14037336
104	0x3cfc240b	0.030778905
105	0x3e36b9d3	0.17844324
106	0xbe8d1312	-0.27553612
107	0x3e7a2371	0.24427582
108	0xbe8e8106	-0.27832812
109	0x3de523be	0.11188458
110	0x3e7307d0	0.23733449
111	0x3e5a7c10	0.21336389
112	0xbe090f6a	-0.13384786
113	0x3c5716c5	0.013127987
114	0x3e16bdff	0.14720915
115	0x3dfa1d4f	0.122126214
116	0xbe696de1	-0.22795822
117	0x3c5f04af	0.0136119565
118	0x3c93f325	0.018060276
119	0x39e8bc88	0.00044390955
120	0x3d12afe8	0.03581229
121	0x3e2c049c	0.16798633
122	0xbdd149dc	-0.10219166
123	0xbf162a1d	-0.5865801
124	0xbc93de1f	-0.018050252
125	0xbd63b8fc	-0.055596337
126	0x3dbed5d2	0.09318127
127	0xbdf0cb4d	-0.117575265
128	0x3e753ab3	0.23948173
129	0x3d616d22	0.055035718
130	0xbe0e3de9	-0.13890804
131	0xbd653493	-0.05595834
132	0x3e29b628	0.16573393
133	0xbe17d994	-0.14829093
134	0x3e3e593c	0.18588728
135	0xbd92c46e	-0.07166372
136	0x3dcd47f6	0.10023491
137	0xbb888ca6	-0.004167157
138	0xbd058da2	-0.032605775
139	0x3d55e2df	0.052218314
140	0xbc9d24c1	-0.019182565
141	0xbe350834	-0.1767891
142	0x3da31630	0.07963216
143	0xbe039cf0	-0.12852836
144	0x3d909629	0.07059891
145	0x3d14796a	0.036248602
146	0x3ecbbff7	0.39794895
147	0x3da55ef7	0.08074754
148	0x3e3ad52d	0.18245383
149	0xbe9d0770	-0.30669737
150	0xbe16a35e	-0.14710757
151	0xbe883870	-0.26605558
152	0xbdcc6cf8	-0.09981722
153	0xbd984c37	-0.07436412
154	0x3e812ef6	0.2523114
155	0xbcde1edd	-0.027114326
156	0x3dfeff2d	0.12451015
157	0x3e6de075	0.23230155
158	0x3e83744a	0.2567466
159	0xbe721ad7	-0.23643051
160	0x3d9803c2	0.07422592
161	0x3d74b01c	0.059738263
162	0xbe000c56	-0.12504706
163	0x3cf071e3	0.02935118
164	0x3d237a24	0.039911404
165	0x3cac0679	0.02099918
166	0xbf18339f	-0.5945377
167	0x3da9a474	0.0828332
168	0xbd9670fe	-0.0734577
169	0xbf1d6c86	-0.6149372
170	0xbe2bcffc	-0.16778558
171	0x3e14c9af	0.14530061
172	0xbc0c9749	-0.008580991
173	0xbe3828a6	-0.17984256
174	0xbd5ec8bd	-0.054390658
175	0xbd02f819	-0.031974886
176	0x3c9feb7e	0.019521471
177	0xbc8cbac1	-0.017178895
178	0xbc25c2cf	-0.010117247
179	0xbd25a9a7	-0.040444996
180	0x3e25e2a5	0.1619974
181	0xbeba4ab5	-0.36385122
182	0xbd94dc63	-0.07268598
183	0x3d0e8e69	0.03480378
184	0xbd328138	-0.043580264
185	0xbe4606de	-0.19338557
186	0xbe505e2d	-0.20348425
187	0x3d41b582	0.04729224
188	0x3e502921	0.2032819
189	0x3e728bc8	0.23686135
190	0xbea61b0b	-0.32442507
191	0xbf241f0b	-0.6410987
192	0x3c879c23	0.016553944
193	0xbd336c46	-0.04380443
194	0x3d0486c0	0.03235507
195	0x3e6f9351	0.2339604
196	0xbc0f2bea	-0.008738497
197	0xbe2e0565	-0.16994245
198	0xbe4c48df	-0.19949673
199	0x3e82bd0d	0.2553486
200	0x3c4d1ba6	0.012518799
201	0xbe8e4f26	-0.2779476
202	0x3d4a9d26	0.049466275
203	0x3d796bea	0.06089393
204	0x3e3627a1	0.17788555
205	0x3e705e7a	0.2347354
206	0x3bb9f24d	0.0056746365
207	0x3c2513b5	0.010075499
208	0xbbce1f47	-0.0062903496
209	0x3c72b85f	0.014814465
210	0xbe04f167	-0.12982713
211	0x3ecaab96	0.39584035
212	0xbe664d12	-0.22490337
213	0x3d4f7fef	0.050659116
214	0x3dd85574	0.10563174
215	0x3e2e9663	0.17049555
216	0xbd943f3c	-0.072386235
217	0x3de56609	0.11201102
218	0xbca58916	-0.02020697
219	0xbdc63849	-0.09678704
220	0xbe7cff41	-0.24706747
221	0xbea2ff78	-0.31835532
222	0xbd31dc71	-0.04342312
223	0xbd6840cd	-0.056702424
224	0xbdebacef	-0.11507594
225	0xbee29ea9	-0.44261673
226	0x3e19fa61	0.15036918
227	0xbdfb9418	-0.12284106
228	0x3e3732b9	0.17890443
229	0xbe05ac0d	-0.13053913
230	0x3c4e0dd2	0.012576537
231	0x3d898078	0.067139566
232	0x3e455b9d	0.19273229
233	0xbdecf733	-0.11570587
234	0x3d0a2ec1	0.033735994
235	0x3dc28aeb	0.09499153
236	0x3eb119b8	0.34589934
237	0xbdc4ef1f	-0.09615921
238	0xbd485735	-0.048911292
239	0xbe2fd13f	-0.17169665
240	0xbe9aa213	-0.30201778
241	0x3d93d137	0.07217639
242	0x3df0be7e	0.117550835
243	0xbc099760	-0.008397907
244	0x3e9538b5	0.29144827
245	0x3e3c88e2	0.18411592
246	0xbe28758b	-0.16451089
247	0xbe1a5896	-0.15072855
248	0x3d4b2c22	0.049602635
249	0x3dc5a590	0.09650719
250	0x3e65fde0	0.22460127
251	0xbe8ea7f8	-0.27862525
252	0xbe1b6033	-0.15173416
253	0xbd4bc8bc	-0.049751982
254	0xbe8f9ffc	-0.28051746
255	0xbeffddc2	-0.49973875

fc1.bias f4 [128]
0	0x3dbb05a0	0.09131932
1	0xbe2075fd	-0.15670009
2	0xbb0b36c9	-0.0021242371
3	0xbdd75221	-0.10513712
4	0xbe29920a	-0.16559616
5	0xbd6df5b9	-0.058095668
6	0xbe8e09fc	-0.27741992
7	0x3e39913d	0.1812181
8	0xbd993c16	-0.074821636
9	0xbd957951	-0.0729853
10	0xbea46cbb	-0.32114205
11	0x3dc32c93	0.09529986
12	0xbce76b79	-0.02824949
13	0x3e0f8602	0.14015964
14	0xbcb2fc4c	-0.02184882
15	0x3e3c1c5c	0.18370193
16	0x3e7454a4	0.23860413
17	0xbc6ab3ac	-0.014325064
18	0x3ba27051	0.004957237
19	0xbe456132	-0.19275358
20	0xbe16a9de	-0.14713237
21	0xbd46af96	-0.048507296
22	0xbe374451	-0.17897154
23	0x3e33fd7f	0.1757717
24	0xbdc9cabc	-0.09853122
25	0x3d4feb6d	0.05076163
26	0x3db0ae1e	0.0862696
27	0xbe647559	-0.2231039
28	0x3e4d5720	0.20052767
29	0xbdc5e7c7	-0.09663349
30	0xbe57dee3	-0.21081118
31	0x3a22f4f2	0.0006216309
32	0xbe81bf68	-0.25341344
33	0x3ded6d97	0.11593168
34	0xbd8c6a40	-0.06856203
35	0xbdb42dc3	-0.08797791
36	0x3c9fc0c0	0.01950109
37	0x3e87a700	0.26494598
38	0x3e346e36	0.17620167
39	0x3eacc0ac	0.33740747
40	0x3d1936af	0.037405666
41	0x3e53beaf	0.20678209
42	0xbe632315	-0.22181351
43	0xbe144857	-0.1448072
44	0x3e1bac07	0.15202342
45	0x3dc3ea3c	0.09566161
46	0x3e5540c3	0.20825486
47	0x3e28e2ac	0.16492718
48	0x3e2c769a	0.16842118
49	0x3d425d23	0.047452103
50	0xbdf8004b	-0.12109431
51	0xbd3ba778	-0.045814008
52	0x3d92b4cc	0.071633905
53	0x3e880587	0.26566717
54	0xbcf9b95b	-0.030483892
55	0x3d04a0f6	0.032380067
56	0x3e2f7923	0.17136054
57	0x3e6a51bd	0.22882743
58	0x3c457a67	0.012053109
59	0xbc339e28	-0.010963
60	0xbdedb19b	-0.11606141
61	0x3d22cc17	0.039745416
62	0x3e1cba82	0.15305522
63	0xbe080e74	-0.13286763
64	0xbe2c9b2e	-0.16856071
65	0xbe603a67	-0.21897279
66	0x3e0d9278	0.13825405
67	0x3e7925c8	0.24330819
68	0x3e77193c	0.2413072
69	0x3e87e262	0.26539904
70	0xbcf09301	-0.029366972
71	0x3e217b01	0.15769579
72	0x3e3a4ff1	0.18194558
73	0xbd5a6fce	-0.05332928
74	0xbe0394eb	-0.12849776
75	0x3e80cc92	0.25156075
76	0xbda828e7	-0.082109265
77	0x3dd2416b	0.10266384
78	0xbe1d8d0b	-0.15385835
79	0x3ca5c12f	0.020233719
80	0xbccaafb0	-0.024741977
81	0xbc302274	-0.010750402
82	0x3e5a3021	0.21307422
83	0x3d668b7c	0.056285366
84	0xbd2d1582	-0.04225684
85	0x3e358b82	0.17729
86	0xbd9a5237	-0.075352125
87	0x3d0ad2e3	0.033892523
88	0xbe18ebfc	-0.14933771
89	0xbd3eadf2	-0.046552606
90	0x3e96e490	0.29471254
91	0xbdf09d00	-0.117486954
92	0x3dbedd18	0.09319514
93	0xbe7cf7cc	-0.24703902
94	0x3b530adf	0.0032202525
95	0xbdb68a5e	-0.0891311
96	0x3d8a90aa	0.06765874
97	0xbe4267e0	-0.18984938
98	0x3e33f332	0.1757324
99	0xbe797ab0	-0.24363208
100	0x3df2d3a4	0.118567735
101	0xbd061747	-0.032737043
102	0xbe3cf28a	-0.18451896
103	0x3e88e93a	0.26740438
104	0x3dedcc97	0.11611288
105	0xbe4159bf	-0.18881892
106	0xbdadf88e	-0.08494674
107	0xbd8af65a	-0.06785269
108	0xbe0426b8	-0.12905395
109	0xbb4f2a92	-0.0031611067
110	0x3d7fcade	0.06244933
111	0x3e7cce54	0.24688083
112	0xbd3ea924	-0.046548024
113	0xbdab469f	-0.08363079
114	0x3d8fffe0	0.07031226
115	0x3d8fee10	0.07027829
116	0xbe4f1cd8	-0.20225847
117	0x3e3fa327	0.18714581
118	0x3db2e9a0	0.08735967
119	0xbe5e9591	-0.21736743
120	0xbe2816ee	-0.16414997
121	0xbd214339	-0.03937075
122	0xbe635eae	-0.22204086
123	0xba060d86	-0.00051137095
124	0x3d122098	0.035675615
125	0xbe1187bb	-0.14211933
126	0xbde1ce8e	-0.11025725
127	0xbe63aaba	-0.22233096

fc2.weight f4 [128, 128]
0	0xbe30f9ff	-0.17282866
1	0xbe9c2655	-0.30497995
2	0xbe6cc6a5	-0.23122652
3	0x3e5c62ce	0.21522066
4	0xbef5a671	-0.47978547
5	0xbefb2a5c	-0.49055755
6	0xbd59cc24	-0.0531732
7	0x3de6ec44	0.11275533
8	0xbeba1c20	-0.36349583
9	0x3d4e3820	0.050346494
10	0xbd3f9665	-0.046774287
11	0xbe9d450c	-0.3071674
12	0xbf934be1	-1.1507531
13	0x3e027e33	0.12743454
14	0xbefa91db	-0.48939404
15	0x3e5c3607	0.21504985
16	0x3e9e5537	0.3092439
17	0x3e82cad7	0.2554538
18	0xbd257836	-0.040397845
19	0x3ea17665	0.3153564
20	0x3ea7fc12	0.32809502
21	0x3d96d6f8	0.07365221
22	0x3e2ebe50	0.17064786
23	0x3e388b7c	0.18021959
24	0x3e0f18c8	0.13974297
25	0xbd8ec66f	-0.06971442
26	0xbea6536d	-0.32485524
27	0x3da59570	0.080851436
28	0x3ddeca96	0.10878484
29	0x3ea932ee	0.3304667
30	0x3e8f662b	0.28007635
31	0xbd2e8013	-0.04260261
32	0xbe15e05e	-0.1463637
33	0xbd95da3c	-0.073170155
34	0x3f50fbf6	0.8163446
35	0x3e5b58a9	0.2142054
36	0xbe778642	-0.24172309
37	0x3e36bc4b	0.17845266
38	0x3e838ce6	0.25693434
39	0xbe4a9f6e	-0.1978738
40	0xbd39ffa1	-0.045409802
41	0xbe109725	-0.14120157
42	0x3e1da67c	0.1539554
43	0x3d62f566	0.05540981
44	0x3cd9364d	0.02651515
45	0xbdeb2a12	-0.11482634
46	0xbd2a0e0a	-0.041517295
47	0x3e8e2bcb	0.27767786
48	0xbd896633	-0.06708946
49	0x3e31d99e	0.1736817
50	0x3dd22f78	0.1026296
51	0x3e82a29e	0.25514692
52	0x3e33008c	0.17480677
53	0x3dd4072e	0.10352932
54	0xbeb91063	-0.36145315
55	0xbf40bac7	-0.75285
56	0xbd9a5e11	-0.07537473
57	0x3db27911	0.08714498
58	0x3e593b12	0.2121394
59	0xbd500bff	-0.05079269
60	0xbf498ed5	-0.7873357
61	0x3e130b30	0.14359736
62	0xbcd0f47c	-0.025507204
63	0xbf5ad926	-0.8548759
64	0x3cfe9b09	0.031079786
65	0xbf5f5b48	-0.8724866
66	0x3cc543c0	0.024080157
67	0x3f0fe7e4	0.5621321
68	0x3e1a0c12	0.15043667
69	0x3d791ea8	0.06082025
70	0xbd9e898c	-0.07741079
71	0xbe24a4d8	-0.16078508
72	0xbe12184d	-0.14267083
73	0x3eaddd83	0.33958063
74	0x3e926127	0.28589746
75	0x3ccbaf16	0.02486376
76	0x3ef595fb	0.4796599
77	0x3dbb242b	0.09137758
78	0xbdb86155	-0.090029396
79	0xbdb01a15	-0.08598725
80	0xbf3a07d2	-0.7266818
81	0xbec4e2ad	-0.3845419
82	0xbe8ec4e8	-0.27884603
83	0xbd179b1d	-0.037013162
84	0x3d35127b	0.044207077
85	0xbea34723	-0.3189021
86	0xbeaff691	-0.34367803
87	0xbd6f95c7	-0.05849245
88	0xbbf30f8a	-0.007417624
89	0x3e2d1aea	0.16904798
90	0x3d39414f	0.0452283
91	0x3e7bf3f4	0.2460478
92	0x3ef2a1db	0.4738911
93	0x3e32b9f4	0.17453748
94	0xbe94dcf8	-0.29074836
95	0x3db10786	0.08644013
96	0xbd05047a	-0.032474972
97	0xbe993b9c	-0.2992829
98	0x3dfa0e59	0.12209768
99	0xbd82869a	-0.063733295
100	0x3e2a30a9	0.16620125
101	0xbe214041	-0.15747167
102	0xbee97abb	-0.45601448
103	0x3d03739f	0.032092687
104	0x3e9470d2	0.28992325
105	0x3c19bbbe	0.00938314
106	0x3dcd3581	0.10019971
107	0xbd8c67e7	-0.06855755
108	0x3ebff0ac	0.37488306
109	0x3e867225	0.2625896
110	0xbe14c16a	-0.14526907
111	0x3e6f8127	0.23389111
112	0x3e3e234d	0.18568154
113	0xbe84dfbd	-0.2595195
114	0x3db0c071	0.08630455
115	0x3c928d0c	0.017889522
116	0xbee037b2	-0.43792492
117	0xbe41e3ca	-0.18934551
118	0x3b4fe88c	0.0031724302
119	0xbc9c71f6	-0.01909731
120	0xbec874fc	-0.39151752
121	0xbd1a1432	-0.037616916
122	0xbd694b3b	-0.05695651
123	0xbf28dcbf	-0.6596183
124	0x3e732c09	0.23747267
125	0x3e8d1371	0.27553895
126	0xbe7e4564	-0.24831158
127	0x3e1c9768	0.15292132
128	0xbeaa700e	-0.33288616
129	0xbd8db3d5	-0.06919066
130	0x3e38771c	0.18014187
131	0x3dce5a1a	0.10075779
132	0xbe61d4c2	-0.22053817
133	0xbcd0feb9	-0.025512086
134	0xbe09859b	-0.13429873
135	0xbd8e0cbd	-0.069360234
136	0xbd1fcb2c	-0.03901212
137	0x3e02097e	0.12698933
138	0xbdf7583e	-0.12077378
139	0xbecea4ca	-0.403601
140	0xbf58c7b8	-0.84679747
141	0xbe2710b4	-0.16314965
142	0xbf10698a	-0.5641104
143	0x3d14679f	0.036231633
144	0x3dcb334b	0.09921893
145	0x3dddfa6d	0.108387806
146	0xbe0fe543	-0.140523
147	0x3ec31bf0	0.38107252
148	0x3e9e45c8	0.30912614
149	0x3e4b1f96	0.19836268
150	0x3eacb545	0.33732048
151	0xbe07330b	-0.13203065
152	0xbd7877e7	-0.060661223
153	0xbd8a2371	-0.06745041
154	0xbeff48ad	-0.49860135
155	0x3e0726db	0.13198416
156	0x3e059cd5	0.13048108
157	0x3e66cd89	0.22539343
158	0x3d4b7fc8	0.04968241
159	0x3d194e22	0.03742803
160	0xbcb2ce6d	-0.021826947
161	0x3dc96536	0.098337576
162	0x3ebea65f	0.37236306
163	0xbdb36d88	-0.08761126
164	0xbe861bfa	-0.2619322
165	0x3dcab83e	0.09898423
166	0x3e0ac0a5	0.1355005
167	0x3d6a4110	0.057190955
168	0xbcdaab03	-0.026692873
169	0xbdfdc8c0	-0.12391806
170	0x3dde19e2	0.108447805
171	0x3e4310df	0.19049405
172	0x3d31acf5	0.043377835
173	0x3e815d5d	0.25266543
174	0xbe9f31ee	-0.3109278
175	0x3d3e3bb3	0.046443652
176	0x3d9c5e8a	0.076352194
177	0x3d486d17	0.04893216
178	0xbdc41ff9	-0.09576411
179	0x3e8afb3c	0.27144802
180	0xbe66c36d	-0.22535487
181	0x3e0eb16a	0.13934866
182	0x3e36735f	0.17817448
183	0xbdc812ce	-0.09769212
184	0x3e10107b	0.14068787
185	0xbb419afe	-0.0029541845
186	0x3e3b63f6	0.18299851
187	0x3e99898d	0.29987755
188	0xbe999579	-0.2999685
189	0x3df07e00	0.117427826
190	0xbde81396	-0.11331861
191	0xbe685d7b	-0.2269191
192	0xbe231264	-0.15924984
193	0xbed20fcc	-0.41027677
194	0xbdb54dc7	-0.088527255
195	0x3cda04ce	0.02661362
196	0xbd01f639	-0.031728957
197	0x3dd71991	0.10502923
198	0xbdf1d8df	-0.11808943
199	0xbe152aae	-0.14567062
200	0xbd70f3f2	-0.058826394
201	0xbea045e2	-0.31303316
202	0x3d974f16	0.07388131
203	0x3eef1fbf	0.46703908
204	0x3f06ba81	0.5262833
205	0x3d42b00f	0.047531184
206	0xbe6ff14a	-0.23431888
207	0xbe3206b6	-0.17385373
208	0xbecf8f91	-0.4053922
209	0x3db9323c	0.090427846
210	0x3dc4c0e8	0.096071064
211	0x3db65855	0.08903567
212	0xbf67f04d	-0.90601045
213	0xbdfa12d5	-0.12210623
214	0x3e032ee1	0.12810852
215	0xbd65f32e	-0.056140117
216	0x3c96c8aa	0.018406231
217	0x3e28b947	0.16476928
218	0xbd8f0506	-0.0698338
219	0x3d125765	0.035727877
220	0x3e64d4c5	0.2234679
221	0x3e13bf3d	0.1442842
222	0xbe02d757	-0.12777458
223	0x3ddd3802	0.10801698
224	0xbdf0c8bd	-0.11757038
225	0x3ed2378a	0.41057998
226	0x3e2baa0b	0.16764085
227	0x3d9a4e12	0.07534422
228	0x3e053c1b	0.1301121
229	0xbd8d7fc7	-0.06909137
230	0xbe958496	-0.29202718
231	0xbe3c570b	-0.1839258
232	0x3e431885	0.19052322
233	0x3e976a7c	0.2957343
234	0x3e1b64c7	0.15175162
235	0xbe277cd5	-0.16356213
236	0x3e94742c	0.28994882
237	0x3ea7f965	0.3280746
238	0xbe8e8328	-0.2783444
239	0xbd37a996	-0.044839464
240	0x3de74aca	0.11293562
241	0xbe14bcc4	-0.14525133
242	0xbd293252	-0.041307755
243	0x3e9b6300	0.30348969
244	0x3f4efae7	0.80851597
245	0x3d9ffeac	0.07812247
246	0x3d6a8d3e	0.057263605
247	0x3e1912f1	0.14948632
248	0x3eab401e	0.33447355
249	0xbd98f2fd	-0.07468221
250	0xbdc13ee4	-0.094358236
251	0xbe9b1fc9	-0.30297688
252	0x3d4757de	0.04866778
253	0x3e89481c	0.26812828
254	0xbf3ff9e7	-0.74990696
255	0xbdc7e3e6	-0.09760265

fc2.bias f4 [128]
0	0xbb16401f	-0.0022926403
1	0x3ca4e772	0.020129893
2	0x3dd3feff	0.10351371
3	0xbdb845f0	-0.089977145
4	0xbd6c9588	-0.05775979
5	0xbc30f9fa	-0.010801787
6	0x3c8a5280	0.016885042
7	0xbd2be60f	-0.041967448
8	0xbd263e6b	-0.04058687
9	0x3d900e2f	0.07033955
10	0xbcaddbe6	-0.02122302
11	0x3dc98ec7	0.09841686
12	0xbbb58182	-0.00553912
13	0x3d0c82f6	0.03430458
14	0x3d529cba	0.051418997
15	0xbce3d432	-0.027811144
16	0xbc6905ce	-0.014222575
17	0xbe116729	-0.14199509
18	0x3d02dc5b	0.03194843
19	0x3d9eedae	0.077601776
20	0xbce99111	-0.028511556
21	0x3d4ce56f	0.050023492
22	0x3dfdb720	0.12388444
23	0x3d9b2736	0.07575838
24	0x3db0dd23	0.086359285
25	0x3c5c7e8b	0.013457905
26	0x3d92f99f	0.07176518
27	0xbcf54a19	-0.02994256
28	0x3ca1ecfe	0.019766327
29	0x3e1ad10c	0.15118808
30	0x3d36e17e	0.04464864
31	0x3da24d6f	0.079249255
32	0xbb52fe32	-0.003219497
33	0xbd883cb3	-0.066522025
34	0xbd3ce39f	-0.046115514
35	0x3e116c3a	0.14201441
36	0xbd6ef5cd	-0.058339883
37	0x3d8d3051	0.06893981
38	0x3d3b7ee4	0.04577531
39	0xbd22e3d4	-0.039768055
40	0xbd704d1a	-0.05866728
41	0x3dbc9993	0.092089795
42	0x3d78fb25	0.060786385
43	0xbce740d3	-0.028229153
44	0x3dafd27d	0.08585069
45	0xbca89cd3	-0.020582592
46	0x3c1c5037	0.009540609
47	0xbc07f55e	-0.008298246
48	0x3c713e0c	0.014724266
49	0xbcf4d516	-0.029886764
50	0xbc542535	-0.012948324
51	0x3ddbeacd	0.10738144
52	0x3dc1ba14	0.0945932
53	0x3db46045	0.088074245
54	0xbdc36176	-0.095400736
55	0x3bbf7d4c	0.005843794
56	0x3ce9237c	0.028459303
57	0xbc71cef2	-0.014758812
58	0xbc6afb3f	-0.014342128
59	0x3e0686e4	0.13137394
60	0x3dd2d6f7	0.102949075
61	0xbd33d7aa	-0.043906845
62	0x3d5624c6	0.052281164
63	0xbbf6de88	-0.007533852
64	0xbdaba828	-0.08381683
65	0x3d01b807	0.031669643
66	0x3d087afd	0.033320416
67	0x3d98588a	0.074387625
68	0xbdac7c3b	-0.084221326
69	0x3d3dabe0	0.04630649
70	0x3d1ec594	0.038762644
71	0xbd1e296f	-0.038613733
72	0xbcbd5a7d	-0.023114437
73	0xbd8825ac	-0.0664781
74	0x3b93f6d5	0.0045155087
75	0x3d27e939	0.040993903
76	0x3d5e9c38	0.0543482
77	0xbd5f0633	-0.05444927
78	0x3daf4732	0.08558501
79	0x3daa9e5e	0.083309874
80	0x3c3e8aa6	0.011629736
81	0x3d68db4c	0.056849763
82	0xbd8c34c0	-0.06845999
83	0xbd9f691c	-0.0778372
84	0xbd8cb9d8	-0.068713844
85	0x3c713433	0.014721918
86	0x3c1c6051	0.009544448
87	0x3d99e14b	0.07513674
88	0xbaf305f3	-0.0018541202
89	0x3cf2b0cd	0.02962532
90	0x3d3342f8	0.04376504
91	0xbd8cc3fc	-0.068733186
92	0xbcd4396e	-0.02590629
93	0x3e00c55b	0.12575285
94	0x3d65692f	0.056008514
95	0x3d8bf481	0.06833745
96	0xbc6ad2ea	-0.014332512
97	0x3cada76c	0.021197997
98	0xbc8d7286	-0.017266523
99	0x3b86c27f	0.004112541
100	0xbc98b5d9	-0.0186414
101	0x3d8b8003	0.06811526
102	0x3d8589b5	0.06520406
103	0xbd131f21	-0.03591836
104	0x3d3a9d34	0.045560077
105	0x3c8e22c3	0.01735056
106	0xbb7e3b79	-0.0038792773
107	0xbcd2388e	-0.025661733
108	0x3dd7d858	0.10539311
109	0xbce553e7	-0.02799411
110	0xbd838bb0	-0.06423128
111	0x3b0f7b40	0.002189353
112	0x3dae5bec	0.085136265
113	0xbbbb316b	-0.005712678
114	0x3d41dc01	0.047328953
115	0x3dd9781c	0.10618612
116	0x3da4e860	0.080521345
117	0x3d13459f	0.035955068
118	0x3c157a0f	0.009123339
119	0xbd08ae57	-0.03336939
120	0x3d01d9be	0.031701796
121	0x3dfdb72f	0.12388455
122	0x3d944067	0.07238846
123	0xbd02ff8f	-0.031982
124	0x3e001813	0.12509184
125	0x3ce28df1	0.027655574
126	0x3e05b2f0	0.1305654
127	0x3d5aeff6	0.0534515

action_head.weight f4 [6, 128]
0	0xbf75fb89	-0.9608694
1	0xbed90d7e	-0.42393106
2	0x3eb95a63	0.36201772
3	0xbf59deb9	-0.8510547
4	0xbf15eb7e	-0.5856246
5	0xbfc3f7b8	-1.5309973
6	0x3f256bf1	0.6461783
7	0x3faa70f5	1.3315722
8	0xbeb97e5b	-0.36229214
9	0xbeb09680	-0.34489822
10	0xbd144f15	-0.03620823
11	0x3e9335a3	0.2875186
12	0xbe27adc1	-0.16374876
13	0x3f21965f	0.63120073
14	0xbd816daa	-0.06319745
15	0x3ea82f6a	0.32848674
16	0xbe3783a5	-0.17921312
17	0xbf5f2346	-0.871632
18	0x3ed6d797	0.41961357
19	0x3ec92fc2	0.3929425
20	0x3ec95d17	0.39328834
21	0x3c4d77c8	0.012540765
22	0x3f135f8f	0.57567686
23	0x3f3e65a7	0.7437386
24	0x3efe0454	0.49612677
25	0x3df13efe	0.11779593
26	0x3f47c0a8	0.78028345
27	0x3f31afdf	0.69408983
28	0x3ef45f8f	0.47729155
29	0x3f499690	0.78745365
30	0xbd7eb40f	-0.062183436
31	0xbf8a9975	-1.0828081
32	0x3e9b40ed	0.30322972
33	0xbf39c819	-0.7257095
34	0xbe2da202	-0.16956332
35	0x3ecfd1cd	0.40589753
36	0x3e853e61	0.26024154
37	0x3f7d26ad	0.9888714
38	0x3e8bf264	0.27333367
39	0xbba4e48c	-0.0050321277
40	0xbeff427d	-0.49855414
41	0xbf39df2e	-0.7260617
42	0x3ede0bd6	0.43368405
43	0x3e54112b	0.20709674
44	0x3e938262	0.28810412
45	0xbeed0067	-0.4628937
46	0xbecb0d81	-0.3965874
47	0xbf7a9158	-0.97878027
48	0x3dff95e9	0.12479765
49	0x3d6f0774	0.058356717
50	0x3f10eb02	0.56608593
51	0xbf223052	-0.6335498
52	0x3ec21c72	0.37912327
53	0xbc82c2ef	-0.015962092
54	0xbe1a2cd3	-0.15056162
55	0x3e92d5bc	0.2867869
56	0xbddde33a	-0.10834356
57	0xbdd9128c	-0.10599241
58	0xbf0b9fe4	-0.5454085
59	0x3f3d704b	0.7399947
60	0x3ec47ae6	0.38375014
61	0xbf6a92d5	-0.916303
62	0x3ee12404	0.4397279
63	0x3ea3be5e	0.31981176
64	0x3eb190e4	0.34680855
65	0x3fb4943c	1.4107738
66	0x3f116c72	0.568061
67	0x3ed433f4	0.41445887
68	0xbfc93c0e	-1.5721452
69	0x3f152c8e	0.5827111
70	0xbefada8d	-0.48994866
71	0x3e6fd3c7	0.2342063
72	0xbcba111e	-0.02271324
73	0xbf20a415	-0.6275037
74	0xbf0dacca	-0.5534178
75	0xbdaa79f9	-0.08324046
76	0xbf8c1be4	-1.0946012
77	0xbf60fb5b	-0.8788354
78	0x3eb81f7e	0.35961527
79	0x3ee14322	0.4399653
80	0xbdde9ff5	-0.10870353
81	0x3f20679c	0.62658095
82	0x3f8420fe	1.0322568
83	0x3ea8de6c	0.32982194
84	0x3f7080a4	0.9394629
85	0xbf102235	-0.56302196
86	0xbebbaad9	-0.36653784
87	0x3e14cb03	0.14530568
88	0x3f123c6d	0.5712345
89	0x3f62965a	0.8851067
90	0xbf1c72de	-0.61112773
91	0xbef2ae18	-0.47398448
92	0xbf24f87f	-0.64441675
93	0x3e73097f	0.23734091
94	0x3a37cd11	0.0007011453
95	0xbd3cc9bb	-0.046090823
96	0xbd8900dd	-0.06689618
97	0xbf1d61f8	-0.61477613
98	0xbf25131d	-0.6448229
99	0xbf067cdb	-0.52534264
100	0x3eb1dd3f	0.3473911
101	0x3f218af7	0.6310267
102	0x3ea5f202	0.324112
103	0xbe5cd97a	-0.21567336
104	0x3eb59a5f	0.35469338
105	0x3f2f5352	0.6848651
106	0x3d21801e	0.039428823
107	0xbf3406ce	-0.70322883
108	0x3ed3ea1a	0.41389543
109	0x3f51dc0b	0.81976384
110	0x3b8a455b	0.0042196936
111	0x3d16664f	0.036718663
112	0x3f586ba6	0.8453926
113	0xbb79f07f	-0.0038137732
114	0x3e91cf39	0.2847841
115	0x3c46df16	0.012138149
116	0x3eee3b18	0.4652946
117	0xbf4414a0	-0.7659397
118	0xbda82a76	-0.08211224
119	0xbefd115e	-0.49427313
120	0x3e1b12a5	0.15143831
121	0x3f2860cd	0.65772706
122	0xbf37b6c3	-0.7176325
123	0x3f29a69e	0.6626986
124	0x3ed71073	0.42004737
125	0x3f0a67ca	0.5406462
126	0x3f0fff9c	0.56249404
127	0x3e698c4d	0.22807427
128	0x3f416f2d	0.75560266
129	0x3f03558e	0.5130242
130	0xbf01a2d6	-0.5063909
131	0x3f01583c	0.5052526
132	0x3e300862	0.17190698
133	0x3f9df4ae	1.2340295
134	0xbf33aee7	-0.70188755
135	0xbfa2b086	-1.2710121
136	0x3f0a3fe9	0.5400377
137	0x3f010709	0.5040136
138	0x3e83a95f	0.25715157
139	0xbe33b74a	-0.17550388
140	0x3e53173e	0.20614335
141	0xbe2e4d0e	-0.17021582
142	0xbe553032	-0.20819166
143	0xbe91db0c	-0.28487432
144	0x3eb47369	0.352443
145	0x3ecad461	0.39615157
146	0xbf0ef280	-0.55838776
147	0xbe7686ba	-0.24074832
148	0xbe93aeb6	-0.2884423
149	0x3e991d80	0.2990532
150	0xbe21b886	-0.15793046
151	0xbf7e7eee	-0.9941243
152	0xbedd6c84	-0.43246853
153	0x3ea937c3	0.33050355
154	0xbf692140	-0.9106636
155	0xbefc8e5d	-0.49327365
156	0xbe6f302b	-0.23358218
157	0xbf10e013	-0.5659191
158	0x3e6757b7	0.22592054
159	0x3f51ebf0	0.8200064
160	0xbe8b858d	-0.2725033
161	0x3f27e0da	0.6557747
162	0x3ec1144a	0.37710792
163	0xbda1f79d	-0.079085566
164	0x3d02baf8	0.03191659
165	0xbf6cfbc9	-0.92571694
166	0xbe2a00fd	-0.1660194
167	0x3e15d6f4	0.1463278
168	0x3ef26278	0.4734075
169	0x3f012a89	0.5045553
170	0xbf231e94	-0.63718534
171	0x3e0bcc70	0.13652205
172	0x3c75eff2	0.015010821
173	0x3ee9d381	0.45669177
174	0x3eec3045	0.46130577
175	0x3ee7161e	0.45134062
176	0xbe18465c	-0.1487059
177	0x3ecd6a09	0.4011996
178	0xbf4dbf0c	-0.8036964
179	0x3dcd182c	0.10014376
180	0xbe807ead	-0.25096646
181	0x3ec89f53	0.39184055
182	0x3e29b2da	0.16572133
183	0x3dee772f	0.11643826
184	0x3e3e531f	0.18586396
185	0x3e0e631f	0.13904999
186	0x3ebcf966	0.36909026
187	0xbf2a195f	-0.66444963
188	0xbe493f47	-0.19653045
189	0x3f2fbcaa	0.68647254
190	0xbf0d9a48	-0.5531354
191	0xbeda7217	-0.4266517
192	0xbf317c67	-0.6933045
193	0xbfbf049a	-1.4923279
194	0xbf7aa6d4	-0.9791081
195	0xbed95183	-0.42445
196	0x3fb312f5	1.399016
197	0xbea86eaa	-0.3289693
198	0x3ef6dc33	0.48214874
199	0x3e54918b	0.20758645
200	0x3ded4b48	0.115866244
201	0x3f26238d	0.64897996
202	0x3e3095c7	0.17244636
203	0xbe76557d	-0.24056049
204	0x3f4e0208	0.8047185
205	0x3f31449f	0.6924533
206	0xbefc78bc	-0.49310863
207	0xbe624bc6	-0.22099218
208	0x3e5802a0	0.21094751
209	0xbe83661d	-0.25663844
210	0xbf796e53	-0.97433966
211	0xbe837053	-0.25671634
212	0xbf4e0e53	-0.8049061
213	0x3e598235	0.21241076
214	0x3e99a690	0.3000989
215	0x3e63bd8c	0.22240275
216	0xbf055426	-0.52081525
217	0xbf5b0cd8	-0.85566473
218	0x3efbebd0	0.49203348
219	0x3e3c003e	0.18359467
220	0x3f08a5f3	0.5337822
221	0xbf013fd0	-0.50487995
222	0x3e7f2f61	0.24920417
223	0xbc9fd890	-0.019512445
224	0x3db5c1b9	0.0887484
225	0x3f0f7e42	0.5605203
226	0x3f2c64e0	0.67341423
227	0x3f11d213	0.5696117
228	0xbeff4c4d	-0.498629
229	0xbe99e4a5	-0.30057254
230	0xbe9fbb37	-0.3119752
231	0x3ec12d7e	0.3773002
232	0x3c750b9c	0.014956381
233	0xbf2d7232	-0.67752373
234	0x3eb43a68	0.3520081
235	0x3f01a4db	0.50642174
236	0xbe21833f	-0.15772723
237	0xbf5a0d64	-0.8517668
238	0xbd9f69d7	-0.07783859
239	0x3e952e2c	0.2913679
240	0xbf466fa1	-0.7751408
241	0x3e8839ca	0.2660659
242	0xbf209b38	-0.62736845
243	0x3e4cd334	0.20002443
244	0xbd39a78d	-0.045325805
245	0x3f077467	0.5291199
246	0xbd033610	-0.03203398
247	0x3f1dc054	0.61621594
248	0xbe53064c	-0.20607871
249	0xbf0df5c3	-0.5545313
250	0x3ef66045	0.48120323
251	0xbeddb90f	-0.4330525
252	0xbe2397c8	-0.15975869
253	0xbef4e95e	-0.47834295
254	0xbf2110c9	-0.6291624
255	0xbe8683ba	-0.26272374

action_head.bias f4 [6]
0	0x3d9abae6	0.07555179
1	0x3d6092ab	0.054827373
2	0xbeb02e91	-0.34410527
3	0xbf14b2f6	-0.5808557
4	0xbc753153	-0.014965373
5	0xbef30549	-0.4746497
