alg/discrete_action/param/net_param/actor_net1739785582.pkl (torch, 80064 bytes, 6 tensors)

fc1.weight f4 [128, 15]
000000 43 b3 9f bd c0 da 79 3e 56 31 44 bd 04 e7 8e 3d
       -0.07797863 0.24399853 -0.047898613 0.069776565
000010 3b 2e 3d bd a0 4f 1e be 6c c7 53 3e e4 75 4c be
       -0.046186667 -0.15460062 0.20681542 -0.19966847
000020 e6 61 0d 3e eb 00 26 3e 14 34 45 be e6 9d 1b be
       0.13806877 0.16211288 -0.19258147 -0.15196952
000030 43 08 b8 bc 5a 5c 85 3d c8 dc 9a bc 04 d2 d0 bd
       -0.022464877 0.06511755 -0.018904105 -0.10196307
000040 cf ae 84 3e d3 2b 6c 3c 4b a8 aa 3d 5d 1d 16 3e
       0.25914618 0.014414745 0.083328806 0.14659639
000050 dd 90 87 3d ec c5 de bd c6 6e 4f be 4d d6 b1 3d
       0.06619427 -0.10877594 -0.202571 0.08683453
000060 eb 6a 44 be 40 46 c8 bd de b1 23 3e 69 15 be bd
       -0.19181411 -0.09779024 0.1598582 -0.092814274
000070 d3 b2 d2 bd de 40 7d 3c f4 e6 c3 3d ac 2c 49 be
       -0.10288014 0.01545736 0.09565535 -0.19645947
000080 f6 ec 3f 3e 3d de 7a bd 8c db 26 3d f7 05 3a 3e
       0.18742737 -0.0612471 0.04073672 0.18166338
000090 69 73 13 3e ca 8f cb bd 99 3d 42 be 30 54 54 be
       0.14399494 -0.09939535 -0.1896881 -0.2073524
0000a0 eb 0c 8e 3d 34 99 89 3d 28 ac b7 3d 38 70 f2 3d
       0.06936058 0.06718674 0.08968383 0.1183781
0000b0 4a d5 40 3e 28 65 f9 3d fe 5e 59 3e b3 ab fb 3d
       0.18831363 0.12177497 0.21227643 0.122886084
0000c0 30 2a c1 3d 4e f5 37 3e be cc 50 3c 59 dc 08 3d
       0.09431875 0.1796467 0.012744127 0.033413265
0000d0 7d 7e 84 3d b7 c8 95 3d 8f 09 67 3d 26 ec 6c 3d
       0.06469438 0.07313674 0.0564056 0.057842396
0000e0 fe 08 55 3e 43 3c 70 bc 2f 7a f3 3d 27 7f 43 bd
       0.20804211 -0.014662805 0.11888539 -0.047728684
0000f0 48 f2 be bd 12 8d 60 3d c7 41 57 bd 4e ce 8b 3d
       -0.09323555 0.054822035 -0.052552965 0.06826459
000100 78 da 30 be e6 2b 3d be 42 87 b1 bd 75 35 03 3e
       -0.17270839 -0.18473777 -0.086683765 0.12813361
000110 1e bf ad 3d a1 6f 9e bd b5 da 0f 3d 07 b0 fc 3c
       0.08483718 -0.07736135 0.035120685 0.030845655
000120 cf 08 7c 3e cd d2 96 3d cd f5 6e 3e 53 0f 48 be
       0.24612735 0.07364426 0.23335953 -0.19537096
000130 9d b2 d8 bd 2b 8f be 3d 43 f3 9f 3d cc 30 5c be
       -0.10580943 0.09304651 0.0781007 -0.2150299
000140 88 6f 11 3e bd 7e f9 bc 23 8c e7 3d 40 53 03 bc
       0.14202702 -0.030455941 0.11306026 -0.008015454
000150 1b 95 19 3e d5 58 10 3e c1 b0 49 bd 70 ce aa 3d
       0.14998285 0.14096387 -0.04924083 0.08340156
000160 00 ba 78 bd ac a2 3a 3e af 36 dc 3d 9d 3a 06 3e
       -0.06072426 0.18226117 0.107526176 0.13108297
000170 76 08 88 bc dd c1 7e bd 19 03 aa bd db 81 8d bd
       -0.016605597 -0.0621966 -0.08301372 -0.069095336
000180 02 e8 7c 3d 55 96 3c 3d 9d 7a 37 3e 85 6f 15 be
       0.061744697 0.046041805 0.17917867 -0.14593323
000190 f2 70 a8 bc d8 02 60 3d 40 a9 1a 3e d6 31 a0 3d
       -0.020561669 0.054690212 0.15103626 0.078220055
0001a0 06 0d 10 3d 30 e7 13 3e 03 e0 44 be 49 12 5b 3e
       0.03516867 0.1444366 -0.19226079 0.21393694
0001b0 bd c0 0e be 4f d2 c8 3c ad 91 61 3e af 46 3b 3e
       -0.13940711 0.024514345 0.22028227 0.18288682
0001c0 1a c5 b0 bd eb 9a a9 3c 3a 89 1e 3e 14 aa c0 3d
       -0.08631344 0.020703753 0.15482035 0.0940744
0001d0 dd 16 4b be 7c 4f af bd 7f a6 e2 3c a3 61 c1 3c
       -0.1983294 -0.08560082 0.027667282 0.023606127
0001e0 5a 95 58 3d 4d a2 d3 3d 61 d0 24 be df 10 2f bd
       0.052876808 0.10333691 -0.16095115 -0.0427407
0001f0 0b ea c5 bd 9b e9 f5 bd 72 4d 8a bc 7f 9f 22 be
       -0.09663781 -0.12007447 -0.016882632 -0.15881155
000200 7b d2 4a 3e cd c5 3c 3d 86 41 ff bd be 03 dc bd
       0.19806854 0.046087075 -0.124636695 -0.10742901
000210 b4 b5 f6 3d 60 11 00 be 70 2a 9c 3c 9a b3 32 bd
       0.12046376 -0.12506628 0.019063205 -0.043628313
000220 a2 64 51 3e 94 e6 a3 3d 8d 43 30 be da c7 87 bd
       0.20448545 0.08002964 -0.17213269 -0.066299155
000230 6a aa 85 bc 2d c7 39 bc 88 bf 03 3e 9b db 0a be
       -0.016316611 -0.011338991 0.12866032 -0.13560335
000240 61 8b 14 3d 5c 34 cb bc e6 fb 65 3e b2 bc 17 3e
       0.036265735 -0.02480524 0.22459373 0.14818075
000250 49 ee 10 be 4a b6 5b be 06 aa 9e bd e7 c7 b4 bd
       -0.14153399 -0.21456257 -0.07747273 -0.08827191
000260 0a 49 81 bc 86 33 8a bd e2 14 00 3d bb db 90 3d
       -0.015781898 -0.067481086 0.031269915 0.0707316
000270 24 e4 c6 3d 72 7f f7 3d a3 fc 56 3e 15 65 4f be
       0.09711483 0.12084855 0.20994811 -0.20253403
000280 62 36 fc 3d ac 0d 2a 3e 0d f8 24 bb 02 3c e5 3d
       0.1231506 0.16606778 -0.0025172264 0.11193086
000290 c5 84 f1 3d 80 63 c2 3d 18 a1 29 be 10 ff e7 3a
       0.11792902 0.09491634 -0.16565359 0.0017699916
0002a0 a7 0b 2a be 4a 26 49 be ee 98 f6 bd 8a 3b de 3d
       -0.16606008 -0.19643512 -0.12040888 0.108512
0002b0 73 08 9e 3c 56 d9 09 be 4c 55 2f be ca b7 02 3d
       0.019291138 -0.13461813 -0.17122382 0.031913556
0002c0 a2 d7 bf b7 40 56 f5 bd ed e4 1b 3e 7b b6 9e bd
       -2.2869386e-05 -0.119793415 0.15224047 -0.07749649
0002d0 c9 5a 11 3d fa f1 53 be 4b 78 21 be 0d d2 d7 3d
       0.03548697 -0.20697775 -0.15768544 0.10538111
0002e0 47 5b f6 bd de 06 46 be 2d 5e 50 be 7b 57 a2 3d
       -0.120291285 -0.19338557 -0.20348425 0.07926842
0002f0 87 94 0b 3e 27 60 2e 3e 60 11 a5 bd bb 8b 77 be
       0.13630877 0.17028867 -0.08059955 -0.24174397
000300 84 a3 a3 bd 2e ee ac 3c 96 60 aa 3d b9 48 2c 3e
       -0.079901725 0.021109667 0.083192036 0.16824616
000310 e5 58 ea 3c 21 92 e1 bd f4 7a 2d be 93 a7 5f 3e
       0.028606841 -0.110142 -0.16941434 0.21841268
000320 62 19 a1 3d 23 6e 5d be 48 31 36 3d 8d 6e d4 3d
       0.078661695 -0.21624045 0.044480592 0.103726484
000330 67 71 3b 3e 42 b9 2e 3e c9 f3 26 3d 3c cb 82 3d
       0.18304978 0.17062858 0.040759835 0.0638642
000340 e2 eb 3e 3b ae e4 b4 3d 9d 7a 53 bd 2e 4e 99 3e
       0.0029132296 0.0883268 -0.051630605 0.2994246
000350 ce ed 83 3b e4 42 10 3e 49 4a de 3d 88 74 fc bb
       0.0040261513 0.14088017 0.108540125 -0.0077043213
000360 35 96 82 bd 2c 4c 1b 3d b0 3d ba 3c 81 14 fa bc
       -0.06376306 0.03791444 0.022734493 -0.030527355
000370 d5 88 f4 bd 03 3f d3 bd 7b 29 91 bb 7d 7a 8a bc
       -0.11940161 -0.10314753 -0.0044299937 -0.01690411
000380 f1 4e 84 bd 9f 93 db bd 43 70 02 3e f3 67 af bd
       -0.064603694 -0.10721516 0.12738137 -0.085647486
000390 c4 d1 f6 bd 0a 33 d7 bc 08 d0 1e 3e 09 27 88 3d
       -0.12051728 -0.026269455 0.15509045 0.0664807
0003a0 fd cc 1b 3e 72 c2 9c bc f6 f7 21 bd 17 aa a3 3d
       0.15214916 -0.019135688 -0.039543115 0.079914264
0003b0 8f d9 63 3e fb d7 c4 bd 00 73 d4 bd b8 5e 01 be
       0.22250961 -0.096115075 -0.10373497 -0.12633789
0003c0 da 4f 60 be 5d c1 b6 bc f3 71 68 bd 8e 97 99 3d
       -0.21905461 -0.022309 -0.056749295 0.0749961
0003d0 8c 62 26 3e 05 a8 14 3e 6d e1 19 be 44 06 18 be
       0.1624853 0.1451722 -0.150274 -0.1484614
0003e0 61 96 8d 3d cc f0 90 bd 42 aa 45 3e c4 a7 4d be
       0.06913448 -0.07077178 0.1930323 -0.20083529
0003f0 d4 ac b6 bd 4e 75 11 3e d8 2d 1a be b0 67 2e be
       -0.08919683 0.14204904 -0.1505655 -0.17031741

fc1.bias f4 [128]
000000 37 e7 82 bc 59 3c 32 be e9 d0 5e 3d 4b 2a 59 bd
       -0.015979392 -0.17405833 0.05439845 -0.05301885
000010 df 7d 17 be 4e 0f 15 bd 5c e0 78 be a6 07 1a 3e
       -0.1479411 -0.03639155 -0.24304336 0.1504198
000020 e5 58 19 be 38 86 6f bd 98 16 64 be 91 d3 08 bd
       -0.14975317 -0.05847761 -0.22274244 -0.03340489
000030 4e 08 a3 bd 30 f7 34 3e 73 48 d3 bc 5e 41 6b 3e
       -0.07960568 0.1767242 -0.025791382 0.22974154
000040 c1 8f 71 3e cd 0a 96 3d 20 f4 2e bd 72 f4 2f be
       0.23589994 0.07326279 -0.042713284 -0.17183092
000050 38 d8 0f be 1b f7 6f bd f8 ca 2d be 1b ef 45 3e
       -0.14047325 -0.058585268 -0.16971958 0.19329493
000060 53 11 23 bd 1e 28 34 bc 47 e1 08 3d 59 75 64 be
       -0.039811444 -0.010995893 0.033417966 -0.2231039
000070 aa 15 7a 3e b5 b4 c1 bd 79 b1 22 be f0 f0 2b 3d
       0.24422327 -0.09458295 -0.15888013 0.041977823
000080 9b 17 43 be 7a 01 01 3e f9 16 f5 bd 4e 1b 11 bd
       -0.19051974 0.1259822 -0.11967272 -0.03542643
000090 08 87 d4 bc 40 40 6a 3e 22 d6 46 3e 6a 8f 87 3e
       -0.025943294 0.22876072 0.19417623 0.26476604
0000a0 9e bd 4a 3d 87 40 48 3e 15 23 63 be 0a 71 09 be
       0.04949724 0.19555865 -0.22181351 -0.13422027
0000b0 28 ba 07 3e a6 8e e5 3d c4 9b 0d 3e 31 35 1e 3e
       0.13254607 0.11208849 0.13828951 0.15449978
0000c0 d0 b1 46 3e a4 c2 11 3e 2d 62 ef bd a1 8f 7c bd
       0.19403768 0.14234406 -0.116886474 -0.061660413
0000d0 13 39 bc 3d 50 33 72 3e 26 6d f4 3c 8b 23 7c bc
       0.091905735 0.23652387 0.029837202 -0.0153893335
0000e0 5e d5 44 3e 4a de 46 3e 33 33 8f ba 0e cd 28 bc
       0.19222018 0.19420734 -0.0010925293 -0.010302795
0000f0 15 b4 83 be 32 d1 9d 3d 46 a7 ed 3d 65 3e 1c be
       -0.2572333 0.077059165 0.116041705 -0.15258177
000100 67 ac 43 be 89 d8 51 be d9 6b 84 3e fe 94 67 3e
       -0.19108735 -0.20492758 0.2586353 0.2261543
000110 e9 1b 8a 3e 79 ed 92 3e c4 fe 90 3c 48 1f fe 3d
       0.2697442 0.28696802 0.017699607 0.1240831
000120 e6 99 3c 3e 4d 4e 88 bd 20 68 21 be c5 a2 72 3e
       0.18418083 -0.0665556 -0.15762377 0.23694904
000130 05 06 64 bc 8b 21 10 3e f5 aa d1 bd 5f a3 74 bd
       -0.013917451 0.14075296 -0.102376856 -0.059726115
000140 f1 6a 5b bd d7 88 ba 3c 13 a0 3c 3e ba dd 67 3e
       -0.053568784 0.022770328 0.18420438 0.22643176
000150 53 62 e9 bc b6 78 8f 3e e6 31 b2 bd fa 65 52 3c
       -0.028489267 0.28021783 -0.087009236 0.012841696
000160 e2 28 2d be e2 a0 89 3d 4c a9 89 3e 93 d8 4f be
       -0.16910127 0.06720139 0.26886976 -0.2029746
000170 8b e4 e3 3d cd 38 3d be 38 8e 3d bd 82 e0 e6 bd
       0.111275755 -0.18478699 -0.04627821 -0.1127329
000180 94 58 2e 3c 4a 88 05 be ff 1c c5 3d b0 7a 79 be
       0.010641236 -0.13040271 0.09624671 -0.24363208
000190 2e f1 ce 3d 41 72 1f bd 54 f4 11 be 1b 8a 67 3e
       0.10104595 -0.03892732 -0.1425336 0.22611277
0001a0 50 c1 85 3d ac ce 24 be 26 00 9a bd 8a 66 45 bd
       0.06531012 -0.16094464 -0.075195596 -0.048193492
0001b0 29 23 dc bd d0 53 81 3d c6 b9 65 3d 6b 10 77 3e
       -0.10748894 0.06314814 0.05608537 0.24127357
0001c0 9a 6f 06 3d 13 73 b0 bd e5 a9 91 3e b9 2f d9 3d
       0.032821275 -0.08615699 0.28449932 0.106048055
0001d0 a4 bb ba bd 70 ec 54 3e 57 b0 6a 3e 91 95 5e be
       -0.09117821 0.20793319 0.22918831 -0.21736743
0001e0 ca d3 5a be 85 c2 e4 bd ae 5e 63 be 70 00 03 bd
       -0.21369854 -0.11169914 -0.22204086 -0.03198284
0001f0 5c de 22 3e ae c7 6e be 09 e8 85 be ba aa 63 be
       0.15905136 -0.2331836 -0.2615359 -0.22233096

fc2.weight f4 [128, 128]
000000 c3 8e d5 bb 04 6d 2f be 45 e7 0b be fd 63 1e 3e
       -0.0065172627 -0.1713143 -0.13662441 0.1546783
000010 f6 d0 55 be 61 51 02 be ae 18 24 3d ab 61 f1 3d
       -0.20880494 -0.12726356 0.0400626 0.11786207
000020 ec 15 84 bc ce d4 3e bc 54 97 0f 3d 97 db c1 3d
       -0.016123734 -0.011647416 0.035056427 0.094657116
000030 e2 3b 6e 3d e5 f0 83 3d 0e 30 c0 bc 60 22 1a 3e
       0.058162577 0.06442431 -0.023460414 0.15052176
000040 7b e9 92 bd a1 14 19 3e 7c 91 95 bd 99 7b 1b be
       -0.07173439 0.14949276 -0.073031396 -0.15183868
000050 99 62 09 bd 03 76 0a 3e bf 08 83 bd 96 0e 09 3e
       -0.033541296 0.1352158 -0.063981526 0.1338447
000060 3e d9 01 3e 07 84 da 3c ce 9d f9 3d 70 95 a5 3d
       0.12680528 0.026674284 0.12188302 0.080851436
000070 f8 9f ba bc 38 7c 3e 3d ea 17 24 3d 1f 10 5a bc
       -0.022781357 0.046505183 0.04006187 -0.013309508
000080 80 31 f0 bc 6f fc 4e bd 6a 27 5c 3d d7 7a a4 3c
       -0.029320478 -0.05053371 0.053748526 0.020078106
000090 49 d9 ca 3c 87 32 b7 3d 6b b8 cf bc c8 5b e9 bc
       0.024761813 0.08945184 -0.025356492 -0.028486148
0000a0 bb df f4 bc c8 2f f4 bd 7c a6 1d 3e 05 20 9e 3d
       -0.02989184 -0.11923176 0.1539554 0.07720951
0000b0 6a d7 c0 3d 3e 0c 0c be 29 43 02 be 5f c2 ba 3d
       0.09416087 -0.13676545 -0.12720932 0.091191046
0000c0 de 27 35 bd 1c b1 d2 3d a8 11 d7 3d 76 91 59 bc
       -0.044227473 0.10287687 0.105014145 -0.0132793095
0000d0 bf 23 20 3e c4 bb 9d bd 3f 5f 1d be 85 24 26 be
       0.15638636 -0.07701829 -0.15368365 -0.16224869
0000e0 63 37 8c bd 32 dd ec 3d 5c 0a 1c 3d 39 0d 5e be
       -0.06846502 0.11565627 0.038095817 -0.21684732
0000f0 cf f8 11 be 85 8a fa 3d b3 53 9c b9 32 1a 01 be
       -0.14255069 0.12233452 -0.00029817 -0.12607649
000100 88 da 27 3d fd 87 11 be 84 ee c1 3b 3e 5d 0d 3e
       0.040979892 -0.14212032 0.005918326 0.138051
000110 cb ba a6 3d f3 f0 dc bd bf 4e 8f bd a3 78 ff 3b
       0.08141097 -0.10788145 -0.069974415 0.0077963634
000120 cd 87 fc bd 46 25 db bd fa 76 0e 3e 1b 70 a4 3d
       -0.123305894 -0.10700469 0.13912573 0.08029195
000130 03 8d 45 3e 48 bf 43 3d 71 2f 97 3b 5f 0a e5 bd
       0.19292073 0.047789842 0.0046138098 -0.11183619
000140 cf 6d d4 bd 5c f1 d5 bc 7f 69 fa bd bd b0 90 bd
       -0.10372507 -0.026116066 -0.12227153 -0.0706496
000150 15 5d 26 bd ed 84 ba bd f3 de 08 be 3a ff f3 bd
       -0.040616114 -0.09107385 -0.13366298 -0.11913915
000160 db ea 7d bd 1e fb b6 bc ba 46 e7 3d 3c 7b c5 3d
       -0.061991554 -0.022336539 0.11292787 0.09642646
000170 c1 2e 1f 3e a4 40 fb 3d a0 63 15 3d f1 5b bf 3d
       0.15545179 0.122681886 0.036471963 0.09343708
000180 ae 9e 08 bd 57 9e eb bd 85 40 49 3b 9a 86 82 bd
       -0.033354454 -0.1150481 0.0030708623 -0.063733295
000190 d1 a0 8b 3d 8c f0 f4 bd ad 12 18 be 5e f7 11 be
       0.06817783 -0.11959943 -0.14850874 -0.1425452
0001a0 6a 35 22 3e 29 a3 12 3e 12 e7 a3 bd 2a 53 16 bd
       0.15840688 0.14320053 -0.080030575 -0.036700405
0001b0 cf db 07 3e c8 fd 13 3d ca e5 d0 bd 8d ae ec 3d
       0.13267444 0.036130697 -0.10200079 0.115567304
0001c0 19 fe 34 3d ab e2 37 bc 5b 94 3c bc 1d ae 99 bd
       0.04418764 -0.011223475 -0.01150998 -0.075039126
0001d0 e5 e7 87 bd 9b 1b f6 bd c8 29 a9 3d f6 71 9c bc
       -0.06636027 -0.12016984 0.08259922 -0.01909731
0001e0 96 36 1f 3d 16 c3 3f 3c 3b 4b 69 bd 43 7b 07 be
       0.038870417 0.011704227 -0.05695651 -0.13230614
0001f0 b4 91 2b 3e fc c5 48 3d d5 e0 a0 3d 68 97 1c 3e
       0.167548 0.049016938 0.07855383 0.15292132
000200 32 72 59 be 6c 7e e1 3d a9 a4 f9 3d 22 cc fc 3d
       -0.21234968 0.11010441 0.121896096 0.12343623
000210 7d 64 4e be a3 2c 24 3b b6 1b 1e bd 32 24 92 bd
       -0.2015552 0.002505102 -0.038600646 -0.0713581
000220 2b d0 9b 3d d6 2d 11 3e cf 5e 6f bd 61 e1 56 bd
       0.07608064 0.14177641 -0.058440026 -0.05246103
000230 3a 01 1a bc 36 92 f6 bd b7 09 69 bd 89 35 bf 3d
       -0.0093997065 -0.12039606 -0.05689403 0.09336383
000240 a9 af 9c bc 2f 0f 7a 3d 45 5e 33 bd 99 2b 8a 3d
       -0.01912673 0.061049636 -0.043791074 0.06746597
000250 66 9c 19 3e 02 a7 38 3e f7 a3 02 3e c4 51 e9 bd
       0.15001068 0.18032458 0.1275786 -0.11392549
000260 34 66 ee bd fb f2 c2 3d 1a 95 32 3d db 26 07 3e
       -0.116405874 0.09519001 0.043599226 0.13198416
000270 09 84 09 3e 7d 26 c2 3d 1f fd c5 bd 13 83 58 bc
       0.13429274 0.09479997 -0.0966742 -0.013214844
000280 c1 55 85 3d c4 e8 f9 3d 4e de a6 3c 5e 62 a4 3c
       0.06510497 0.122026 0.020369675 0.020066436
000290 06 e4 82 3c c0 8d 26 3e 63 10 4f bd 00 4a b4 3d
       0.01597787 0.16265011 -0.050552737 0.08803177
0002a0 33 38 09 bc 69 ea d1 bd e2 19 de 3d ee 54 12 bd
       -0.008375215 -0.10249788 0.108447805 -0.035725527
0002b0 b0 75 09 be 0e 65 1a 3e e9 76 55 be 1e 46 66 3d
       -0.134238 0.15077612 -0.20846142 0.056219213
0002c0 2a c4 10 3d 1b 48 0e bd 4f 6b be bd f2 5c 98 bc
       0.035343327 -0.034736734 -0.09297811 -0.018599007
0002d0 b3 23 b5 bd e8 a9 05 3e a7 31 12 3e 64 7b ce bd
       -0.088447 0.13053095 0.14276753 -0.10082129
0002e0 da f1 12 3e 76 be 0e 3d 91 1f f2 3d bf 1c c9 3d
       0.14350072 0.034849606 0.11822427 0.09819936
0002f0 fb 66 a7 3d ab 94 1d 3e b2 81 e5 3c 43 7e 23 3c
       0.08173939 0.15388744 0.028015945 0.009978834
000300 c2 db be bd 00 63 1f bd cc 6f 81 bd 33 58 ed bd
       -0.09319259 -0.038912773 -0.06320152 -0.11589088
000310 38 6c 94 bd 73 16 85 3d bd 81 fa bd 97 94 11 be
       -0.072472036 0.064984225 -0.12231777 -0.14216839
000320 fe 0c 81 bd d3 05 9e bd e7 46 a3 bd a2 4b c9 3d
       -0.06301306 -0.07715955 -0.07972508 0.09828879
000330 01 a9 6e bd 8c b4 33 3d f5 07 1d be 97 b7 e6 bd
       -0.058266643 0.043873355 -0.15335067 -0.11265486
000340 49 04 96 bd 73 75 97 bd ef b4 b6 3d f7 6c f0 3d
       -0.07325036 -0.073954485 0.08921229 0.117395334
000350 de 8f 9e bd ab 67 f8 bd 1a de f0 3d 10 91 b8 bd
       -0.07742284 -0.12129148 0.117611125 -0.090120435
000360 2a f8 c7 3c ce 5f 15 3e 86 58 5d bd 67 29 2a bd
       0.024410326 0.14587328 -0.0540395 -0.04154339
000370 eb 59 00 3d 57 14 aa 3d 14 4b a8 3d 7e 9f b7 3d
       0.031335752 0.08304661 0.08217445 0.089659676
000380 77 d2 31 be d0 67 58 3e 12 ce 96 3d 12 4e 9a 3d
       -0.17365442 0.21133351 0.073635235 0.07534422
000390 b8 0f 30 3e 9b 6c af bd 7e f8 b6 bd d6 c0 df bd
       0.17193496 -0.08565637 -0.08934115 -0.109254524
0003a0 75 3d 17 3d 23 ef 9e 3d be cf d7 3d 62 e4 b7 bd
       0.036923844 0.077604555 0.105376706 -0.089791074
0003b0 60 ac 8a 3d eb 7d 27 3e 1c fc af bd df 74 3a bd
       0.06771159 0.16356628 -0.08593008 -0.045521613
0003c0 10 90 16 3e d1 f0 0a bd e8 d5 8e bc 9b 63 c2 3d
       0.14703393 -0.033921067 -0.017435983 0.094916545
0003d0 c2 e9 71 bd 33 20 c8 3d 8f 42 91 3d f1 12 19 3e
       -0.05906082 0.097717665 0.07092773 0.14948632
0003e0 18 3c 03 3e b3 3e ed bd e4 3e c1 bd ff bf 37 be
       0.12815893 -0.115842246 -0.094358236 -0.17944334
0003f0 c4 e3 01 3e 97 72 a0 bd a0 b7 ca 3d e6 e3 c7 bd
       0.12684542 -0.07834356 0.09898305 -0.09760265

fc2.bias f4 [128]
000000 a6 dc c6 bc 0a f3 6c 3d 88 f4 e0 3c 8a 5b ac bd
       -0.024275135 0.057848968 0.027460352 -0.08415897
000010 a0 59 db bc 3b 44 ac bb f8 a3 38 bc 74 9f 9a bd
       -0.026776135 -0.005257157 -0.011269562 -0.075499445
000020 e3 a6 14 bc ec 0f db 3d 17 75 ba 3c 67 51 7b 3d
       -0.009072992 0.10696396 0.02276091 0.06135693
000030 c0 39 2f 3d 57 d5 8f 3c 7e fb 5d 3d 1b 11 39 bd
       0.042779684 0.017557783 0.05419492 -0.04518233
000040 ae bd e2 3c 32 b4 99 bd 46 86 44 bd 91 f9 82 3d
       0.027678337 -0.07505073 -0.047979616 0.06395257
000050 44 69 5a bd 56 dd a5 3d 2c 91 01 bb 52 e5 30 3c
       -0.053323045 0.08098857 -0.0019770367 0.010796862
000060 69 15 ff 3c 8c 52 19 3d f9 ec 5a 3d 5d 54 72 bd
       0.031138139 0.03743224 0.05344865 -0.059162486
000070 8b b7 f1 3b 13 34 b7 3d fe f1 c0 3d 89 41 84 3d
       0.0073766164 0.08945479 0.09421156 0.06457812
000080 6f 73 f6 bc 74 e3 57 bd 67 55 9d bb b8 1a f0 3d
       -0.03008434 -0.05270715 -0.0048014405 0.11723846
000090 0b 2a 35 bd 90 c0 80 bc 94 3f 95 3c 67 fb d5 bc
       -0.04422955 -0.015716821 0.018218793 -0.026120855
0000a0 3c 75 1a bd 61 15 a4 3d cb fc 87 bc 86 26 d9 bc
       -0.03770946 0.0801189 -0.016600033 -0.026507627
0000b0 25 8a 84 3d 6b 5a 49 bc b6 b9 20 3b 27 28 86 bc
       0.064716615 -0.012289624 0.0024524755 -0.016376568
0000c0 cd de aa bb 07 6d 0f 3c 2a 77 9f bd b3 97 d2 3d
       -0.005214548 0.0087540215 -0.077864006 0.102828406
0000d0 83 bb 93 3d 3f 22 10 3e a7 a9 a9 bd f2 94 8f bc
       0.072134994 0.14075564 -0.08284312 -0.017527077
0000e0 7c 23 e9 3c 91 81 dc bb 3e 89 59 3c b2 bd 57 3d
       0.028459303 -0.0067293127 0.01327735 0.052671142
0000f0 bc 64 a5 3d 85 d9 ce 3b 30 2a 84 bb 11 e8 b6 bc
       0.08075854 0.0063125514 -0.0040333495 -0.022327455
000100 4b 99 a2 bd 2c c0 c5 3c 10 e5 8b bb 2b 2b 3b 3d
       -0.079393946 0.024139486 -0.0042692497 0.045695465
000110 63 31 70 bd d3 cf 13 3d 91 e1 89 3d a1 0e 5e bd
       -0.05864085 0.03608687 0.067324765 -0.05421317
000120 8f cd 81 bc 5d 6b 28 bd f3 5c ed 3c 5f 67 04 3d
       -0.015845088 -0.041118015 0.028974986 0.032325145
000130 80 12 34 3d a1 ae a7 bd ef 2c 29 3d 6f a9 b5 3d
       0.043962955 -0.08187605 0.041302618 0.088702075
000140 45 2d 59 3d 89 50 2c 3c cf 80 95 bd af 8f b0 bd
       0.053021688 0.010517248 -0.07299959 -0.086211555
000150 fc e4 b4 bd db 9b 8f 3d 25 be 22 3d e6 3b c3 3d
       -0.08832738 0.07012149 0.039732117 0.09532909
000160 b9 51 05 bd 88 0f b7 3c e2 b7 be 3d c2 53 47 bd
       -0.03254864 0.022346273 0.093124166 -0.048663862
000170 7f 74 9c 3b 0b 1f 42 3d af 85 cb 3d 2e f9 8b 3d
       0.0047746296 0.047392886 0.099376075 0.06834637
000180 df 0a 25 bc 3c ce 6f 3c 40 46 ef bc cf f3 12 3d
       -0.010073393 0.014636572 -0.029208302 0.035877045
000190 28 0a 81 bd fd c2 e0 3c fb b5 fc 3c 9d ef 0d 3c
       -0.06300765 0.027436728 0.030848494 0.008663085
0001a0 ec fd 5d 3c a6 c6 86 bc a2 52 67 3d f1 cb a9 bc
       0.013549309 -0.016452145 0.05647529 -0.02072713
0001b0 76 d7 ba 3d 78 f5 98 bd ba 75 75 bd 6c d3 61 3c
       0.09123127 -0.074686944 -0.059926726 0.013783317
0001c0 b7 07 2b 3d 07 f9 0c bc df 6e 4c bd 8f e2 db 3d
       0.041755404 -0.008604295 -0.049910422 0.10736572
0001d0 73 6e 75 3d 1b 24 b9 3c 1b 6b 88 3c 63 c8 0e bb
       0.059919786 0.022600224 0.016652634 -0.002178692
0001e0 4d 90 b6 ba e4 61 bd 3d 87 21 a4 3d 74 4d 8b bd
       -0.0013928503 0.09247187 0.08014207 -0.068018824
0001f0 03 9c a4 3d f9 5f 21 bb e9 c8 ef 3c f5 f6 68 3b
       0.080375694 -0.0024623855 0.029270606 0.0035547588

action_head.weight f4 [6, 128]
000000 27 af 44 be 0a 11 db bd e1 6c 06 3d 46 47 7a be
       -0.1920744 -0.10696609 0.03281868 -0.24441251
000010 e4 55 1f bd d5 56 6a be 6f 74 9b 3d 69 63 6e 3e
       -0.03890027 -0.22884686 0.07590567 0.2328011
000020 a4 c3 63 bd 2a c6 be bc f6 07 cb 3d cc 73 e4 3d
       -0.0556065 -0.023287851 0.09913628 0.11154899
000030 0d 7f 66 bb 65 4f 7d 3e 7d 46 79 bd 61 9e ad 3d
       -0.0035170943 0.24737318 -0.06085824 0.08477474
000040 83 97 43 bc 37 35 3b be 1b c1 d0 3d c6 58 40 3e
       -0.011937979 -0.18282019 0.10193082 0.18783864
000050 44 5d fa 3d f1 e1 f2 3d b7 f3 2b 3e 2a 37 fd bc
       0.1222482 0.11859501 0.16792189 -0.030910093
000060 f1 51 f9 3d 87 9e 35 3e 02 c1 8d bd 27 72 44 3e
       0.12173832 0.17736255 -0.06921579 0.1918417
000070 35 93 62 3e e0 28 9b 3e 22 43 2a 3d eb 1e 2d be
       0.22126468 0.30304623 0.04156793 -0.16906326
000080 f3 7a 80 3d c0 79 04 be 4a fe 63 bc 87 a7 1a 3e
       0.06273451 -0.12937069 -0.013915608 0.15102969
000090 be 94 f2 3d 8d 22 4d 3e c7 31 9c 3d 50 7a 00 bc
       0.118447766 0.20032711 0.07626682 -0.007841662
0000a0 90 84 35 be 02 f7 46 be ee 7f a8 3d df 65 48 3e
       -0.1772635 -0.19430164 0.08227526 0.1957011
0000b0 e8 a0 e7 3d 97 26 bf bd 1e 76 d2 bd 1c 53 4f be
       0.11309987 -0.09333532 -0.10276435 -0.20246547
0000c0 83 73 e0 3c d0 3f 3b 3e 1f 48 4d bd 8b 1c 82 be
       0.02739883 0.18286061 -0.05011761 -0.25412402
0000d0 6a 91 47 3e 1c 52 11 3e b9 5d 1e be 1d 4e 2a 3e
       0.19489065 0.14191478 -0.1546544 0.1663136
0000e0 3a e3 dd bd a3 64 d9 bd 10 0e 48 be 3d 09 99 3d
       -0.10834356 -0.10614898 -0.19536614 0.07472465
0000f0 8f 85 18 3e 94 5f ee bd 84 1d 98 3d 49 c2 56 bc
       0.14894699 -0.11639324 0.07427505 -0.013107845
000100 95 e0 df bd 02 2f 80 3e ea 82 ed bd 8c 17 c3 3d
       -0.109315075 0.25035864 -0.115972355 0.095259756
000110 09 36 2e be d5 96 53 3e 91 69 52 be 3a e2 3a 3e
       -0.170128 0.20663007 -0.20548083 0.18250361
000120 e8 fc d5 bc a4 67 1d be 80 c4 3b be 80 b5 02 be
       -0.026121572 -0.15371567 -0.18336678 -0.1276455
000130 20 09 39 be 6b 5d 32 be a6 ae 58 3d 16 2f 36 3e
       -0.18069887 -0.17418449 0.052900933 0.177914
000140 d6 15 01 3d d4 41 60 3e c1 bc 69 3e 1e 56 20 3d
       0.031514965 0.21900111 0.2282591 0.039144628
000150 e5 72 11 3e 1e 87 8e be bc 6a bf bd 19 8a 0d 3e
       0.14203985 -0.2783746 -0.0934653 0.13822211
000160 5e 53 15 3e d3 52 2c 3e 94 3a 6f be b8 78 6b be
       0.14582583 0.1682847 -0.2336219 -0.2299527
000170 0e 39 57 be 2d 7c ce bd 81 8c ec 3d fe cb 3c bd
       -0.21017858 -0.100822784 0.115502365 -0.04609298
000180 45 9c 85 bd be 03 c1 bd 16 a4 68 be fe 37 db bd
       -0.06523947 -0.09424542 -0.22718844 -0.10704039
000190 d6 24 47 3d a1 76 78 3e bb c1 ab 3d 25 01 b4 3b
       0.048619114 0.24264003 0.083865605 0.0054933005
0001a0 bd 54 1b 3e 6f 10 1e 3c 73 b2 2d 3e 56 f9 30 be
       0.15169044 0.009647473 0.16962604 -0.17282614
0001b0 6f 12 4c 3e dc 80 0f 3e 8d 98 05 3c 78 e3 d8 3d
       0.19928907 0.14014 0.008154047 0.10590261
0001c0 59 c5 6a 3e 6a b8 c7 3d 89 e3 01 be 15 40 8c 3d
       0.22926845 0.09751971 -0.12684454 0.0684816
0001d0 77 ba 83 3e 7e bc 2d be e1 74 a7 bd eb 62 d8 bd
       0.257282 -0.16966435 -0.0817659 -0.10565742
0001e0 93 3b 47 bd 1c b3 22 3e 93 bc 84 be 6b ae 61 3e
       -0.0486408 0.15888637 -0.2592512 0.22039191
0001f0 9a 9a 1c 3e 23 b4 20 3e 14 06 24 bd 5f d5 de bc
       0.15293351 0.15693717 -0.04004486 -0.027201353
000200 4b 13 35 3e e6 52 87 3e 15 ff e7 bd 83 3b 04 bc
       0.17683141 0.26430434 -0.1132795 -0.008070829
000210 74 7c ab bd 4b 90 9c bd 49 fe 2b be 60 90 23 be
       -0.08373347 -0.07644709 -0.16796221 -0.15973043
000220 37 e8 91 3e 77 50 42 3e 0b d6 24 3e a1 46 7c bd
       0.28497478 0.18976007 0.16097276 -0.061590794
000230 1b ef 99 3d de 18 c6 3d b1 f5 57 be fe bc ea bd
       0.07516309 0.09672712 -0.21089818 -0.11461829
000240 1e 51 50 3e 9c a9 01 3b ea 3b 9f be 90 60 8e bd
       0.20343444 0.0019784933 -0.31100398 -0.069520116
000250 d5 a1 21 bc 06 e8 0e 3e d9 a3 e7 3d a7 e4 71 be
       -0.009865244 0.13955697 0.11310548 -0.2362238
000260 f2 53 16 be 62 06 57 3e 3c 9c ca bd 02 5f 84 bd
       -0.1468046 0.20998529 -0.098930806 -0.06463434
000270 bd 45 34 3d b5 84 0f be af ac 02 3e 23 c8 43 bd
       0.04401182 -0.14015467 0.12761186 -0.047798287
000280 43 7e 97 bd 6d 9e c8 3d c2 08 6e 3e 75 e6 06 3e
       -0.073971294 0.09795842 0.23245528 0.1317385
000290 64 bc c6 3d 22 7b 2b be d1 22 24 bd 9b b6 18 3e
       0.097039014 -0.1674619 -0.040072266 0.14913408
0002a0 b7 d4 5c 3e 2a 5f a1 3d 0c cd 62 be 75 77 17 3e
       0.2156552 0.07879479 -0.22148532 0.14791663
0002b0 26 fb b5 3d 22 ab b3 3d 04 c2 33 3e ed 0c 0b bd
       0.088857934 0.08772875 0.1755448 -0.033947874
0002c0 43 b9 58 bd de 77 6c 3e 24 73 00 be 4b c5 b1 bd
       -0.052911054 0.230926 -0.12543923 -0.08680209
0002d0 c8 90 6a bd a6 27 65 3e 34 1d 2e 3e f8 50 22 3e
       -0.05726698 0.22378406 0.17003328 0.158512
0002e0 1f 53 3e 3e bc 8b 0e 3e 33 8f 9f 3d 73 a1 ad bd
       0.18586396 0.13920492 0.07790985 -0.084780596
0002f0 3e a4 11 3d 53 8c 93 3b 91 3d 37 be 3f 43 fe bd
       0.035557024 0.004502812 -0.1789458 -0.1241517
000300 94 79 1f be 09 d4 85 be da fd 85 be 5d 0b cc bd
       -0.15573722 -0.26138332 -0.26170236 -0.09963105
000310 ff 99 4e 3d a4 ca 79 3d b2 11 73 3e b2 f7 3f 3e
       0.05043983 0.06098427 0.23737219 0.18746832
000320 7b ef f5 3d 99 1a 57 3e 4e 47 ce bd dc 16 f1 bd
       0.12008568 0.2100624 -0.10072194 -0.11771938
000330 32 29 c4 39 28 7e ae bc 2f 53 3b be 59 01 c0 3b
       0.00037414726 -0.02130039 -0.18293451 0.0058595357
000340 ca 31 cc 3d 3c c8 9b 3d 77 33 d5 bd af ba 55 bd
       0.09970434 0.07606551 -0.10410207 -0.05217999
000350 e7 aa 87 bd 71 31 40 bd 41 a4 dc 3d 3d 9c 14 3e
       -0.06624394 -0.04692215 0.107735164 0.14512725
000360 7b 61 de bd 7d a0 c8 bd 83 3f 25 3e 5e 07 dd 3c
       -0.10858437 -0.09796236 0.16137509 0.026981052
000370 31 65 2d 3e 71 ff 4b be ba 7c 2c 3e 88 d3 9f bc
       0.16933133 -0.19921662 0.16844454 -0.019510046
000380 81 37 ae 3d 00 4d 17 3d 12 4f 92 3e 44 31 64 3e
       0.0850668 0.036938667 0.2857595 0.22284418
000390 7e 7c 73 be 1e 14 b6 3d 66 c6 52 bd 7e b6 19 3e
       -0.23777959 0.08890556 -0.05145874 0.15011021
0003a0 4c e0 e2 3d 86 43 de b9 0c 4d 4a 3e 90 35 c6 bd
       0.110779375 -0.00042393449 0.19755954 -0.09678185
0003b0 95 5e 5b 3d 96 13 19 be 78 78 a7 bd 76 36 20 3e
       0.053556997 -0.14948878 -0.081772745 0.15645775
0003c0 d9 f0 1f be fe 96 f1 3d 2c 48 34 be df 77 a8 3d
       -0.1561922 0.117963776 -0.17605656 0.082259886
0003d0 c7 67 17 3e 4c 5f 0b 3d fd 14 04 bd eb 3d 87 3e
       0.14785682 0.03402643 -0.03224658 0.26414427
0003e0 ce d7 a3 bd 4a 5b aa bd 38 4f 3c 3c 01 f8 07 bd
       -0.08000146 -0.08318193 0.011493497 -0.0331955
0003f0 c9 6d ab 3c 6a 40 c0 bd d6 93 08 be 9b cf b4 bd
       0.020926373 -0.09387286 -0.13337645 -0.0882866

action_head.bias f4 [6]
000000 05 be 3a 3d c4 1b b3 3d f2 f0 21 3d 8d 7e 43 bd
       0.045591373 0.0874553 0.039536424 -0.04772811
000010 73 49 c7 bd 32 e0 24 3d
       -0.09730806 0.04025287
