alg/discrete_action/param/net_param/actor_net1739864855orienv.pkl (torch, 90304 bytes, 6 tensors)

fc1.weight f4 [128, 30]
000000 b1 b6 26 be a3 da 2c 3d 02 50 d7 be 9e f0 5a be
       -0.16280629 0.042200696 -0.4205323 -0.2138085
000010 13 87 01 bf 86 d4 71 3d 13 1e 58 be 53 14 53 be
       -0.5059673 0.05904057 -0.21105222 -0.20613222
000020 8e a4 8c 3d 84 fb a9 bd a9 6d 3e 3e 8d 52 01 3e
       0.06867324 -0.08299926 0.1859652 0.12629147
000030 40 e3 fe bd 19 31 64 bc 9e ab 4e be 44 11 6e be
       -0.12445688 -0.013927721 -0.20182654 -0.23248774
000040 32 99 cf 3d fd 40 ec 3c f1 94 6a bd 78 89 6e be
       0.101366416 0.028839583 -0.057270948 -0.23294628
000050 91 d3 77 3e 8f c3 a8 3d e8 e6 2f bd 44 ef 96 3d
       0.242018 0.08240425 -0.04294482 0.07369855
000060 dc 11 8e be 13 33 66 3d 7e 12 8d 3c 39 90 9f 3d
       -0.27748 0.056201052 0.017220732 0.0779118
000070 8f a2 79 bd fd d8 06 3e d3 bd 9f be ce 3b 85 be
       -0.060946044 0.13168712 -0.31199512 -0.2602219
000080 27 35 ad be a5 38 2b 3d 87 7e 35 3e e4 af 43 bc
       -0.33829615 0.041802067 0.17724048 -0.011943791
000090 3d 21 9e 3d 73 d3 b5 3d 56 e9 21 3e 57 22 91 bd
       0.077211834 0.08878221 0.15811667 -0.07086628
0000a0 07 9f 0c 3e f9 42 e7 3d cd dc 8d be 8c 8d e3 bd
       0.13732539 0.11292071 -0.2770752 -0.11110982
0000b0 bf 2c 3c 3e 2e 31 92 bd 4f c3 84 be 76 87 9d be
       0.18376444 -0.071382865 -0.2593026 -0.3076741
0000c0 d8 95 3b 3d 26 ae 06 be d8 ef 25 bd e6 11 e9 bd
       0.0457972 -0.1315237 -0.040511936 -0.11380367
0000d0 21 d7 a0 bd 3b 5e 0b be 2a 96 3f 3e 41 7a 31 3e
       -0.078535326 -0.13610165 0.18709627 0.17331792
0000e0 bb a1 ca bd 5d 88 33 3b 0f a7 ad 3d 1c cf 48 bd
       -0.09894129 0.0027394511 0.084791295 -0.04902564
0000f0 b7 3a e3 3e d0 cc 8e 3e 58 b9 9a 3e 69 1c 51 3e
       0.44380733 0.27890635 0.3021953 0.20420994
000100 c3 02 35 3e cd 04 80 3b aa 83 44 b9 6b 35 8e 3e
       0.17676835 0.0039068223 -0.00018741065 0.2777513
000110 f6 c8 7e bb 6f df e1 3d 49 37 61 bd 3b b4 0f be
       -0.0038877106 0.11028945 -0.054984365 -0.14033596
000120 ce b0 6f 3d 11 21 04 be cd 29 83 bd da a4 27 bd
       0.058518223 -0.12903239 -0.06404457 -0.0409287
000130 14 c1 28 be 42 9d ea 3c f3 8d 1f be c0 65 71 bb
       -0.16479903 0.02863944 -0.15581493 -0.003683433
000140 eb 6b e4 3c 88 99 ce 3d 82 73 31 3e da 13 1f 3d
       0.02788349 0.100878775 0.17329219 0.03883729
000150 25 a2 11 3e a9 11 3a 3e ad 88 b9 bb 44 00 1e be
       0.1422201 0.181708 -0.005662045 -0.15429789
000160 98 5f 8d bd 5a 60 24 bd 40 57 91 3d 30 f2 fd bd
       -0.06902999 -0.04013095 0.0709672 -0.12399709
000170 19 63 da bd b3 0f 17 be 44 3e 12 be fa 9f 7c be
       -0.10663433 -0.14752083 -0.14281565 -0.24670401
000180 c9 84 86 be 9e 6f 8d bd 8a 78 1d bb 63 1b 9a bd
       -0.26273182 -0.06906055 -0.0024028146 -0.07524755
000190 0d c3 67 be 26 61 7a be 84 1f cb 3d 2d ae d2 3d
       -0.22633 -0.24451122 0.099181205 0.10287128
0001a0 b1 f5 7b 3d 87 28 90 3d a1 60 00 be 9f f5 da bd
       0.061513606 0.0703898 -0.12536861 -0.1069138
0001b0 2f 31 ac 3d 28 e0 38 3e 08 7c 99 be 66 d1 53 3e
       0.084078185 0.18054259 -0.2997744 0.20685348
0001c0 5f 0d 5b 3e 28 a1 04 3e a8 44 39 be 92 f0 90 bd
       0.2139182 0.12952101 -0.18092597 -0.07077135
0001d0 6f 15 d7 3c 7e eb b8 bd 0b 1e ca 3d 51 dc 5d 3e
       0.026255338 -0.090292916 0.098690115 0.21666075
0001e0 74 be 0d 3f 24 69 44 3e 93 ad b7 bd c9 6e 25 be
       0.55368733 0.19180733 -0.089686535 -0.16155542
0001f0 54 7c a3 bc 49 ea 3e bd f5 ba 80 3e e2 7d 26 be
       -0.019956745 -0.04661015 0.25142637 -0.16258958
000200 c5 91 1b bd 4f ac 9e 3d ac f7 d0 3d d1 b7 a9 3c
       -0.037980814 0.07747709 0.1020349 0.020717533
000210 f4 b2 0d bd 29 f3 7d be ee dc de 3d 51 33 81 3d
       -0.03459449 -0.2479979 0.10881983 0.06308616
000220 20 79 35 3e 66 f6 21 3e d8 f1 14 bd e6 c4 7e 3c
       0.17721987 0.1581665 -0.036363453 0.015549874
000230 6f 76 13 3e 2c 41 81 3e 52 a6 7a 3e 63 2e 38 3e
       0.14400648 0.25245035 0.24477509 0.17986445
000240 60 91 24 3e f5 51 89 ba 89 95 ac 3d 87 1f aa 3d
       0.16071081 -0.0010476696 0.08426959 0.083067946
000250 89 e2 48 bc 0a be 3b 3e b3 9b dd be 79 c1 bd 3d
       -0.012261041 0.18334213 -0.43282852 0.092654176
000260 9f 1a ba be c4 ae 44 bd 5c 24 35 be 61 23 4a 3e
       -0.36348435 -0.048018232 -0.17689651 0.19740058
000270 a6 15 fd be 3d fc 80 be c5 ae a0 3e 3b 06 b1 be
       -0.4943058 -0.25192443 0.3138334 -0.34575066
000280 78 be 58 3d 95 a4 26 3e 47 73 86 3d 21 ef d1 3d
       0.05291602 0.1627372 0.06564956 0.10250688
000290 ee dd 06 3e a0 08 2c 3e 9a fb d2 3d 70 2f 71 3d
       0.13170597 0.16800165 0.103018954 0.05888313
0002a0 21 82 41 3e b9 52 bf 3d 91 5f 0b 3e ec 22 f1 3c
       0.18897296 0.0934195 0.13610674 0.029435597
0002b0 34 53 5a 3d c2 e7 a1 bc 53 9a 01 3d 6a 4a 94 3c
       0.053302005 -0.019763831 0.031641316 0.01810189
0002c0 72 97 c1 3d f3 d0 53 3d f3 ab 29 3a e3 4f 0c 3e
       0.09452714 0.05171294 0.0006472461 0.1370235
0002d0 36 e1 a5 bd 79 55 e3 bd 50 c2 88 bd f4 57 24 3d
       -0.08099596 -0.11100287 -0.06677687 0.04012294
0002e0 cb 6e 82 bc 8e 42 95 3e a6 a6 01 3e 76 ff 77 3c
       -0.01592197 0.2915234 0.12661228 0.01513659
0002f0 99 e4 11 be 2b 39 65 3d 8d 40 3e bd 61 db a3 3e
       -0.1424736 0.055962723 -0.04644828 0.3200331
000300 b8 4e e1 bd 65 52 81 3d f4 95 f0 3d 7e 77 b0 be
       -0.110013425 0.06314544 0.11747351 -0.34466165
000310 f6 6b 38 3e 03 93 b5 bd 43 26 03 be 8e c8 db bb
       0.18009934 -0.08865931 -0.12807564 -0.0067072576
000320 be c6 c9 3d c5 86 03 be 9c ee 35 3e d3 7e a7 3d
       0.0985236 -0.12844379 0.17766804 0.08178487
000330 ac 90 a1 be a0 87 79 be f0 06 6e 3e b9 9b fe bc
       -0.31555688 -0.24368143 0.23244834 -0.031080114
000340 b7 24 eb bd d4 03 e7 bd 7c 48 9b 3d 67 76 33 3e
       -0.11481612 -0.11280027 0.07582185 0.17525636
000350 d2 e8 4e 3e 82 32 9d bd 93 4c 0b be 17 29 b7 3d
       0.20206001 -0.07675649 -0.1360343 0.08943384
000360 47 b7 1b 3f 8f ab 05 be ce 9e 37 3c b0 02 35 bd
       0.60826534 -0.13053726 0.011207296 -0.044192016
000370 10 3b 7f 3c 9b d7 31 3d 45 47 77 3e d4 69 de bc
       0.015578046 0.043418508 0.24148281 -0.027150072
000380 63 32 34 bd 1e a9 83 bc e6 32 54 3d e0 84 73 bd
       -0.043993365 -0.016071852 0.051806353 -0.05945289
000390 96 e4 05 bd a3 75 12 3b fc c6 ae bd fc 11 19 be
       -0.0326887 0.002234795 -0.08534047 -0.14948267
0003a0 06 43 a3 bd 0e db 88 3d 4a 88 24 3d 1d 5a 3b bd
       -0.07971768 0.06682406 0.040169038 -0.045740236
0003b0 85 15 c2 3d 89 da f1 3c cc f1 9e 3b af 7f d5 b9
       0.09476761 0.029523151 0.004850602 -0.00040721658
0003c0 1d c2 72 bd ae 6a 1f 3e 18 e8 38 be 76 49 0f be
       -0.059267152 0.15568039 -0.18057287 -0.13992867
0003d0 ab 24 85 be bd 82 22 3e fd 44 05 3f c0 cf 7e be
       -0.26004538 0.15870185 0.5205839 -0.24883938
0003e0 61 3b 33 3e 63 3d e7 be 97 d7 54 3d a1 7b ce 3d
       0.1750312 -0.45164022 0.051963415 0.10082174
0003f0 92 9a b0 bc c8 bb a0 3d c3 79 f8 bb cf 3a 8d 3d
       -0.02155808 0.078483164 -0.0075828745 0.068959825

fc1.bias f4 [128]
000000 52 15 e4 bd dc 29 ac 3b 10 a5 96 3c 27 a0 1a be
       -0.11136879 0.0052540135 0.018389255 -0.15100156
000010 9c 47 81 bd 24 f0 8a bd db 43 3a bc 2b 49 1f be
       -0.063124865 -0.067840844 -0.011368717 -0.15555255
000020 aa 0e 8f 3d 40 77 c5 3c 4d cb 41 bd 12 c1 c2 bd
       0.06985219 0.024104714 -0.047313023 -0.095094815
000030 a2 c1 fd 3b 41 92 1c be ae 01 6e be 15 3e e9 3d
       0.00774403 -0.15290166 -0.23242828 0.11388794
000040 57 df dc bd 19 69 52 3d 85 67 4f 3d d1 62 ed bd
       -0.10784786 0.05136976 0.050635833 -0.11591113
000050 b4 32 71 3d 7c 87 c8 bc 82 fc 84 3d 6b 89 30 be
       0.058886245 -0.024478666 0.064934745 -0.17239921
000060 ae fc 23 be 94 49 2e be 9f 14 d9 3d 8d d6 6e 3b
       -0.16014358 -0.17020255 0.10599636 0.00364438
000070 5b d3 55 3d 23 73 1c bd 3f d5 c2 bc 53 09 8c 3d
       0.052203517 -0.03819574 -0.023783324 0.06837716
000080 06 d2 07 3c 9c 90 95 3c 59 12 32 3d 00 cb fa bd
       0.00828982 0.018257432 0.04347453 -0.122457504
000090 69 c3 81 3c 10 69 f4 3a 80 63 28 be fa 0d 29 3e
       0.01584025 0.0018647034 -0.16444206 0.16509238
0000a0 2e 3e f4 3d 99 d8 ed 3d f7 9d bf 3d dd 0a 84 bc
       0.11925922 0.11613578 0.09356301 -0.016118461
0000b0 a4 5c 53 bb 24 41 a9 bc 44 eb eb 3d e3 6c 15 bd
       -0.0032251263 -0.020660944 0.11519483 -0.036480796
0000c0 e3 57 19 bd 38 a6 86 bd c1 c1 24 3e 1e 16 42 bd
       -0.03743733 -0.065746725 0.16089536 -0.047384374
0000d0 58 e7 22 bd a5 c6 45 be f1 e5 d5 bd d1 18 37 3d
       -0.039771408 -0.19314058 -0.104442485 0.0447014
0000e0 6b a3 4a 3d 5b 71 03 3d 1b db 19 3e 9c 13 52 3d
       0.049472254 0.032090526 0.15024988 0.051288232
0000f0 93 7b d2 3d ba 1c cc 3c f8 32 a0 bd 2c e3 77 3d
       0.10277476 0.024916042 -0.078222215 0.060519382
000100 5d 07 68 3d 44 13 d0 bd 4d 91 9c 3b a4 07 0e bd
       0.056647647 -0.101599246 0.0047780634 -0.034675255
000110 55 78 ae 3c 4b 8a a9 3d d5 6e 3e 3e cd ac 34 3e
       0.021297613 0.082783304 0.18596967 0.17644043
000120 56 6c 02 be 78 ca f6 bd 9a be 83 3d 30 9a 90 3d
       -0.1273664 -0.120503366 0.06432839 0.07060659
000130 55 42 b9 bc 14 a5 28 be 0f cd 32 3d 13 11 29 be
       -0.022614637 -0.16469222 0.04365259 -0.1651042
000140 ef 58 5b 3e 05 8b 4c bd a6 b2 d3 3d 35 56 11 3c
       0.21420644 -0.049937267 0.10336809 0.008870651
000150 ce 93 ef bd d4 ab 25 be 91 79 e8 3d 45 06 c2 bd
       -0.116981134 -0.16178828 0.11351312 -0.09473852
000160 e5 1c ec bd 21 47 0e 3e 85 e6 8c 3d dc ea 8d 3c
       -0.11528949 0.13894321 0.068799056 0.017323904
000170 55 b9 d6 bc 94 a0 6f 3c 26 0f 6d bd 25 c3 52 bd
       -0.02621142 0.014625687 -0.057875775 -0.051455636
000180 d2 aa b4 3d f1 43 7a bd 67 6c 8c bd 18 12 1c 3d
       0.08821644 -0.06109995 -0.068566136 0.038103193
000190 e8 15 7b bd 1e aa 25 be 2e ca 39 bc c0 45 61 bd
       -0.06130019 -0.16178176 -0.011339707 -0.05499816
0001a0 7c da 7e bd da 50 52 bc 46 26 2c 3e 57 73 d1 3d
       -0.06222008 -0.012836659 0.16811475 0.102270775
0001b0 fc 38 a2 3d 44 cf fd 3d e9 76 27 bd 78 9b cd 3d
       0.07921025 0.123930484 -0.040884886 0.10039419
0001c0 46 77 1b 3d 78 e7 8f bd a6 9a e9 3c 5a ef dd bd
       0.037955545 -0.07026571 0.028516125 -0.10836668
0001d0 b6 31 50 3e dd dc 1a 3e 25 19 80 bc 01 a8 39 bd
       0.20331463 0.15123315 -0.01563699 -0.045326237
0001e0 78 2e fc 3d b1 94 a5 3d 00 16 19 3e 8b c5 ab 3d
       0.12313551 0.08085001 0.14949799 0.08387288
0001f0 74 68 41 3d 86 13 dc 3d 61 52 bd 3d 36 86 69 bd
       0.047218755 0.10745911 0.09244228 -0.05701276

fc2.weight f4 [128, 128]
000000 30 41 21 be 7c ca 53 3d 27 05 57 3b 54 82 28 3d
       -0.15747523 0.051706776 0.0032809468 0.041139916
000010 31 6f 96 bc 8e 0e 0b be fc 66 9a 3c a0 26 1e 3e
       -0.018363567 -0.13579771 0.018847935 0.15444422
000020 5a 6f 2b 3e dc c6 b9 3d af a6 e1 bd dd f8 7f be
       0.16741696 0.090711325 -0.110181205 -0.24997278
000030 ba de e4 bc 0e 30 dd ba 3b cb 0e be 44 3d 3f bd
       -0.027938236 -0.0016875283 -0.13944714 -0.046689287
000040 6b ee 3f bd b9 12 ff bc 7a 39 4b 3d 66 0a 25 be
       -0.046858232 -0.031136857 0.04961536 -0.16117248
000050 c2 56 39 be e1 72 57 be 26 48 85 bd 01 44 bc 3d
       -0.18099502 -0.21039917 -0.06507902 0.09192658
000060 e1 15 ad 3b 87 61 3e be 42 e2 1a be 69 8c 64 3e
       0.005282149 -0.18591891 -0.15125373 0.22319187
000070 f7 02 88 be d5 e5 23 3e ea 74 02 3e 29 5e a6 bc
       -0.26564762 0.16005643 0.12739912 -0.020308571
000080 7f da 3c bd 60 90 32 be d8 95 de 3d 0c d5 de 3d
       -0.04610681 -0.17437887 0.10868424 0.10880479
000090 59 e1 ab 3d 9d 0e d1 3c 72 04 4a 3d 14 d8 b0 bd
       0.08392591 0.025519663 0.049320646 -0.08634964
0000a0 53 3d a3 3d af 2a 3c be 2a d3 0e 3e e2 76 25 3c
       0.07970681 -0.18375657 0.1394774 0.010099145
0000b0 11 a7 da bd 48 60 5f bd 00 f1 7f bd 55 d1 da 3d
       -0.10676397 -0.05453518 -0.062485695 0.10684458
0000c0 ec 0f 0f 3d 1d 27 97 3d 52 d2 e2 bd 2b 36 dc 3d
       0.034927294 0.07380507 -0.11075272 0.10752519
0000d0 51 c5 bd bd 66 4f 2c 3d 15 f8 46 be 4d 99 d5 3a
       -0.09266151 0.042067908 -0.19430573 0.0016296298
0000e0 92 ee ae bd 2e ed 95 3d ee 07 69 bd d5 28 ed bd
       -0.085415974 0.07320629 -0.056892328 -0.11580054
0000f0 6c 06 48 3b 90 cf f4 3d 92 76 9e bc ce 9c 02 be
       0.0030521406 0.11953652 -0.019343648 -0.12755129
000100 80 34 a4 bd ef bf 47 be b9 bc 00 be 07 dc 4d 3e
       -0.08017826 -0.1950681 -0.12571992 0.20103465
000110 93 1f 9e bd d5 d5 a4 3d 96 de 07 be 0b 31 18 be
       -0.07720866 0.08048598 -0.13268504 -0.14862458
000120 39 e0 91 3c c7 93 6d be af 70 f1 3c d7 4d 19 3b
       0.017807113 -0.23200904 0.029472677 0.0023392343
000130 c5 28 b1 bd 95 2f 0c 3e 1f 26 2b 3c 56 66 d1 bd
       -0.08650354 0.13690026 0.0104461005 -0.10224597
000140 c1 84 22 bd 0b 96 0f bd 58 d2 45 3e e1 96 19 bc
       -0.039677385 -0.0350552 0.19318521 -0.009374351
000150 72 98 64 bd bc 5f 81 3d b4 f4 03 be fa c4 d2 bc
       -0.055809446 0.06317088 -0.12886316 -0.025728691
000160 f4 26 97 be 34 5e 82 3d a9 b3 d2 bd 39 71 4b be
       -0.29521906 0.06365624 -0.10288174 -0.1986741
000170 25 ee ff 3d e3 89 cd 3d 91 18 23 be 93 c7 0f 3d
       0.12496594 0.100360654 -0.1592734 0.03510244
000180 24 69 de bb 51 45 d6 bd ba 6c a1 bc b8 29 e9 3d
       -0.006787436 -0.1046244 -0.019705165 0.1138491
000190 f7 94 e3 3d 95 5b 78 ba b0 2a 82 3d 83 38 77 bd
       0.11112397 -0.0009474096 0.06355798 -0.06035663
0001a0 de ca 19 3e 19 0e 0a be 26 fa 9f 3d 20 ea f7 3c
       0.15018794 -0.1348194 0.07811384 0.030263007
0001b0 79 75 3a 3e 76 10 95 3d 19 84 e0 3d 65 c5 03 3d
       0.18208875 0.0727853 0.10962696 0.032170672
0001c0 c1 ae ad bd 4b ed 10 be 72 3a 25 bd 58 4b f4 bd
       -0.08480597 -0.1415302 -0.04033894 -0.11928433
0001d0 fc 04 83 3d d2 bd 9f 3d 4b b1 22 bd 8d bc f1 3d
       0.06397435 0.07799877 -0.03971986 0.11803541
0001e0 6f 35 42 bc f9 ab e9 3d a1 c2 d7 3d 1a 65 6b bd
       -0.01185356 0.11409754 0.105351694 -0.057469465
0001f0 15 85 6c 3e 41 ef 49 3c 6e d5 8a 3d a1 20 0a 3d
       0.23097642 0.012325109 0.0677899 0.033722524
000200 6c 57 56 be 6f 61 7d be 03 43 d5 3d 75 0d ed 3c
       -0.20931786 -0.24744199 0.10413172 0.02893708
000210 10 e7 22 3e 6e 9d d5 3d 22 df 60 3d 48 c4 6c 3e
       0.15908456 0.10430418 0.054900296 0.2312175
000220 75 15 e5 3d b4 b0 03 be 49 e5 42 3e 78 4a 20 bd
       0.11185733 -0.12860376 0.19032778 -0.03913352
000230 b4 87 16 3e f6 86 05 be a2 5a d3 3e a7 1a 05 be
       0.14700204 -0.13039765 0.41280085 -0.12998448
000240 b3 de c8 3d 58 5a 0a 3e 6c f1 3c 3d 11 a2 ac bc
       0.098081015 0.13511026 0.046128675 -0.021073373
000250 ef a4 c6 3e 87 50 da bb 50 3c 92 3a 7a 2d 7c 3e
       0.3879771 -0.0066624316 0.001115689 0.24626723
000260 43 1a 37 be bb 59 0e 3e 38 81 13 3e da 29 b5 bc
       -0.17881112 0.13901417 0.14404762 -0.022114683
000270 0f d9 3a be 69 15 e2 3d be 42 a5 3e 8d 13 26 bd
       -0.18246864 0.1103924 0.32277483 -0.04054599
000280 dd 3b 17 3d 79 c9 ce bd 50 e0 b6 3e 33 ac 1c 3e
       0.036922324 -0.100970216 0.35718012 0.15300064
000290 86 08 08 3e bc cf 65 bd f7 d6 4b 3c 9c 53 f8 3e
       0.13284501 -0.056106314 0.012441388 0.4850129
0002a0 a0 c1 29 bd bb bc a9 bd e2 28 90 3e cb 4f 2c bc
       -0.04144442 -0.082879506 0.2815619 -0.010517071
0002b0 05 04 6b 3e 16 c8 56 3d 51 2f 83 3e 06 c7 41 be
       0.22950752 0.05243691 0.25622037 -0.18923578
0002c0 da 56 16 3d 91 7f 41 3e 3e 88 6d be 9c 94 f0 bd
       0.03670392 0.18896319 -0.23196504 -0.11747095
0002d0 20 fb 78 3e 88 66 78 3e f9 62 13 be 85 78 d8 bb
       0.24314547 0.24257863 -0.14393224 -0.006606164
0002e0 e9 4a 6a 3d 45 fd 3a 3e 18 2b 82 3d 93 cf 3c be
       0.057200346 0.18260677 0.06355876 -0.18438558
0002f0 86 a6 21 3e a2 5e 9e 3b e3 ab 27 3d f5 02 91 3d
       0.1578618 0.0048330585 0.04093541 0.07080642
000300 50 ce e1 bd a9 53 fb 3e 49 bf fa bd 1b 28 80 bf
       -0.11025679 0.49087265 -0.12243516 -1.0012239
000310 6e 8e 47 be 22 3a 6a 3d 2d 2c d5 3d 55 83 f7 3e
       -0.19487926 0.057184346 0.104088165 0.48342386
000320 9d b5 d2 bc ca 77 0f 3c ef bd b2 3e b4 62 85 3e
       -0.025721366 0.008756587 0.34910533 0.26051867
000330 db 11 a0 be ab 06 67 bd 30 f6 95 3d 27 93 e3 3d
       -0.31263623 -0.056402843 0.07322347 0.111120515
000340 54 8d 03 be be 76 86 be 13 2a 38 3c 6f dc 1b 3d
       -0.12846881 -0.26262468 0.0112405 0.03805202
000350 e0 b2 32 3e 4a 95 46 3d 6a 4d 20 be 9d b4 d2 3b
       0.17451048 0.048482217 -0.15654531 0.006430222
000360 16 42 83 be a1 62 90 3e 44 a2 80 3d 7c c9 b9 3d
       -0.25636357 0.28200248 0.0628095 0.09071633
000370 68 2a 60 be 3f e8 6b bd 0b 24 4b 3d dd 51 39 be
       -0.21891177 -0.057594534 0.04959492 -0.18097635
000380 d4 b2 82 bd bf 2f 9c bc fa 2c 85 3d 3f 02 06 be
       -0.06381765 -0.019065736 0.06502719 -0.13086794
000390 b0 fb 27 3d 47 c7 34 3d f0 2e 87 bd f5 a3 b6 3d
       0.041011512 0.04413536 -0.066007495 0.08917991
0003a0 72 ff 6e be 7e ce 6d 3e fa 0c 2e 3d dc 97 5d be
       -0.23339632 0.23223302 0.042492844 -0.21639961
0003b0 fc 19 00 3e 0b a3 bd bd f9 8f aa 3d 8d e7 f3 bd
       0.12509912 -0.092596136 0.08328242 -0.11909399
0003c0 08 d0 f1 3d 9c ab 27 be cd 48 22 bd 9d 63 17 bd
       0.11807257 -0.16374058 -0.03962021 -0.036960233
0003d0 06 c0 23 be 8b b3 8e bd 57 15 17 be 9e fb 94 bd
       -0.1599122 -0.06967839 -0.14754234 -0.07274555
0003e0 4b d4 a9 bd 99 85 51 3e 50 5f 95 3d ec 5b 15 be
       -0.08292445 0.2046112 0.0729357 -0.14585847
0003f0 97 02 3d bf aa 05 a6 3d b0 bf f6 bd e9 86 93 be
       -0.73832077 0.08106549 -0.1204828 -0.28813866

fc2.bias f4 [128]
000000 e5 a5 bf 3d 52 a6 81 bd c2 b0 5f bd bf d1 d1 3c
       0.09357814 -0.06330551 -0.05461193 0.02561271
000010 cd 44 c0 bb 66 d1 83 3d 39 85 a1 3d 25 63 97 3d
       -0.0058675767 0.06436424 0.07886738 0.07391957
000020 f0 2d af 3d a9 3c 6d 3d 4f 1c 72 bd dc bc 97 3d
       0.08553684 0.05791918 -0.05910903 0.07409069
000030 6e b7 2c bd 25 c9 ec bc 97 f4 8a 3d b0 0f 14 3d
       -0.04216712 -0.028904507 0.06784933 0.036147773
000040 6c 6c 63 39 19 6d 8e 3d 39 7d 4f 3d 2e e1 e5 bd
       0.00021688797 0.069544025 0.05065653 -0.1122459
000050 81 0c 68 3d 31 33 0a be 17 e2 0c ba 5e d5 85 3c
       0.05665255 -0.1349609 -0.0005374266 0.016337093
000060 35 58 f2 bc 73 81 64 bd ce 2d 42 3d c3 47 be 3d
       -0.029583076 -0.055787515 0.047406964 0.09291031
000070 6e 81 5f bd 64 72 5d 3d 4e 82 81 3d 37 17 9e bc
       -0.054566793 0.05406417 0.06323682 -0.01929818
000080 30 5e 94 3d 90 ab 63 bd 97 6f 4b bc 37 4c 23 bd
       0.07244527 -0.055583537 -0.012416742 -0.039867606
000090 93 ae 91 3c cc 2f b4 bc 75 6c 96 bd c4 ef 1d 3d
       0.017783439 -0.021995448 -0.07344905 0.038558736
0000a0 34 6e 5e bd 9b fc 05 bd 36 a4 25 bc 27 03 f6 3c
       -0.054304317 -0.032711606 -0.010109952 0.0300308
0000b0 2b aa a8 bd da 2c 0e be 6a 25 a3 bd 14 92 48 bd
       -0.08235582 -0.13884297 -0.079661205 -0.048967436
0000c0 a1 d1 17 be 39 cc bf bd 91 f6 99 3d 16 ad c3 bd
       -0.14826061 -0.09365124 0.07517732 -0.09554498
0000d0 5e 12 ec 3b b0 e8 40 3d 0e b8 26 3d 74 fd 1d bc
       0.007204338 0.047096908 0.040702872 -0.009642947
0000e0 3b 0e 0a 3d fb 07 39 3d dc df 20 bd 4c aa d6 3c
       0.033704977 0.045173626 -0.03927599 0.02620425
0000f0 e5 d8 37 3d 52 41 97 3c 19 f8 22 3d 30 af a2 3d
       0.04488458 0.018463764 0.039787386 0.079435706
000100 5f 24 01 bd 54 e1 95 bd 5f 46 bd bc 6a a5 86 bd
       -0.031528827 -0.073183686 -0.023104845 -0.06574519
000110 24 ac 1f bc 8b 20 25 3d 72 28 f5 bd ee e6 87 bd
       -0.009745631 0.04031424 -0.11970605 -0.06635843
000120 b0 6a 51 bd 6d 3a 5a 3d 69 dd d8 bd b8 71 59 bd
       -0.051127136 0.053278375 -0.10589106 -0.053086966
000130 83 25 80 3d 19 eb 81 3d 8b 46 e2 3c 50 e8 4d bd
       0.06257155 0.063436694 0.027621528 -0.05027038
000140 cc 52 5e 3d d2 fb a7 bd 87 fe 43 3c 39 69 24 bb
       0.05427818 -0.08202328 0.0119625395 -0.0025087132
000150 de fb 63 bd cd 9c 5e 3d c1 4d ce bc 36 ba 7b bc
       -0.05566012 0.054348756 -0.02518356 -0.01536422
000160 22 17 f1 bd 85 bd fc 3c a0 2e 41 bd f0 cc e2 bd
       -0.1177199 0.030852089 -0.047163606 -0.11074245
000170 62 38 a0 bd bd 4f 86 3b 1b 0f a8 bc 79 e6 9b bc
       -0.07823254 0.004098861 -0.020515015 -0.019030796
000180 0d 48 23 3c dc 2f 09 3b d0 cd 7a 3d a4 08 64 3c
       0.009965909 0.0020933067 0.061231434 0.013918076
000190 51 3f 0a 3d 59 6d ee bd 2d 87 8f bc 3d 06 2e bd
       0.03375179 -0.1164195 -0.017520512 -0.042486418
0001a0 a8 82 ce 3d 13 c7 79 bd e4 b9 35 bc 71 9e 62 bd
       0.100835145 -0.060980868 -0.011091683 -0.055326883
0001b0 ee e8 86 3d 57 74 9d 3c 36 a9 8a bd e6 c8 9e bd
       0.065873966 0.019220514 -0.06770556 -0.07753162
0001c0 e7 2f 00 be f6 a4 83 bd c2 78 e2 bc 85 db bb bd
       -0.12518273 -0.06427948 -0.027645472 -0.091727294
0001d0 cd 05 ea bc ef c9 68 bd 8f ce a1 3d 32 81 4b bd
       -0.02856722 -0.056833204 0.07900726 -0.049683757
0001e0 79 15 39 bd 7d 6a e3 bd 42 49 82 3d f7 5f 21 bd
       -0.045186494 -0.111042954 0.06361629 -0.03939816
0001f0 e1 1f e6 bb af 69 1c be fc 91 f6 3b fe d0 29 3c
       -0.007022843 -0.1527469 0.007524727 0.010364769

action_head.weight f4 [11, 128]
000000 80 d0 3c be 49 be b1 3e ae f4 43 be 74 94 d1 3c
       -0.18438911 0.3471549 -0.19136307 0.025583483
000010 71 7f 40 3f be 02 b5 bc b7 2c eb be 3d 75 d5 bd
       0.7519446 -0.022096034 -0.45932552 -0.10422752
000020 a4 95 8f 3d 79 bf 29 3f 03 16 ae bb 4a 71 3a 3f
       0.070109636 0.6630779 -0.0053126826 0.72829115
000030 31 70 0a 3f c6 f9 2d 3f c1 02 b8 3d eb e6 82 be
       0.5407744 0.6795925 0.089849 -0.255668
000040 6f 96 51 3e e6 b5 f9 3d 7e db d5 bd 54 45 93 3e
       0.20467542 0.121928975 -0.104422554 0.2876383
000050 15 54 4d be 83 1a db 3e d9 7c d6 be 91 fb d3 be
       -0.20051606 0.42793664 -0.41892126 -0.41402867
000060 34 83 be 3d b8 25 96 bd cb c8 0a bf f4 9a a7 bd
       0.09302369 -0.07331413 -0.54212636 -0.08183852
000070 3a 0c 94 be c6 a7 6a be b0 44 3b be ec 4d 5d 3e
       -0.28915578 -0.22915563 -0.18287921 0.21611756
000080 d2 10 be 3d 57 68 0f 3e df de 39 be 0b a0 97 be
       0.09280552 0.14004646 -0.18151425 -0.2961429
000090 58 04 da bd c6 c5 23 3e a9 0d b1 bd 41 70 2f 3f
       -0.1064536 0.15993413 -0.086451836 0.6853066
0000a0 ec 45 24 bf 80 96 62 3e 17 2b 94 be ca 27 2a be
       -0.6416919 0.22127724 -0.28939125 -0.16616741
0000b0 bf f1 eb 3d f5 ed fd 3e cb 9a 0e 3e 0c 27 1c 3f
       0.11520719 0.4959561 0.13926236 0.6099708
0000c0 b7 aa e0 3e 0d 77 9a 3e 09 6c 0d bd d5 bd 68 3d
       0.43880245 0.30168954 -0.03452686 0.056821663
0000d0 9a c2 22 3e bb 0b 29 3f 75 ab bf 3e 93 54 08 3c
       0.15894547 0.66033524 0.374355 0.008320945
0000e0 4f 6e d6 bd 5b 1f 9a be f9 f0 4c 3c e7 1f 95 be
       -0.104702584 -0.30102047 0.012508624 -0.29125902
0000f0 ae 11 c6 be 15 5c 1f 3f f2 f0 84 3c b5 29 47 be
       -0.38685364 0.6224988 0.016228173 -0.19449504
000100 8a 28 22 be d3 cc 9c be f1 9c a3 3e df 1d 22 3f
       -0.15835777 -0.30625018 0.31955674 0.6332683
000110 46 20 7f 3f ad d2 3a 3d 73 64 e8 3e e4 3e 73 3e
       0.9965862 0.045611072 0.45389137 0.2375446
000120 5c 9a c0 be 54 bc 45 be e6 d8 4d 3e c6 b3 96 3e
       -0.37617767 -0.19310123 0.20102271 0.2943403
000130 9e 13 6d 3e d5 81 91 3f c3 9f be be 8d 31 0c be
       0.23152015 1.1367747 -0.37231264 -0.13690777
000140 b3 a3 ab 3c 5a 86 2f 3e f5 80 d4 be ec 74 2f 3e
       0.020952081 0.17141095 -0.41504636 0.17134446
000150 89 28 25 3e f9 f8 94 bd e7 71 4b 3e 57 69 29 be
       0.16128744 -0.0727405 0.19867669 -0.1654409
000160 5f 43 7c bd d2 66 3a 3e f1 46 03 be 40 4b d8 be
       -0.061587688 0.18203285 -0.12820031 -0.4224491
000170 11 ab 9b 3d 13 72 fe 3d 67 8b 52 be a8 62 b1 bd
       0.07600988 0.12424102 -0.2056099 -0.08661395
000180 20 e9 6d bc f4 c0 02 bf 32 fc c8 bd 93 f6 c3 bd
       -0.014520913 -0.51075673 -0.098137274 -0.09568515
000190 bd ac 1a 3e 08 e5 d1 3d ed d3 51 3f a3 88 dd 3c
       0.15104957 0.10248762 0.81964 0.027042693
0001a0 a9 a9 e9 be 6d 87 95 be fe 9b 03 3f 87 44 26 3e
       -0.45637253 -0.29204884 0.514099 0.16237079
0001b0 b3 c6 52 be be bb 27 3e 73 a5 ea 3d f9 c1 23 be
       -0.2058361 0.16380212 0.11457338 -0.15991963
0001c0 8b ce c2 bf 59 3a d6 bd 9c 2e cb be c1 ea c8 3c
       -1.5219282 -0.10460348 -0.39683998 0.024526002
0001d0 47 79 2c 3e f5 27 96 3d fe 50 39 3e 22 8b 69 3e
       0.16843139 0.0733184 0.18097302 0.22806981
0001e0 3e 01 be 3e f2 c3 60 be 6a 1b 92 be 10 93 64 be
       0.37110323 -0.21949747 -0.2853654 -0.22321725
0001f0 36 2e 81 3f 2e 40 8d bf ea 19 ae be 93 65 b3 3e
       1.0092227 -1.1035211 -0.34004146 0.35038432
000200 69 41 26 3e 2d 75 fd bd 23 64 c0 bd 63 54 a5 3d
       0.1623589 -0.12375865 -0.093940996 0.08072736
000210 86 66 b1 be 50 b8 c8 bc c7 50 52 3e 81 cf 83 3d
       -0.34648532 -0.02450195 0.20538627 0.064360626
000220 73 6c 15 3e 06 f9 c5 bc 18 9f 4d be 28 94 58 bd
       0.14592151 -0.024166595 -0.2008022 -0.052875668
000230 21 af 14 bf 63 27 cf be d6 50 18 3e eb e5 6c 3d
       -0.58079726 -0.40459737 0.14874586 0.057836454
000240 a1 5c bb 3e 8b 11 44 3d b2 74 9c 39 1d 9d 12 be
       0.36594108 0.047868293 0.00029841583 -0.14317746
000250 04 49 2a 3e dc 11 04 3e e3 c5 68 3c 4b 80 90 bd
       0.16629416 0.12897438 0.014207336 -0.0705572
000260 46 16 ad bd cd 57 c7 3b 76 6e 35 3e de c8 9a bc
       -0.08451514 0.0060834647 0.17717919 -0.018894609
000270 06 c7 a5 bc e8 3a 13 3e a0 92 4b 3e 63 89 b1 3c
       -0.020236503 0.1437794 0.19880152 0.021671956
000280 ce 0b 08 3e 03 7b 0f 3e fd e8 77 bd bf 15 eb 3e
       0.13285753 0.14011769 -0.06052493 0.45915028
000290 4b 4e 6d 3e 51 f4 8e 3e e3 90 51 3d bb f9 0d be
       0.23174398 0.27920774 0.051163565 -0.13864796
0002a0 dd a9 bf 3c bc 91 1a bb 52 cd 80 3e 51 92 bf 3d
       0.023396427 -0.00235854 0.25156647 0.093540795
0002b0 78 47 a6 3e f9 96 93 3e f4 62 cb 3e c1 ce 14 bf
       0.324764 0.2882612 0.39723933 -0.5812798
0002c0 df 6d 6b be 94 86 b9 be af 5f 3d be ef 32 03 3e
       -0.22991131 -0.36235487 -0.18493532 0.12812398
0002d0 d7 64 36 3e 12 8e 87 be 07 d7 e1 be ab ff b4 3d
       0.17811905 -0.2647558 -0.44109365 0.08837827
0002e0 9d 44 5d be c3 b9 93 3e cc 83 07 be c7 46 24 3e
       -0.21608205 0.28852662 -0.1323387 0.16042624
0002f0 e7 f3 6d 3e 83 22 6f be c0 b9 37 bd 12 b7 3e 3c
       0.23237573 -0.23353009 -0.04485488 0.011640327
000300 eb 80 db 3d c9 de 60 3e f3 6d a1 3e c3 77 84 be
       0.107179485 0.21959986 0.31529197 -0.2587262
000310 35 7c 4d bf d9 eb 95 be 7f 8b 03 be c9 d9 f6 3e
       -0.8026765 -0.292815 -0.12846182 0.48213032
000320 2a 32 eb 3e 2f b0 1b be a9 3d 57 bd ca 1f d3 3e
       0.4593671 -0.15203927 -0.052549038 0.4123519
000330 9c c7 44 be 83 fc 84 bf 2c 8d 35 bd b2 a3 27 be
       -0.1921677 -1.038956 -0.044324085 -0.16371039
000340 85 32 81 3e 26 4b 75 3e 2e a2 4e 3c 88 e1 8c 3e
       0.25233856 0.23954448 0.012611909 0.27515817
000350 6c 2e a6 be 8b dd 75 3e 17 89 4c 3e 03 32 a9 3c
       -0.32457292 0.24010293 0.1997417 0.02065373
000360 24 10 ad 3b f6 dd 99 3d d0 66 8c 3d 79 da e0 3c
       0.005281465 0.07513039 0.068555474 0.027447926
000370 a4 7a 98 3e 72 cc 38 3e e7 53 10 be cb d3 8a bd
       0.29781067 0.1804674 -0.14094506 -0.067786776
000380 bb fe c9 3c 87 e4 85 3e 36 81 86 3d 90 8c e1 bd
       0.024657598 0.26150915 0.06567614 -0.11013138
000390 37 2a 41 3d 2b 50 b6 3d b3 f6 e8 be c7 21 ea 3d
       0.0471594 0.089020096 -0.45500717 0.11432224
0003a0 2b b2 71 bc 43 69 ca 3e fe ee 67 be 39 33 48 3e
       -0.014751951 0.39533433 -0.22649762 0.1955079
0003b0 d3 f0 1c be e6 4a aa 3e d5 7d 06 3e 8f bf 32 3d
       -0.15326242 0.33260268 0.13133939 0.043639716
0003c0 7d 83 f4 3e 48 c0 10 bd a2 c8 98 3e 0f a7 d4 bc
       0.47756568 -0.035339624 0.2984057 -0.025958566
0003d0 41 1d 5b 3e c4 64 d8 3d 63 33 69 3e f5 9c b7 3e
       0.21397878 0.105660945 0.22773509 0.35861936
0003e0 74 98 94 be 03 6c 9e 3e d9 27 4b 3e ee 5b 60 3d
       -0.29022563 0.3094178 0.1983942 0.05477517
0003f0 47 62 ea be 19 67 71 3e da 69 43 3e 76 a2 11 bf
       -0.45778105 0.23574485 0.19083348 -0.5688852

action_head.bias f4 [11]
000000 4e b2 67 3d aa cb 68 3a 37 d5 d2 3d 7b 80 cd 3d
       0.05656653 0.0008880446 0.10294574 0.10034271
000010 4e 31 60 bc fb bd 13 3d 38 e0 4d 3d 5f b6 89 bc
       -0.01368363 0.03606985 0.05026266 -0.016810594
000020 bc 70 80 bc 56 75 19 3d 03 41 00 bd
       -0.015678756 0.037465416 -0.031312
