alg/discrete_action/param/net_param/actor_net1739786050.pkl (torch, 80064 bytes, 6 tensors)

fc1.weight f4 [128, 15]
00000000: 2abc c4bd 13b6 9f3e 2965 d13c 6e8d f639
00000010: 68d4 6bbd a833 12be 39ee 793e e475 4cbe
00000020: b4c8 5d3e 0f9e f03d 957b 76be 2aa4 1dbe
00000030: 9d9d 683b 3213 193d 1a27 13bd 8898 4dbe
00000040: 03bf b63e f93d 31bd cadd 163c 79a8 df3d
00000050: a93f 3e3d 522e 05be 9655 a6bd 5ae0 e63d
00000060: eb6a 44be 1f1b b0bc 23c1 283e 9d06 32be
00000070: cf79 8fbd c7c6 9e3d 75bd 143e 9317 a3be
00000080: d2e3 113e 6b85 cfbd c22e 453d b238 1e3e
00000090: 7561 093e 4e26 97bd 9861 3dbe 631a 1ebe
000000a0: ae14 b03c 2147 f73c 4e35 3c3d 65d9 0d3e
000000b0: c85e 5a3e e0cb 913d 6cb0 813e 8af8 553e
000000c0: 5283 883d b909 283e 871a 1b3c e3c6 363d
000000d0: a47c 083d 6ed9 813d f4af 523d 487e d33d
000000e0: 8abc 8c3e dd7d 543d 3b35 083e 0506 a3bd
000000f0: f1e4 11be 73d6 253d c05d 4bbd 33c3 fd3d
00000100: 62cb 2dbe 56a8 fbbd 3b7e babd c890 f83d
00000110: 417f b23d c5be 13be 0ce5 4f3d 5346 c23b
00000120: 5237 7c3e 9ba1 8b3d a8c7 653e 92a2 0ebe
00000130: f18b 44be 20a6 103e a70c 4d3d 67c4 49be
00000140: aa94 143e cc4c 4cbe 4f4d 9b3d 4ae8 9c3c
00000150: 2796 1b3e 3498 ec3d f3cd f9bc fe1f e73d
00000160: 75ab 99bd dfc8 4a3e 10d5 cd3d ef6a 453e
00000170: 1388 8bbd 9809 903c 37b4 90bd 2630 77bd
00000180: a747 883c 28e7 e33d 6572 413e be18 0dbe
00000190: 32a1 61bd 5ee1 aabc 7fcd 033e aa79 1e3e
000001a0: 7c44 d63c b023 523e ae45 81be 60ef 6f3e
000001b0: f87c 1fbe 0dd7 b73c 61d0 5d3e 54ff 3f3e
000001c0: 5306 25be 9314 503d b174 363e 201d ec3d
000001d0: a042 3cbe cb48 d4bd 6a3a 493c cc71 d13c
000001e0: 3efd 453c a4c7 193e d22d b6bd 9965 3ebe
000001f0: b059 d2bd 9be9 f5bd 4b4f 2f3d 7f9f 22be
00000200: 6ca7 6b3e d2e3 7f3d f50d 10be bf87 e1bd
00000210: 681f 313e 7f1c 9abd 780e 8f3d 032d 57bd
00000220: 8046 3e3e cc66 d6bb 45c4 c1bd a165 a4bd
00000230: 283a 083d d72c 5dbd 895a 753d 6e13 44bd
00000240: efbd be3b e842 ce3c 21a2 a43e e24e 483e
00000250: 5604 04bc ac21 9fbe 142c 8dbd 8d60 71be
00000260: 54f4 36be 2a45 e9bd 265c c13d 3dbf 3e3d
00000270: 877a 013e 0d76 0d3e 305a 633e d71a 72be
00000280: 8602 043e d4a7 263e d0fa 88bd 14c0 e63d
00000290: 467d e43d 8926 f43d 4348 afbe d858 08be
000002a0: 069e bbbe fdaa 84be 504c c6bd c4f5 b53d
000002b0: 7c47 e83c 1004 16be 9aa1 10be 2a92 c43d
000002c0: 9531 9d3b 6686 e7bd ccbf 123e 1663 b6bd
000002d0: 7001 233e 0aa4 a8be 6ba1 aebb 2a3b 9d3d
000002e0: e97c 02be de06 46be 2d5e 50be 82b5 413d
000002f0: 609c 243e 65e1 4f3e 33cf 81be 0fa8 c2be
00000300: 9015 97bd a754 903c 18f2 cd3c 7ff7 673e
00000310: 31b2 c6bc fb29 05be ad6c 4dbe 9a77 593e
00000320: 80b9 773d e305 5fbe ca09 3c3d a0e2 e23d
00000330: 373d 4f3e d1c2 453e 7880 413d bcfa 753c
00000340: 8441 91bc bac0 593d 7935 93bd 1945 c53e
00000350: 97f2 bbbd b303 1d3e 7265 9d3d 86b2 ac3d
00000360: 3c3f 94bd ea3c c63d 0fac b639 97b7 4ebd
00000370: 9193 4dbe 508b 20be 909e eebc e23e 173c
00000380: e9a9 bdbd a4c5 4ebe 7e45 1a3e f243 31bd
00000390: 3dee ccbd 5814 9dbd 3e2a 033e ad48 123d
000003a0: 13fb c73d 0de0 33bd 7d5a 403c 06a2 d23d
000003b0: c1f8 863e 1434 34bd 82e7 8fbd 40f9 27be
000003c0: 21f5 4ebe a87a 7e3d 199c 0b3c db37 b33d
000003d0: cdaf 6d3e 19d1 063e 442b 1bbe 38b2 f0bc
000003e0: 5175 a2bb b437 fe3c aa46 533e 2fba 7dbe
000003f0: 4065 eebd e44f c73d b736 53be 8ed5 71be
-0.09606202 0.311936 0.025560932 0.0004702615 -0.057575613 -0.14277518 0.24407281 -0.19966847
0.21658593 0.11748897 -0.2407058 -0.15394655 0.0035494335 0.03737182 -0.035925962 -0.20077717
0.35692605 -0.043271992 0.009208152 0.109208055 0.04644743 -0.13005951 -0.08121793 0.112732604
-0.19181411 -0.021497307 0.16479926 -0.17385335 -0.07005655 0.077527575 0.14525397 -0.31853923
0.14247063 -0.10132869 0.048140295 0.15451315 0.13416083 -0.07380353 -0.1849426 -0.15439753
0.021494236 0.030185284 0.045949273 0.1385246 0.21325219 0.07118964 0.25329912 0.20895591
0.06665672 0.16409959 0.009466774 0.044623267 0.03332199 0.063402995 0.051437333 0.103268206
0.27487594 0.051877845 0.13301556 -0.079601325 -0.1424749 0.040487718 -0.049649954 0.12390747
-0.16972116 -0.12287967 -0.09106108 0.1213699 0.08715678 -0.14428242 0.050755545 0.0059287935
0.24630478 0.06817933 0.22439444 -0.13929203 -0.19194008 0.14125872 0.050060894 -0.19703828
0.14509836 -0.1995117 0.07583105 0.019153733 0.15193997 0.11552468 -0.030493712 0.11285399
-0.07503406 0.19803189 0.10050404 0.19279073 -0.068130635 0.0175827 -0.07065623 -0.060348652
0.016635729 0.11128074 0.18891294 -0.1377897 -0.05508537 -0.020859417 0.1287136 0.15476099
0.026155703 0.20521426 -0.25248474 0.23431158 -0.15575016 0.022441411 0.21661521 0.18749744
-0.16115694 0.05080087 0.17817952 0.11528993 -0.1838479 -0.10365447 0.012281993 0.025566958
0.012084303 0.15017563 -0.08895458 -0.18593444 -0.10271013 -0.12007447 0.04280023 -0.15881155
0.23013085 0.062473126 -0.14067824 -0.1101222 0.17297137 -0.075249664 0.069851816 -0.05253316
0.18581581 -0.006543016 -0.094612636 -0.08027197 0.033258587 -0.05399784 0.059900794 -0.047870092
0.0058209817 0.025178388 0.32154945 0.19561341 -0.008057674 -0.31080377 -0.06893173 -0.23571987
-0.17866641 -0.11390145 0.09441404 0.046569098 0.12644397 0.13814564 0.22202373 -0.23643051
0.12891588 0.16274959 -0.06688464 0.11267105 0.111567065 0.119214125 -0.3423482 -0.13315141
-0.36644 -0.25911704 -0.09682524 0.08884767 0.028354399 -0.14649987 -0.14124146 0.09598191
0.0047971704 -0.11304931 0.14330977 -0.08905618 0.15918517 -0.32937652 -0.005329301 0.076773
-0.12742962 -0.19338557 -0.20348425 0.04729224 0.16075277 0.20300825 -0.25353393 -0.38018844
-0.073771596 0.01761849 0.025139853 0.22653006 -0.02425489 -0.13004296 -0.20060988 0.2123703
0.06047964 -0.2177959 0.045907773 0.110783815 0.20238195 0.19312598 0.047241658 0.015013393
-0.017731436 0.053162314 -0.071879335 0.3852928 -0.0917713 0.15333442 0.07685365 0.08432488
-0.072386235 0.09679587 0.0003484194 -0.050468054 -0.20075823 -0.15678144 -0.029128343 0.009231301
-0.092609234 -0.20192581 0.15065572 -0.04327769 -0.10006378 -0.07669896 0.12809083 0.03571384
0.097646855 -0.043914843 0.011740324 0.1028481 0.2636166 -0.043994978 -0.070265785 -0.16403675
-0.20210697 0.062128693 0.008521103 0.08750888 0.23211594 0.13165702 -0.15153223 -0.029381856
-0.004957833 0.03103242 0.20632425 -0.24778055 -0.11640406 0.09732035 -0.20626341 -0.23616621

fc1.bias f4 [128]
00000000: e3c9 413d 8c03 00be f7e8 163d d796 8ebd
00000010: 0da3 13be 2e48 28bd 7061 7fbe 513f 3c3e
00000020: ea3d e7bd 2ca6 7bbd 0a23 6bbe 93d1 efbb
00000030: ce73 66bd 2ecd 313e 836e d8bc 3324 533e
00000040: b94c 693e 3c76 433c 09ff 14bd 39d4 43be
00000050: 272f 02be 569a 24bd ff41 37be e8cc 253e
00000060: 0a94 80bd d52a 9f3c 2372 503d 5975 64be
00000070: afb3 783e 4576 debd 78ff 26be 5672 953c
00000080: 41d1 48be 2d5d 023e 7053 e1bd cb97 7ebd
00000090: cccc b9bc fa62 7f3e 498c 483e 32aa 9e3e
000000a0: 4061 313d 98d3 463e 1523 63be 361d cebd
000000b0: 5135 fc3d c468 db3d 754e 323e 173f 143e
000000c0: a3f8 163e 6c71 063e 4b00 f8bd 8afc 44bd
000000d0: 60a3 943d 48ee 5a3e 6380 133d 96c2 2d3c
000000e0: 194f 283e 90a7 4e3e 4983 bdbc 3042 9bbc
000000f0: 184a 47be 0110 6f3d 0861 f23d f326 d9bd
00000100: d142 4abe d833 3bbe e8c4 763e 5e0b 583e
00000110: 751d 863e 5325 763e c16c 6b3c e4c1 1b3e
00000120: 84c6 183e 9d12 08bd a797 26be d4fd 4d3e
00000130: 5a15 5ebc 9427 b73d 3725 fcbd 44ed b8bb
00000140: 44e2 93bd 25dd 613b 00e3 553e b7fb 383e
00000150: db9b 2bbd 68a8 8c3e 13f6 92bd f5d2 da3c
00000160: 82c1 14be 6d4d 5e3c 0849 833e 6f99 0bbe
00000170: f638 823d a94f 3cbe e052 2abd 6108 e8bd
00000180: fdd6 df3b 67f7 fcbd c024 f53d b07a 79be
00000190: c5e3 e93d f65f 18bd baad 19be d6ed 4c3e
000001a0: db5c 893d cd47 39be f4df d2bd ab13 17bd
000001b0: 0380 eebd 8cf6 313d 52fc 393d 906c 693e
000001c0: a15a 83bc 557d 99bd 7bf2 793e 5365 b03d
000001d0: 23be babd 65d1 403e 0a72 3c3e 9195 5ebe
000001e0: 0a1c 25be 390e 15bd ae5e 63be d865 a0bc
000001f0: c6c1 f13d 2d7e 37be a690 49be baaa 63be
0.047311675 -0.12501353 0.036843266 -0.06962364 -0.14417668 -0.04108446 -0.24939513 0.18383528
-0.11291106 -0.06143777 -0.22962585 -0.0073186844 -0.056262784 0.17363426 -0.026419884 0.20619278
0.22783174 0.011930045 -0.036376033 -0.19123925 -0.127133 -0.04018625 -0.1789627 0.16191447
-0.06278236 0.019429604 0.0508901 -0.2231039 0.24287294 -0.10862402 -0.16308391 0.018242996
-0.19611074 0.12730856 -0.110022426 -0.06215648 -0.022680663 0.249401 0.19584765 0.30989224
0.043305635 0.19416654 -0.22181351 -0.10064165 0.12314857 0.10713342 0.17412741 0.14477192
0.14743285 0.13129205 -0.12109431 -0.048092403 0.07257724 0.2137996 0.03601111 0.010605475
0.16436423 0.20181108 -0.02313389 -0.01895246 -0.19461858 0.058364872 0.118349135 -0.10603132
-0.19752051 -0.18281496 0.24098551 0.21098086 0.2619435 0.24037676 0.014369191 0.15210682
0.14919478 -0.033220876 -0.16268788 0.20116359 -0.013554895 0.08943096 -0.12311786 -0.0056435186
-0.07220891 0.0034464088 0.20887375 0.18064772 -0.041896682 0.27472234 -0.07175841 0.02671192
-0.14526942 0.013568264 0.25641656 -0.13632749 0.06358521 -0.18389763 -0.041582942 -0.11329723
0.0068310485 -0.12351876 0.119699 -0.24363208 0.11420397 -0.03720089 -0.15007678 0.20012602
0.06707164 -0.18093796 -0.10296622 -0.03688399 -0.1164551 0.043448016 0.045406647 0.2279532
-0.016034426 -0.07494608 0.24408905 0.08613076 -0.09118297 0.18829878 0.18402877 -0.21736743
-0.16123977 -0.036390517 -0.22204086 -0.019579813 0.118045375 -0.17919226 -0.19684085 -0.22233096

fc2.weight f4 [128, 128]
00000000: 9820 91bd d13a 89be 3186 4dbe 2168 5c3e
00000010: c928 b9be fc83 7abe b4bf e7bc 078e ba3d
00000020: 14e6 0fbe f65c e13d eb2d b8bc 27b2 5c3c
00000030: 701e 2ebe ddf0 b73d 556c a8be a14a 2a3e
00000040: 1824 443d 314b 1a3e 7051 fabd df3d 0abe
00000050: d6c5 c73d 1579 243e 85ee 433e e76f 053e
00000060: 6fc5 c43d 5160 853c 62a3 3ebd 7095 a53d
00000070: d40c babc 8af1 1f3e 07bd bf3d 8005 2dbc
00000080: 4a05 9dbb 6f70 fabc f964 273e 2f85 ef3d
00000090: ff5f 5fbd d7ab 123d 909f 72bd 4c1f 18be
000000a0: d4dd 49bd 56b4 34be 7ca6 1d3e 3a6b aa3d
000000b0: 2d48 80bd bbde 5ebe 8691 3bbe 9fac 1a3e
000000c0: 0ee3 7dbd 67dd 973d 782f d23d 581d 20bc
000000d0: 2bc0 083e aac7 ddbc 39bf 5fbe 3865 95be
000000e0: 8f43 d8bd ce13 a63d bf8c 923d 20df 9cbe
000000f0: be67 95be 9be8 253e 59de b83c 7725 92be
00000100: 0bfe a0bd eccd cbbe 0423 073c ccda 2b3e
00000110: 9da7 cb3d 9ee5 98bd 04c6 93bd b3b8 7abd
00000120: 54e0 4bbe e206 03be 8273 093e 1dba cf3c
00000130: 93eb 5b3e f38a 973b 18d2 f03b 5601 ebbd
00000140: a8d8 20be dc00 92bd 159f 8bbe 5fe3 49bd
00000150: 703c 79be c786 1ebe 59bc 1bbe 9323 27be
00000160: 749d 8ebd be15 463d bf79 103d 02f0 5d3e
00000170: 98e9 c23e d758 1f3e b615 bebd ae94 313e
00000180: 1a19 08be 0035 53be 0334 d23a 9a86 82bd
00000190: 305f b23d f3a9 16be c98b 85be d6a1 c0bd
000001a0: 6468 973e 1795 933d f535 b13d bffc 8cbd
000001b0: 6b12 5e3e 2135 2e3e fe4a 02be 18f7 193e
000001c0: d97f a93d a51d 38bd f6ca c03c 7243 6fbd
000001d0: 5805 17be 01ad 5ebe 3302 913d f671 9cbc
000001e0: 0ccb 95bd 27e2 353d 3b4b 69bd 1795 41be
000001f0: e5e0 343e e5a7 023e 5f5a 463b 6897 1c3e
00000200: 3e7f a1be a95a bc3a 761e 0e3e 0c7a e73d
00000210: 9a3d 40be 5ee8 f2ba ef17 8bbd b629 d2bd
00000220: ce7e 913c d01f 6a3e de76 adbd 764e 4bbe
00000230: 2eb9 acbe 88e3 11be ca60 a6be 7206 8f3d
00000240: 9d41 d83c e13f 9c3d 5729 19be e339 c13d
00000250: a301 8b3e 05a3 403e 287d 9a3e df0b f0bd
00000260: 153c b2bd e823 25bc 478e 05be db26 073e
00000270: 1a8a 0d3e cbc8 373e 0217 08bd ffc0 8f3c
00000280: 4bd1 303d 1288 d83d 4133 583e d4fa 4cbc
00000290: 841f 40bd 37ff 283e 0df9 9cbc 6f9d 863d
000002a0: c40a 9e3c c48e e1bd e219 de3d 3ce4 773d
000002b0: 2552 99bd b332 343e af8a 85be 0229 583d
000002c0: 2193 323d 8719 e1bc f91f c4bd e949 a43d
000002d0: afc2 d7bd 5662 013e 7ca9 253e 213c 6fbd
000002e0: 94cc 113e cc78 c43c a98d 153e 5421 293e
000002f0: 2907 b5bd 7a15 203e 8524 a7bc 7efd b53c
00000300: 9ed9 19be 4335 35be dff1 c0bd 2f22 debd
00000310: 050f 8abd 297f 493d 7fa4 03be 9a76 13be
00000320: 76fa 85bd 0747 87be a092 85bd 61af 2b3e
00000330: 1276 3c3e 174f 5c3d bfe5 51be c350 22be
00000340: 4fd1 6ebe 745a ac3c 4588 983d ea38 d73d
00000350: d3dc aebe 45f6 febd 046b f93d a620 ddbd
00000360: 8565 ff3c 09c7 0f3e 94b4 54bd d4de 833d
00000370: 095b 223e 730b 8d3d c492 00bd 6634 143e
00000380: 5e1c 52be 719d 853e f266 993d 124e 9a3d
00000390: 1389 243e 11e7 6bbd 54e1 73be fec4 b9bd
000003a0: cf4a fc3d 879c 383e f303 1e3e 8caf 2fbe
000003b0: 72a1 4a3e fc89 423e f1bc fdbd 81f1 37bd
000003c0: 901e 163e cd9c 52bd 929b 0dbd 55a5 243e
000003d0: 14ef 5c3d 5416 d33d 322d 903d f112 193e
000003e0: b071 4a3e 70d4 afbd e43e c1bd ca43 80be
000003f0: 395d ca3d 74d8 c6bc 84be ccbc e6e3 c7bd
-0.07086295 -0.26802686 -0.20070721 0.21524097 -0.3616393 -0.2446441 -0.028289653 0.09109121
-0.14052612 0.11004059 -0.022482833 0.013470209 -0.17003798 0.08981488 -0.3289515 0.16630031
0.047885984 0.15067746 -0.12222564 -0.13500164 0.09754531 0.16061814 0.19133957 0.13030969
0.0960797 0.016281279 -0.046542533 0.080851436 -0.022711195 0.15619484 0.09362226 -0.010560393
-0.0047918903 -0.03057119 0.16347112 0.11695325 -0.05453491 0.03580841 -0.059234202 -0.14855689
-0.049283817 -0.17646918 0.1539554 0.08321233 -0.062637664 -0.21764652 -0.18317232 0.15104912
-0.061984114 0.07415276 0.1026296 -0.009772621 0.13354556 -0.027072746 -0.2185029 -0.29178786
-0.10559761 0.08109246 0.071557514 -0.3063898 -0.29180712 0.16202013 0.022566961 -0.28544208
-0.07860955 -0.39805543 0.0082480945 0.16782683 0.09944079 -0.07465671 -0.07215503 -0.0612113
-0.19909793 -0.12795594 0.13422969 0.0253573 0.21476583 0.0046247183 0.007349264 -0.11474864
-0.15707648 -0.0712907 -0.27269807 -0.049289104 -0.24339461 -0.15481101 -0.15208568 -0.16322164
-0.069636256 0.04836058 0.035272356 0.21673587 0.38068843 0.15561233 -0.09281485 0.17341873
-0.13290825 -0.20625687 0.0016037229 -0.063733295 0.08709562 -0.14713268 -0.2608321 -0.09405868
0.2957183 0.07206171 0.086528696 -0.06884145 0.21686713 0.17012455 -0.1272392 0.15035665
0.08276338 -0.044950146 0.02353428 -0.05841393 -0.14748132 -0.21745683 0.070804976 -0.01909731
-0.07314119 0.04440513 -0.05695651 -0.1890453 0.17663915 0.12759359 0.0030266268 0.15292132
-0.3154239 0.001437028 0.13878807 0.113025755 -0.18773499 -0.0018532386 -0.06791674 -0.10261862
0.01776066 0.22863698 -0.08469938 -0.19854149 -0.3373503 -0.14246953 -0.3249572 0.06983651
0.026398474 0.076293714 -0.14957176 0.09434869 0.27149686 0.18812187 0.30173612 -0.11721014
-0.08702866 -0.0100793615 -0.13042556 0.13198416 0.13822213 0.1794769 -0.033225067 0.017548082
0.043168347 0.10572828 0.21113302 -0.012510974 -0.046905056 0.16503607 -0.019161725 0.06572997
0.019292243 -0.110135585 0.108447805 0.060520396 -0.07486371 0.17597465 -0.2608237 0.052773483
0.043597344 -0.027477993 -0.09576411 0.0802191 -0.1053518 0.12635168 0.16177934 -0.058406953
0.14238197 0.023983382 0.1460482 0.1651662 -0.08839256 0.15633193 -0.020403156 0.022215601
-0.1502442 -0.17696099 -0.09421133 -0.10846364 -0.06741146 0.049193535 -0.12855719 -0.14400712
-0.06541912 -0.26421377 -0.06522107 0.1676612 0.18404415 0.053786363 -0.20497797 -0.1585112
-0.23322032 0.021039225 0.07447866 0.10508902 -0.3415285 -0.12449316 0.12178615 -0.10797243
0.031176338 0.1404077 -0.051930025 0.064389855 0.1585504 0.068869494 -0.031389967 0.14473113
-0.20518634 0.2609668 0.074903384 0.07534422 0.16067915 -0.05759341 -0.23816425 -0.090707764
0.12318956 0.1802846 0.15431194 -0.1715681 0.19788149 0.1899795 -0.12389553 -0.04490805
0.14660096 -0.051419068 -0.03457219 0.16078694 0.05393894 0.10306993 0.0703987 0.14948632
0.19769931 -0.08585441 -0.094358236 -0.2505172 0.09881062 -0.024273135 -0.024993189 -0.09760265

fc2.bias f4 [128]
00000000: 291e d2bc 7caa 233d 2ff1 7a3d 946b b6bd
00000010: ade9 15bd 6fce bfbc 3ab8 243c 5138 96bd
00000020: 4810 c1bc 6669 ad3d 34c0 ef3b 04ff 913d
00000030: 437f 913c 3752 bb3c ba9c 523d c768 0dbd
00000040: 121b 8d3b 1288 9fbd 9ea0 2bbc 8475 943d
00000050: 9d8f 14bd 8909 0e3d 342a 953d 49ff 053d
00000060: bdc1 643d 1293 14bc 0d0a be3d 43b9 89bc
00000070: ed76 9b3c 2a27 033e bb2c 8f3d 5498 803d
00000080: ab10 5cbc d3c7 85bd 2288 e7bc bed4 033e
00000090: c25a 9fbd 1d9f e43b 3d05 233d 67fb d5bc
000000a0: 90b1 52bd a8a9 a73d 8b33 ba3c 8626 d9bc
000000b0: 2769 6a3d 98a2 85bc 4898 c8ba 5ab7 843c
000000c0: ac60 87bc 8a8f 3ebd 2a77 9fbd f140 e03d
000000d0: cb8a b23d f2f8 d73d 6cf7 acbd f4cb 86bc
000000e0: 7c23 e93c 9181 dcbb 7190 6239 ef9f a03d
000000f0: ea43 c63d b8df 443b d7dc df3c cb8c 84bc
00000100: 4b99 a2bd ac0a 233d 9725 323c 007c 893d
00000110: 7128 32bd 2904 ea3c 5935 543d 0ca6 8bbd
00000120: c760 a3bc 76ab 69bd 6867 be3c cc99 b53c
00000130: 101a 233d 0834 7dbd 5a45 733d 74c6 c53d
00000140: 12b0 203d dafc a93c caac 5bbd af8f b0bd
00000150: b16a 87bd 7dfd 3c3d 0356 e63c 9fa2 613d
00000160: 32d6 55bc 0770 133d 2092 943d cebc 56bd
00000170: 25f8 20bc 4043 b33d cca7 b03d 2ef9 8b3d
00000180: ead2 6abc a3f6 86bc 7a16 33bd 79c1 933c
00000190: 16bf 1cbd 4654 623d ef25 6c3d b4bf a5bc
000001a0: faa7 003c 7311 623b 7243 493c 54c0 c3bc
000001b0: fdf4 c53d 7e28 83bd b08b 83bd 6890 14bd
000001c0: 078a 6b3d 1d10 44bd bdaf 103c e53e ab3d
000001d0: b339 943d ac1f 023d 1b6b 883c 2bc0 92bc
000001e0: 7eab fbbb 756a ea3d 1fdf 4e3d fc49 59bd
000001f0: e24f c33d 8711 203c 685e b33d d569 8b3c
-0.025649147 0.03995751 0.061265167 -0.08907238 -0.036599804 -0.023413865 0.010053689 -0.0733496
-0.023567334 0.08467369 0.0073166136 0.071287185 0.017760878 0.022866352 0.051418997 -0.03452375
0.0043062055 -0.07789625 -0.010475306 0.07248977 -0.036269773 0.034677062 0.0728344 0.032714162
0.055848826 -0.009068267 0.09279261 -0.016811972 0.018977607 0.12807909 0.069909535 0.06279054
-0.013431708 -0.06532254 -0.028263155 0.12874123 -0.077809826 0.0069769756 0.039799917 -0.026120855
-0.051438868 0.08186656 0.022729656 -0.026507627 0.057229187 -0.016312882 -0.0015304172 0.01620071
-0.016525589 -0.04652361 -0.077864006 0.109498866 0.08717879 0.105455294 -0.084456295 -0.016454674
0.028459303 -0.0067293127 0.00021606848 0.07843005 0.09680922 0.0030040573 0.027326984 -0.016180417
-0.079393946 0.0398051 0.01087322 0.06713104 -0.0434956 0.028566437 0.05180869 -0.0681878
-0.019943608 -0.057048284 0.023242667 0.022168063 0.039819777 -0.0618172 0.05939231 0.096569926
0.039230414 0.020750452 -0.05363158 -0.086211555 -0.06612147 0.046140183 0.028117185 0.05508673
-0.013051556 0.03599551 0.07254434 -0.052426152 -0.009824787 0.08753061 0.08625755 0.06834637
-0.014332512 -0.016475027 -0.043722607 0.01803659 -0.03826817 0.05525615 0.057653364 -0.020233013
0.007852549 0.0034495264 0.012284147 -0.02389542 0.096658684 -0.06404208 -0.06423128 -0.03627053
0.05750468 -0.04786693 0.008830962 0.083616056 0.07237568 0.031768486 0.016652634 -0.017913898
-0.0076803556 0.11446086 0.050505754 -0.053049073 0.09536721 0.009769804 0.08758241 0.017018238

action_head.weight f4 [6, 128]
00000000: 10d6 04bf b4ab 5cbe 844c 103e 877a e4be
00000010: 87d8 3cbd 9094 0dbf 3246 873e 1810 f83e
00000020: ce5c 15be 0440 dfbd fe9c 7b3d 8a2e 2c3e
00000030: 6048 6dbd d2fc af3e aa6d 81bd 6348 043e
00000040: d185 82bd 9bba d3be 11e8 763e 4962 6e3e
00000050: 8603 473e c134 c13d bec2 a93e d6b4 433e
00000060: b9d3 863e db65 283e ae0a 083e bd39 aa3e
00000070: 7488 8e3e f523 ec3e 62ac 503c ca80 aabe
00000080: 36c5 083e 63dd 84be bc22 75bd 3d69 6f3e
00000090: c4b6 2a3e 5e3f bc3e c128 193e 507a 00bc
000000a0: 605a 7ebe 3b94 b7be 91b6 613e df65 483e
000000b0: 75cf 3b3e 8162 bdbd 5e5c d2bd 7aae 0bbf
000000c0: 7fd1 e03c 910f 163e 1f48 4dbd 46ae cebe
000000d0: 2f24 7d3e 52f9 d43d 3b44 1ebe 02a5 5c3e
000000e0: 3ae3 ddbd a364 d9bd ef7e 9ebe 9538 713e
000000f0: cee2 573e 848e b8be 2c10 803e 0a3a 0e3d
00000100: 95e0 dfbd 17f1 143f 0f67 2c3e 5fe2 473e
00000110: 8279 04bf 24e0 4e3e 480b 9fbe 55db 573e
00000120: 1c62 d2bc 2989 86be fd8a 89be 5c92 fabd
00000130: fd66 cebe bcdf c5be f64f 1b3e b694 773e
00000140: 2fd4 c73a 46ae 953e 5bf9 a63e 1e56 203d
00000150: d5ea a03e 7211 c7be cc1d 47be ca4d 1b3e
00000160: f11a 863e 9ac5 953e 1f5b b8be f342 abbe
00000170: 4b51 cdbe 761e 633d ad5f ad3d fecb 3cbd
00000180: dd00 89bd 7fb3 80be 4181 a8be 6eb4 76be
00000190: c653 223e 6166 b23e c6ec 083e f66a 57bd
000001a0: b3d6 6b3e a1d3 733e 5c1d 083e d123 34be
000001b0: ad47 833e 0c7d 263e 5b45 8a3b ca2a d03d
000001c0: 30a4 b63e 2118 803d 97f4 e53b 7204 6b3d
000001d0: 4120 a83e da98 d8be e174 a7bd 2619 6ebe
000001e0: 196b 783c 6005 923e e3cd d1be 4283 8d3e
000001f0: 7c66 5c3e 5085 823e 54bb c63d 2f2d 7d3d
00000200: 1421 b83e ca8d a03e 1da5 7fbe 083e 0d3e
00000210: 9cbb 9cbd ed90 703e 47b8 9bbe 910d bcbe
00000220: 3d01 a33e 702c 793e 1aee 353e a434 acbd
00000230: a5fb d93d af88 1c3d 3230 55be 9c70 04be
00000240: 8a08 693e a5da a13d b7c0 cabe 01c1 c7bd
00000250: 04b2 8bbd 8975 3e3e c837 ad3c 4fd7 d2be
00000260: 5a70 6dbe 6249 7c3e 17d8 73be c842 19be
00000270: bdb6 aabb f832 89be f2d4 0e3e 537b 5c3d
00000280: 2c16 e1bd 8289 383e 3648 7d3e 9e25 a23d
00000290: 8b3d a43d 3b6a 9abe cb96 8ebd 9bb6 183e
000002a0: f3b8 713e d206 333e 93e4 ccbe 7577 173e
000002b0: dc97 793d 2192 af3d 0096 333e df06 123e
000002c0: bfed 54bd 2f91 883e 2473 00be fbe5 38bd
000002d0: 7752 d0bd 3eab 7f3e f9cc 2d3e c594 173e
000002e0: 1f53 3e3e bc8b 0e3e 5ebe 0b3e a57d 4cbe
000002f0: 22a1 62bc 215b 283e 8f54 a0be 04f9 16be
00000300: 9479 1fbe 4d3e 14bf 6eab 06bf c6d2 3fbe
00000310: c338 cf3e e62a 873d e534 923e 7b9b 483e
00000320: 8a5f f33d c479 973e c9de a5bd a316 fdbd
00000330: 2653 063e f03d 783e b772 89be a61e 09bd
00000340: 2748 e63d dee5 fa3c 10cb 34be afba 55bd
00000350: 996d 4fbe 32cc 1c3d e962 1b3e 206e 313e
00000360: 0c5b 52be ec3d 40be 206c 6f3e 21df 8b3d
00000370: 4521 923e 5c5e a1be 3806 363e 88d3 9fbc
00000380: b9c1 b53d 09cf 423e e5ae bb3e 4461 993e
00000390: 08ad 9abe a137 b7ba ac85 cdbd 5838 453e
000003a0: 7d8b a13d e4f6 65be f4e2 723e fece bfbd
000003b0: 3fb2 223c a54d 34be d769 9fbd 02b3 323e
000003c0: ed3e 81be 4469 323e 7d20 a3be b85b f33d
000003d0: 3db4 c93d 2e0d 423e fd14 04bd a4f4 aa3e
000003e0: c035 e4bd 39cc 34be a5c4 273e 10e2 92bd
000003f0: 30ea 8bbb 4874 37be 8112 5fbe 2221 0abe
-0.51889133 -0.21549875 0.14091688 -0.4462473 -0.046104934 -0.55304813 0.26420742 0.4844978
-0.14586183 -0.10900882 0.061429016 0.16814628 -0.05793035 0.34372574 -0.06319745 0.12918238
-0.0637318 -0.41353306 0.24111964 0.2327968 0.19434938 0.0943389 0.3315639 0.19111952
0.26333407 0.16445105 0.13285324 0.33247176 0.2783848 0.46121183 0.012736412 -0.33301383
0.1335648 -0.25950155 -0.05984758 0.23379989 0.16671282 0.36767095 0.14956953 -0.007841662
-0.24839163 -0.35855278 0.220423 0.1957011 0.18340857 -0.09247304 -0.10271524 -0.54563105
0.027443646 0.14654376 -0.05011761 -0.40367335 0.24720834 0.103991166 -0.15455715 0.2154732
-0.10834356 -0.10614898 -0.30956218 0.2355674 0.21082613 -0.3604623 0.25012338 0.03472332
-0.109315075 0.58180374 0.16836189 0.19519947 -0.51747906 0.2020269 -0.31063294 0.21079762
-0.025681548 -0.2627652 -0.26863852 -0.12234947 -0.4031295 -0.38647258 0.15167221 0.24177822
0.0015245731 0.29234523 0.32612118 0.039144628 0.31429163 -0.38880497 -0.1944496 0.15166393
0.2619243 0.2925232 -0.3600702 -0.33449516 -0.40101084 0.05544897 0.08465514 -0.04609298
-0.06689618 -0.25136945 -0.32911113 -0.24092266 0.1585227 0.34843734 0.13371572 -0.05259224
0.2303112 0.23811199 0.1329245 -0.17591788 0.25640622 0.16258639 0.0042196936 0.10164411
0.3567214 0.06254602 0.007017683 0.057377286 0.32837108 -0.42304116 -0.0817659 -0.23251781
0.015162253 0.28519726 -0.40977392 0.27639204 0.2152347 0.25492334 0.09703699 0.06181067
0.35962737 0.31358176 -0.2496533 0.13793194 -0.07652971 0.23492785 -0.3041403 -0.367291
0.31836882 0.24333358 0.1776661 -0.08408478 0.106437005 0.03821629 -0.20819166 -0.12933582
0.22757164 0.07903031 -0.39600155 -0.097536094 -0.06821063 0.18599524 0.021144763 -0.41179892
-0.2318739 0.24637368 -0.238129 -0.14966881 -0.0052097724 -0.267967 0.1394842 0.05382855
-0.10990557 0.18021205 0.24734578 0.07917331 0.08019551 -0.30159172 -0.06962355 0.14913408
0.23605709 0.1748307 -0.40018138 0.14791663 0.06093584 0.08572794 0.17537689 0.14260434
-0.051984545 0.26673266 -0.12543923 -0.0451412 -0.10171979 0.24967667 0.16972722 0.14802845
0.18586396 0.13920492 0.13646838 -0.19969805 -0.013832362 0.16441013 -0.31314513 -0.1474343
-0.15573722 -0.57907563 -0.5260533 -0.18732747 0.40472993 0.06599979 0.2855598 0.19590561
0.11883457 0.29585087 -0.080991335 -0.12357833 0.13117656 0.24242377 -0.26845333 -0.033476494
0.11244231 0.030627187 -0.17655587 -0.05217999 -0.20256652 0.038280673 0.1517445 0.17327166
-0.20542544 -0.18773621 0.2338109 0.06829668 0.28541008 -0.31517303 0.1777581 -0.019510046
0.0887484 0.1902429 0.3665687 0.2995702 -0.30210137 -0.0013978371 -0.100352615 0.19259775
0.078879334 -0.22457463 0.23719388 -0.093656525 0.0099301925 -0.17607744 -0.07783859 0.17451099
-0.2524332 0.17422968 -0.31860724 0.11882728 0.09848831 0.1895034 -0.03224658 0.3338977
-0.111430645 -0.1765603 0.16383608 -0.07172024 -0.0042698607 -0.17915452 -0.21784402 -0.13489202

action_head.bias f4 [6]
00000000: 3ccd 7a3d 4966 813d b5e6 02bc 00ab 38be
00000010: 34c9 4abb 8b66 a6bd
0.061230883 0.063183375 -0.007989575 -0.18033981 -0.003094268 -0.08125027
