alg/discrete_action/param/net_param/actor_net1-10-5000-1739863846.pkl (torch, 90304 bytes, 6 tensors)

fc1.weight f4 [128, 30]
00000000: 8d2f 2a3e 013e 963e 615b e9bd 4397 e3bb
00000010: 52e4 093d 48c0 96bd f3dc 71be 0315 283d
00000020: b385 5a3e 73cb c3be 88c9 d8bc b1c5 ffbc
00000030: fd38 893c f92c b93d 15ce af3b 6877 02bc
00000040: e91d 5f3e e0e7 f33c 517c 0d3d 676e c73b
00000050: f7da b33e 12d8 363d 3500 ff3c b297 1c3e
00000060: 7da4 023b 2878 a23e ff47 1c3e e2c6 3d3d
00000070: 9645 44bd d7f3 1c3e f842 b8be 3a5b e1bd
00000080: fb6e 4ebd 3995 aa3e 4198 153d dcf6 163d
00000090: fa73 94be 63f3 e9bc 4eed 7f3e 4b45 d43d
000000a0: a888 633e 9f86 09be c62e 19bd 0a90 55bd
000000b0: 4c71 623c addf 54bd 68a8 b2bd 16b8 33bd
000000c0: 9d20 493d acba 41bc b035 ee3d 8ccb 79bd
000000d0: 533e 7b3d a605 8b3c 1529 463e 6ff6 123d
000000e0: 4f09 043e 30bb 7b3d 3af1 a73b f31a ac3d
000000f0: 41d0 973e 065d db3d 6f50 313e 367a 1dbc
00000100: c1b5 b53d 4438 2cbe 70f5 d2be 36b2 d03e
00000110: fdfb 43be 9795 8ebd a992 81bd 9862 083d
00000120: 2b52 083d a259 21be dfbb 8cbd 10c9 303c
00000130: 3668 1fbe e29c 4bbb e96f 9abd 2c93 60bd
00000140: e765 be3c eaff a53d 8563 2dbb 861a 193d
00000150: ea6e 083d 8f0f 8b3e 7481 8a3b a6ee 56be
00000160: 90b0 adbc 9334 12be fdf2 683e 663e 3dbd
00000170: bd09 78be 84c3 4dbe 98a3 263d 15ed 87be
00000180: 32a1 153e f39e b73c 22e5 093c fed6 983c
00000190: 7d05 cdbd e3d7 b1be eefd c23d 5095 34be
000001a0: cad1 abbd 3f80 a23e c27c 92be 14ea 91ba
000001b0: aac4 643d 267c 453e 5713 c4bb 9b62 173e
000001c0: 2f33 1a3e e865 60bd 8fbb 86bd 16f1 ccbe
000001d0: 04bc c53d 7e89 1abb 04a9 1c3e 72a9 a83d
000001e0: 287d 023f 71d3 ad3d 60b7 26be 41c6 a8be
000001f0: df94 6e3c aa19 26bf d868 aa3d ec1f bdbd
00000200: cc56 3bbd 8cb5 ec3d 1429 b83d f85e c53d
00000210: e173 fa3c dde7 32bd 224b 103e c68e f73d
00000220: 8696 19bc 1079 3d3c 696d 82bd 6d07 1f3d
00000230: a417 413e 8606 8b3e f839 053e 512b cebb
00000240: f973 fd3d d084 bcbd 146d c93c 0057 15bd
00000250: 960b 94bc 065b 083e 80cd 04bf 17c7 793e
00000260: 3c81 70be 00cf 02be b4c6 90be bc9c 253d
00000270: 78cf 01bf c0a5 3dbe b98b ca3e b694 c7be
00000280: f005 873d 37a0 f33d 91f2 fb3d 1983 153e
00000290: b7a9 0c3e 1035 2b3e 047c 403e d1d8 483e
000002a0: d689 843e 48e7 fb3d b7a7 bdbc 50c9 9c3d
000002b0: 6700 b23c b14d 353c 85c6 aa3d bc55 1ebe
000002c0: d7a8 f23d 8a4e 743d 4c26 2d3d 6f0c c93d
000002d0: 3698 4fbf 1c08 8e3e 5cd5 6fbe 5f47 b1be
000002e0: c877 c13d 127d b03b ae3d 43be 60f6 653e
000002f0: 5c69 333e 9629 833d fe75 343b de5a 9e3e
00000300: d405 1f3d f227 d03c f602 cf3d 7508 fc3d
00000310: e5f0 ba3c d4a8 f43c b19d 8dbb 0b4e 6abb
00000320: 0545 5d3d 14a1 0bbd d9c4 283e 0882 883d
00000330: f783 f2bc 1f7f b6bd dac6 ae3d c059 80bd
00000340: 6075 ecbd 5c61 c93b ac65 fdbc 7c7c 943e
00000350: 59dd 6c3d 1d84 e33d 168b d0bd 66d9 a83e
00000360: 83de 773e ab94 c0bd af89 6abd 5f50 023e
00000370: faae 953d 7051 383d 41d3 b63d e764 963d
00000380: 441c d7bd 56e7 2cbe c180 ba3d d83f d8bd
00000390: 1913 253c 0223 923d 9f8c e5be affb 9cbe
000003a0: 70a1 b93d 4739 133e 3c5d 0f3e 4f46 083d
000003b0: b3af 253e 1610 433e fb41 193e d65b 873d
000003c0: 71ba 8cbe c140 793e 3df3 b6be 6304 0abd
000003d0: de74 14bf fade 513e 89a7 863e d845 b0be
000003e0: f2be 5e3e eba0 fdbd b19b c63d 1092 29be
000003f0: ec88 bc3c 75ca 703d 02ec 47bd 013b 3c3e
0.16619702 0.2934418 -0.11394382 -0.006945522 0.03366501 -0.073608935 -0.23619442 0.041035663
0.21340065 -0.38241157 -0.026463285 -0.031222196 0.016750807 0.09041781 0.005365143 -0.007963039
0.21788754 0.029773653 0.034542385 0.006086159 0.35127994 0.044639654 0.031128028 0.15292242
0.0019934468 0.31732297 0.1526184 0.046332248 -0.047917925 0.15327393 -0.35988593 -0.11003728
-0.050398808 0.33316973 0.036522154 0.036856517 -0.28994733 -0.028558439 0.24992868 0.10364779
0.22220099 -0.1343026 -0.037398122 -0.05213932 0.013820957 -0.051971126 -0.08723527 -0.04387673
0.049103368 -0.011824291 0.11631334 -0.060985133 0.061338734 0.016970467 0.19351609 0.03587955
0.12894176 0.061457813 0.005125192 0.08403578 0.29651073 0.10711102 0.17315839 -0.009611657
0.088725574 -0.16818339 -0.4120288 0.40760964 -0.19139095 -0.06962126 -0.06326801 0.03329715
0.033281486 -0.15756848 -0.06871771 0.010790125 -0.15567097 -0.0031068851 -0.075408764 -0.054827854
0.02324195 0.08105452 -0.0026457023 0.03737881 0.0333089 0.27160308 0.004226858 -0.20989475
-0.021202356 -0.14277868 0.22748943 -0.046202086 -0.24222465 -0.20094115 0.04068336 -0.26548067
0.14612272 0.02241466 0.008416446 0.018657204 -0.100108124 -0.3473502 0.095210895 -0.17635083
-0.083896235 0.3173847 -0.28610808 -0.0011132383 0.055851616 0.1928564 -0.005983751 0.14783709
0.15058587 -0.054784685 -0.06578743 -0.40027684 0.09655002 -0.0023580487 0.1529885 0.08235444
0.50972223 0.08487595 -0.1628089 -0.32963756 0.014561861 -0.6488291 0.083207786 -0.09234604
-0.045737073 0.11558065 0.0899221 0.096372545 0.030572833 -0.043678153 0.14091161 0.12087779
-0.0093742665 0.011564508 -0.063685246 0.03882544 0.18856674 0.27153414 0.13010395 -0.006291785
0.12375636 -0.092050195 0.024588145 -0.036459923 -0.01807193 0.13315973 -0.5187607 0.24392353
-0.23486799 -0.12774277 -0.28276598 0.040432677 -0.507072 -0.1852026 0.39559725 -0.38980645
0.06592929 0.11895793 0.12302125 0.14600791 0.13736616 0.1671946 0.18797308 0.19613959
0.2588641 0.12299973 -0.023151262 0.07655585 0.021728707 0.011065886 0.08338646 -0.15462393
0.1184861 0.059645213 0.04227285 0.09816825 -0.8109163 0.27740562 -0.23421234 -0.34624764
0.094466746 0.0053860033 -0.19066498 0.22457266 0.1752066 0.06404416 0.002753615 0.309287
0.038823918 0.025409672 0.10107987 0.123063006 0.022819946 0.02986566 -0.004321777 -0.0035752084
0.0540209 -0.034089163 0.16481341 0.066654265 -0.029603941 -0.08910965 0.08534022 -0.062671185
-0.11545825 0.0061456393 -0.03093227 0.29001224 0.05782828 0.11109183 -0.101827785 0.32978362
0.24205975 -0.09403356 -0.05726021 0.12725972 0.07308765 0.04499954 0.08927012 0.07343464
-0.10503438 -0.16885123 0.09106589 -0.10559052 0.010075354 0.071355835 -0.44833848 -0.3066077
0.09063995 0.14377318 0.1400041 0.033270177 0.16180305 0.19049105 0.14966576 0.06609313
-0.27485994 0.24341108 -0.3573245 -0.03369559 -0.57990825 0.20495215 0.26299694 -0.34428287
0.21752527 -0.12384208 0.096976645 -0.16559625 0.023014508 0.058786828 -0.04880906 0.18381883

fc1.bias f4 [128]
00000000: af7e 71be ca9d b93c b64c cabd 58c6 b5bd
00000010: 688d 12be 339b 1bbe fb27 80bd 70b2 18bd
00000020: 2907 893d e1cc 00bd bbf1 dfbd a91b 49be
00000030: 9b0d ebbb 9a3e 8bbe 38e5 5abe e086 6e3d
00000040: 4adb 51be b70f 1f3b 896b b3bc 6849 5cbe
00000050: aad2 fc3d e517 bebd 0cd9 3f3e 8c08 bdbd
00000060: c29c 90bd b1ef 8bbe 0bc6 223c f84d 3cbd
00000070: e1b6 0fbe 4e28 523d f985 cbbc 33ba e93c
00000080: 07b0 c3bd 9cd6 1f3e 1d9e ccbc 35e3 e0bd
00000090: 2734 a0bd 9dfc 85bd d9c8 35be 25a3 133e
000000a0: f2a0 313e d0ec 863d 99af 413e 2f18 bb3c
000000b0: 6cc8 a13c e395 303d d9ac fb3d acd9 9ebd
000000c0: badb 33be 31ad 04bc 69fe 373e e02a 2e3b
000000d0: 3771 9abd ae00 31be acbb 7cbe f8d1 043e
000000e0: eaec 55bc 0bd2 a53d 9a4c c7bc 9176 0f3e
000000f0: ec31 4ebd 9421 a93d e878 cabc 4fbe 90bb
00000100: 64a6 753e a75e 99bd 1acb e1bd b54d b4bd
00000110: 68e0 26be b7e8 003e 8850 ba3d 75a5 c13e
00000120: 0534 81be f4ca d0bd 6b77 a13d 685f 063e
00000130: b40c e4bd 7291 72be 6236 0f3e fc70 06be
00000140: c39b 873e ca64 5bbe 0293 303d 6e14 22bd
00000150: 952b 0cbe 6183 56be 69cb e63d 55bf 6fbd
00000160: 8ea6 80be 3e2a 9b3e 57f8 cc3d cfc3 d43c
00000170: 351d e9bd ba20 f13c bf82 09bd 2ec5 093d
00000180: 4e78 163e e7be 723b c4e5 d8bd 8fb0 79bd
00000190: 4c19 23bc 48ec 44be 52a2 15bd c7b6 a0bc
000001a0: 9faa 16be 87f6 85bd 0b2f 563d 1fff 85bd
000001b0: 2e37 cb3d e5c5 ba3d 6bd8 9fbd 90e7 5f3e
000001c0: db77 aabd af03 8cbe 3e21 8dbc f499 fd3c
000001d0: 5f28 603d d893 2f3e b350 edbd c239 35be
000001e0: f6b3 4f3e cc9c 773d 5316 893e f03a fb3d
000001f0: 9093 e93c f2dd 8b3e 465d 2a3e 97a7 5a3b
-0.23583482 0.022658248 -0.09877913 -0.08875722 -0.14311755 -0.15195923 -0.06257626 -0.037279546
0.06690819 -0.031445388 -0.10934778 -0.19639458 -0.0071732528 -0.271962 -0.21376503 0.058234096
-0.20493808 0.0024270841 -0.021901863 -0.21512377 0.123448685 -0.09281901 0.1873514 -0.09230146
-0.07061149 -0.27331308 0.009934912 -0.045972794 -0.14034607 0.05130797 -0.024844157 0.02853117
-0.09555059 0.1560921 -0.024977738 -0.10980836 -0.07822447 -0.06542323 -0.17752399 0.14417703
0.17346552 0.06588137 0.18914641 0.02283868 0.019748889 0.043111693 0.122888274 -0.07756361
-0.17564288 -0.008097933 0.17968144 0.0026575848 -0.07541125 -0.17285416 -0.24680966 0.12970722
-0.013056973 0.08096703 -0.024328519 0.14010073 -0.050340578 0.08258358 -0.024715856 -0.004417218
0.23989254 -0.074887566 -0.11025067 -0.08803884 -0.16296542 0.12588774 0.09097391 0.37821546
-0.25235 -0.1019496 0.07884105 0.13122332 -0.111352354 -0.23688295 0.13985589 -0.13129038
0.26486024 -0.21425167 0.043108948 -0.039570265 -0.136885 -0.20948555 0.11269266 -0.058532078
-0.2512707 0.30305666 0.100083046 0.025972275 -0.11382524 0.02943455 -0.033571955 0.03363531
0.1469433 0.0037040056 -0.10590699 -0.060959395 -0.009954762 -0.19230759 -0.036531754 -0.019618405
-0.14713524 -0.06541162 0.052290957 -0.06542801 0.09922634 0.09119777 -0.0780495 0.21865678
-0.08323642 -0.2734656 -0.017227765 0.0309572 0.054726 0.17146242 -0.11587658 -0.17697814
0.20283493 0.060452268 0.26774845 0.12267101 0.028512746 0.27317768 0.16637143 0.0033364051

fc2.weight f4 [128, 128]
00000000: a29e b5be 1ce7 1cbe c03d 7cbd 3c28 3a3e
00000010: 031a 953d b459 89be a31e 363d decc cfbd
00000020: ee8e 193b 27f1 c63b 6679 81bd 81f2 17be
00000030: ae69 09bd f6fc a2be 3533 6cbe db23 89bc
00000040: 5864 c5bd eaf3 9a3d e1b6 dfbc d1d4 d8bd
00000050: cbdf 4bbe 24c0 39be 9c1f 173d d4a7 c73d
00000060: 0754 de3d 950c 5ebe 0383 e7bd d331 9d3d
00000070: 4082 cdbe 8800 203d f3e4 9a3e 3c8f dd3c
00000080: 616b 65bd 4e8b 03be 5c99 903d e795 40bd
00000090: e94e b3bd ddad b7bb d295 f2bb c0b2 3b3d
000000a0: 4fdc 343e 35c6 91be 8844 0d3e 43ad 2d3d
000000b0: 15d5 0a3d 2cb8 c43d 23a1 90be 3502 433e
000000c0: 86ed b5be 818b db3c 4fe6 5bbd 9db3 7a3e
000000d0: c735 12be 67cc 923d 9538 afbe c923 36bd
000000e0: eb11 60bd e1f4 a8ba 924f 5fbe 3b1e fe3c
000000f0: 2421 47bb 7466 b53d 4716 9a3c 7031 88bd
00000100: c80d 213c 895c 5dbd c77c 15be 3445 e1bc
00000110: 70b3 15be 755d 103e 04d2 98be 049f ccbc
00000120: 3199 0ebe a50f dfbe 2e2b ee3c 61c9 12be
00000130: 523b f0be 2fee d03d ba49 9bbd 4fcd f8bd
00000140: 9aea de3c 3ec0 0f3d 6336 153e 0cb6 ccbd
00000150: 1cfa fcbd a60f 09bc 9cb3 c7bd 7160 1c3d
00000160: c59b 7fbe 4dd6 c53d 71f6 8fbc 0ba1 b2be
00000170: 55b3 533e 4b4a ab3d 1b12 1dbe 0487 073d
00000180: 92a3 603a 722d 2cbd cb40 eebd 95fb bb3d
00000190: 1350 9bbd 60ac 023c e9f8 6b3e 90b6 3bbe
000001a0: 8b87 bd3d 66f3 b0bc 698b 24bd 7ddd e2bd
000001b0: c94c 5f3e 5743 0d3e 5342 de3d 60f6 db3d
000001c0: 0978 2cbe b4e0 61be 6854 4bbe 614f e8bc
000001d0: c9a0 543e b303 ac3d 99fe 08bd 2ae4 483e
000001e0: 2f28 0e3e 810e 88be 754e 483e 6720 453d
000001f0: a956 da3d 7e4d 273e af81 c83e 0a49 e83d
00000200: 72c4 3ebc d8bd 2bbe 35c6 0a3e d14c c53d
00000210: 0059 463d e723 e63e 8e5a b23e 483a 8abe
00000220: 4b17 c63d 1ada 82be fc27 b5bc 38a0 82be
00000230: e59b 063e 017f 21be 2a26 303e 1a83 2cbe
00000240: 107c 8b3d b138 653e 340e 123e 5001 91bd
00000250: a2c8 ee3d 803a 18be 0bb2 d73d 16d3 083e
00000260: d47c 82be 9de0 7e3d d0b3 9f3d 877f 123e
00000270: 2100 91bd a8e1 d53d 0b22 ef3d bdac 703d
00000280: 339c 323e a118 b3be 0386 263e 46ea 743d
00000290: e501 143e cb54 c03d 168b 563e 6042 823d
000002a0: 6221 d03d 46e6 94be 05a0 7f3e 60f2 ccbd
000002b0: 706c 283e 8c7b aabd 1085 9a3e f3b4 94be
000002c0: 9560 46bd bcd1 483d ea6a 9bbe 894f ecbd
000002d0: 4b1e 5f3c b809 283e a721 88bd 7a91 08be
000002e0: 5d1d 173e dc66 6b3e 09ad 81bd 467a b8be
000002f0: af9c 053e 76da 86bc bc18 36be 8963 13bd
00000300: 1f38 2fbe 1648 043e f9ac df3c 8fd7 30be
00000310: eca7 55be a631 ee3c da85 d33d f0f8 d13d
00000320: 7412 99be fb2d 6cbe b974 e83e cd71 b03e
00000330: 283e 893c 7cb5 4cbe 489b 31be 2c56 e9bb
00000340: 57a6 0abe ed10 1abe 3c70 aa3d f75e 253e
00000350: e946 e13e e439 703e e405 1dbe e4e6 87bc
00000360: 587b 99be d498 ac3d b83c dd3e 6b3e 303e
00000370: 9abf ebbd 60a3 1f3e 9352 813c 4408 24bd
00000380: b6d6 9b3e cffb 663d 2040 393d 7cc0 51be
00000390: e21a ad3d c294 c83c fbac cabc c899 193e
000003a0: a46c a1be ef62 b13e c5ad 593e e916 173e
000003b0: 3fe0 fd3d c036 b53d b782 163e 2529 acbd
000003c0: 05c2 c03e cb31 863c 5132 0cbd e178 95be
000003d0: 7e5a 6ebd 22ed f5bd 38e8 4dbe 06b6 a73d
000003e0: 6697 8b3d 798b 163d 5e40 ef3d 2c82 f1bd
000003f0: 09c1 a43e 94a3 e13d 3d57 663e 4c11 6bbe
-0.3547259 -0.15322536 -0.061582327 0.1817941 0.07280352 -0.2682625 0.04446281 -0.10146497
0.002343114 0.006071228 -0.06321983 -0.14838602 -0.03354805 -0.3183362 -0.23066409 -0.01674073
-0.0963828 0.07566054 -0.027308883 -0.105874665 -0.19909589 -0.18139702 0.03689538 0.097488075
0.10855871 -0.21684487 -0.113042854 0.07675519 -0.40138435 0.039063007 0.302528 0.027045839
-0.056010608 -0.1284611 0.07060501 -0.047017958 -0.08755285 -0.005605443 -0.007403114 0.045824766
0.17662166 -0.28471532 0.13795674 0.042401563 0.033894617 0.096054405 -0.28247938 0.1904381
-0.35532779 0.02679992 -0.053686436 0.2448258 -0.14278327 0.07167893 -0.34222856 -0.04446772
-0.054704588 -0.0012890362 -0.21807697 0.031020274 -0.0030384744 0.08857432 0.01880945 -0.066500545
0.009829946 -0.054043327 -0.1459838 -0.027498819 -0.14619231 0.14098151 -0.2984773 -0.024978168
-0.13925625 -0.43566623 0.029073324 -0.14334632 -0.46920258 0.1020168 -0.075824216 -0.121485345
0.027211476 0.035095446 0.14571528 -0.0999566 -0.12352392 -0.008365547 -0.09751055 0.03817791
-0.24961765 0.09660015 -0.017573567 -0.3488849 0.20673878 0.0836378 -0.15338938 0.033087745
0.0008569296 -0.042035528 -0.11633452 0.09178845 -0.07583632 0.007975668 0.2304417 -0.18331361
0.092543684 -0.021600436 -0.040172014 -0.11077402 0.21806635 0.1379522 0.10852494 0.10740352
-0.16842665 -0.22058374 -0.19856417 -0.028358163 0.2076446 0.08399143 -0.03344593 0.19618288
0.13882516 -0.26573566 0.19561179 0.048126604 0.1066106 0.16338155 0.3916144 0.11342056
-0.011643516 -0.16771638 0.13552172 0.09633792 0.04842472 0.44949266 0.34834713 -0.2699759
0.096724115 -0.25557023 -0.022113793 -0.25512862 0.13145407 -0.15771104 0.17202058 -0.16846886
0.068107724 0.22384907 0.1426323 -0.070803285 0.116593614 -0.14866066 0.10532006 0.13361773
-0.2548586 0.062225927 0.077979684 0.1430646 -0.07080103 0.10443431 0.11676415 0.058758486
0.17442398 -0.34979728 0.16262059 0.059793733 0.14453848 0.09391173 0.20951495 0.06360316
0.10162617 -0.29081935 0.24963386 -0.10007167 0.16447616 -0.08324346 0.30179644 -0.29044303
-0.04843195 0.049028143 -0.30355006 -0.115386076 0.013618062 0.16409957 -0.06647044 -0.13336745
0.14757295 0.22988456 -0.06331832 -0.36030787 0.13048051 -0.016461592 -0.17782873 -0.035983596
-0.17111252 0.12918124 0.02730416 -0.17269729 -0.20864838 0.029076409 0.103282645 0.10252559
-0.2989689 -0.23064415 0.45401552 0.34461823 0.016753271 -0.19991106 -0.17344391 -0.007120868
-0.13540016 -0.15045519 0.08322188 0.16149507 0.43999413 0.23459584 -0.15334278 -0.01658959
-0.29976916 0.08427587 0.43210387 0.1721131 -0.115111545 0.15589666 0.015786445 -0.040046945
0.3043725 0.056392487 0.04522717 -0.20483583 0.08452393 0.024484996 -0.024740687 0.15000069
-0.315282 0.34645793 0.21257694 0.14754833 0.12396287 0.08848333 0.14698301 -0.08406285
0.37648025 0.016381165 -0.034227673 -0.29193786 -0.05819177 -0.1200812 -0.20108116 0.08189015
0.06815986 0.036754105 0.11682199 -0.117924064 0.32178524 0.11017528 0.22494216 -0.22955817

fc2.bias f4 [128]
00000000: 3e0e 1e3e 0029 07bb ceb3 013c cd77 6abd
00000010: b84b 7bbd cbf3 853d 3f1f e03c 1ecd 113b
00000020: 7347 afbb 9b28 33bd abc3 ebbd 5fce 803d
00000030: ed9f 8bbd c673 12be 3cba 913d 6e33 7f3d
00000040: 0ae8 dc3b f58f 123c 52f1 9fbc 9963 1ebe
00000050: 77ac b23c 09c2 fcbd 93f8 02bd e418 5bbc
00000060: bce3 4ebd e15f 31bd de1e 973c cd28 14bd
00000070: bea2 13be eb65 a03d 2677 273e 3ed5 0abd
00000080: 9c30 dfbd 5f36 f0b9 2fa8 bf3d c857 e6bb
00000090: 5b01 69bc cfcc 2d3d c779 933d bc70 47bd
000000a0: 9c47 4cbe 0711 eebc f2a7 26be 3d25 7d3d
000000b0: 2bf3 2ebd 4260 a8bd aaf3 57bd f6a6 c9bd
000000c0: 0f57 babd d25b 8bbd f530 193d 0811 08be
000000d0: 920b 0dbe b2dd 483c 32fb 953d da22 e7bd
000000e0: 6435 ad3d 53e8 5e3d f07e b9bd 72c9 26be
000000f0: f761 e43c b6ee 44bd 334e 98bd f430 153c
00000100: 51e8 3abd b169 6abd 721b d1bc ea8e 40bd
00000110: 71e4 cdbb cc6d 77bd 2f92 e3bd 1fc8 1f3c
00000120: 0875 a6bc 2f82 463d 0ea5 5fbe 4b36 b73c
00000130: 068d 423d 6514 c13d 0adc 433c a244 34be
00000140: 7dc7 9a3d 5f35 c6bd 821f 783a dd05 9ebd
00000150: 2302 c4bd 4edb 26bd 47d8 b8bc 51a7 d83d
00000160: ecd5 abbd 88b4 38bd eb52 0cbe dda1 e1bd
00000170: 13de 91bd e835 b43c f287 8d3d 54db b4bd
00000180: 2b17 0abe 4855 cfbc b9ee 273c c20f 513c
00000190: 8739 c33d d4e2 febd 3c02 90bd 9e02 72be
000001a0: ee06 293e 33d3 03be 20cf 3cbd 804a 49bd
000001b0: b78b 87bd 545c 853d b6d3 4dbe 0098 6639
000001c0: ae54 e0bd 1a69 7dbe 8776 dbbd 09a8 15be
000001d0: 7184 743d 1650 8e3d 75f4 cd3d 1c45 64bc
000001e0: 15e3 093c 2811 bebd 2101 2c3d aa67 a1bd
000001f0: c795 d0bc 03c6 adbd b685 03bb 4afe e6bd
0.1543512 -0.0020623803 0.007916404 -0.057243157 -0.061351508 0.065406404 0.02735865 0.0022247504
-0.0053490936 -0.043739896 -0.1151193 0.06289362 -0.06817613 -0.14301977 0.071155995 0.062304907
0.0067415284 0.008945455 -0.01952425 -0.15467681 0.021810753 -0.12341697 -0.03197534 -0.013372634
-0.050510153 -0.043304328 0.018447336 -0.036171723 -0.1441755 0.07831939 0.16354045 -0.03389477
-0.108979434 -0.00045816877 0.0935825 -0.0070295073 -0.014221515 0.04243165 0.072009616 -0.048691496
-0.19949192 -0.029060854 -0.16275004 0.06180309 -0.04271237 -0.08221485 -0.05272261 -0.098462984
-0.09098636 -0.06804623 0.037400205 -0.13287747 -0.13773945 0.0122598875 0.07323302 -0.11285944
0.08457449 0.05442078 -0.090574145 -0.16287783 0.027878745 -0.048079215 -0.0743679 0.00910591
-0.04563171 -0.0572297 -0.025525782 -0.047011293 -0.006283336 -0.060407445 -0.11111867 0.009752302
-0.020319477 0.048463996 -0.21840307 0.022364756 0.04749777 0.09427718 0.011954317 -0.17604306
0.075575806 -0.096781485 0.0009465144 -0.07715962 -0.0957072 -0.04073649 -0.022564067 0.10578788
-0.08390412 -0.045094043 -0.13703506 -0.11017201 -0.071224354 0.02199836 0.06910695 -0.08830896
-0.134854 -0.02530922 0.010249787 0.012760105 0.09532457 -0.12445608 -0.07031676 -0.23633811
0.1650655 -0.12873535 -0.046095967 -0.049143314 -0.06618445 0.06511751 -0.20100293 0.00021991134
-0.10953651 -0.24747124 -0.10715967 -0.14614882 0.05969662 0.06948869 0.10056392 -0.013932493
0.008415957 -0.09280616 0.041993264 -0.078811005 -0.025462044 -0.08485033 -0.0020068712 -0.112789705

action_head.weight f4 [11, 128]
00000000: 61c3 b4be de72 b23e a42c c9be e901 94be
00000010: 0e54 ee3e 1429 4c3d f7a3 cdbe 406c 93bc
00000020: c0e0 9cbe e48e 113f 3919 0f3e c2e4 fe3e
00000030: 8d39 0c3f 96c9 303f 5e3f ac3e feee b7bc
00000040: 3024 853e bc0d 713d e760 a5bd c2bf 2f3f
00000050: 8b74 04bf 521e 223e 503c 8bbe 0c4c 95be
00000060: 284a 663e 2745 083e c537 13bf ea96 593d
00000070: 9089 19bf 1141 dabd 6ef3 00bc 447d dc3e
00000080: 731e 853d 0653 e43e 1403 343e 742f 28bd
00000090: 71d4 813d 0c69 cf3e a681 d2bc f688 543f
000000a0: 6567 12bf 509c 023f 732a 1abf 77be fcbe
000000b0: 8c27 0f3e 7109 c43e 36e7 933d b7f6 133f
000000c0: a122 703e f8af 0c3e bfe4 0ebe fad7 f93d
000000d0: b19d 423e 9c7e 3a3f 27e4 8f3e 717c 01bb
000000e0: f6f8 67bd 24b6 78be 9ddf 183e caf8 4abf
000000f0: 749b 68bf bc0c 213f ab5a 9b3d 20d0 1bbf
00000100: d7fe d73d 7d5f f2be 4d50 c6be 1985 543e
00000110: 3156 453d 6e8f debc b67d 7a3d 877a cb3e
00000120: 3127 71be 27c3 c7be 743c e03e d13e 8b3e
00000130: 5b56 373f 34d3 fd3d 3f77 a6be 5565 0ebf
00000140: 7262 a03e db34 273d cf31 0dbf 6a57 d13e
00000150: b035 073f 4193 b33e 8ddc f53e fcd6 aebe
00000160: 78a1 a6be cef3 243e 838e a4be ddff 38be
00000170: f0b0 893e 3efd f13d ed3f ccbe b956 febd
00000180: ad46 91be 276a e6bd 4cfe 90be 836e 7ebe
00000190: 335e 063e 7c24 683f 3c7a e93e 335f a0bd
000001a0: 0ff5 95bd 4bb3 1dbf f022 74bc cd36 2c3e
000001b0: 8ff9 b1be 6dac e03e 0405 743d 89df 83bb
000001c0: 2bf6 2cbf 5ab1 27bf 5c15 43bf c0c3 2c3e
000001d0: 9a89 5b3e 02ab d33d ea75 e63e bbf0 6e3e
000001e0: a944 b03d 6d04 643d 6cc3 33bf 9f35 61be
000001f0: e3b5 4c3f b6ed f7be 3f0a 1ebf 9654 7a3f
00000200: 7bff b13d b568 8c3d 272e 5a3e e168 5f3e
00000210: 0e71 b1be a9b2 47bb 1f2c f23c 1f6e cd3d
00000220: 8b77 763e 19de 1cbd 018c 27bf f4de 4fbd
00000230: cfc8 fbbe 5036 d6be 0322 b7bb d8e3 f8bd
00000240: eedc cc3e 5f07 383d 5013 023e 4bff f2be
00000250: a092 cb3e 9e71 7b3e 842c 6ebe 7cd3 91bc
00000260: e9e7 85be 1867 edbe 6050 fa3e 8cf5 85be
00000270: 2876 07be fec0 08be 03a8 5e3e 4a83 0cbd
00000280: c947 603e d537 3dbd 763e efbe 5bc1 c53e
00000290: 9f86 203e dd63 7d3e 21fe 623b 35b8 c5be
000002a0: d892 62bc 39b5 30be 4b1e 923e be34 9f3e
000002b0: f5a5 bb3e 3fb8 d63e bc3e ab3e a7db b4bf
000002c0: e762 31bf 9ad0 b2bb c707 3dbe 496a 8d3d
000002d0: 62a9 fa3d 782c 4bbf 783e 6fbe 013d b03d
000002e0: cf7a b3be 952d d33d 8418 87bd 69f0 233e
000002f0: d4b3 673f e50c 9cbe 0024 09be 62b5 8b3e
00000300: bc72 dc3c b8c8 d53e cea4 203f 0d9b 043d
00000310: 70f4 cfbd b090 36bf 2024 79be 545b 9e3e
00000320: 8574 993e 44d4 2fbd f082 4dbd 9652 c43e
00000330: d794 01bf ba2b 08bf 3397 84bc d61c 4d3e
00000340: 1fdb d73d f4ac 7c3e 0b86 073f f54f 3e3e
00000350: 5491 4dbf 9405 0f3e 820b 363e 5f73 393d
00000360: 25db 823e d50c bf3d 0104 42be 09c0 873e
00000370: 220f 813e 7be7 293e e833 77bd c8b4 82bd
00000380: d7b8 8b3e d8c9 4c3e 7c00 8d3e 68db ea3c
00000390: ba83 963d f8c3 57bf 5143 07bd bb13 343e
000003a0: 20f4 8fbe ab55 c23e 8b59 61bf 328c 633e
000003b0: 45d0 02be f4d1 a83e 0e68 583e 2c4f b33e
000003c0: fb92 7b3e 6710 7a3e 4b15 e23e 09bb a6bd
000003d0: e8af 3d3e 636b 46bd 8e0b 993e 51f1 033f
000003e0: d25c a43d 996f 083e a2d2 d83d e361 8f3e
000003f0: 5b8e 5bbe b5d2 7c3e 74ef 1a3f 8a55 3cbf
-0.35305312 0.34853262 -0.3929187 -0.28907707 0.46548504 0.049843863 -0.40164158 -0.017995954
-0.3064022 0.5685866 0.13974465 0.49783903 0.54775316 0.69057596 0.33642095 -0.022452828
0.2600417 0.05885099 -0.08075123 0.68651974 -0.5174033 0.15831879 -0.27194452 -0.29159582
0.22489226 0.1330763 -0.5750697 0.05312244 -0.5997553 -0.10656942 -0.007870538 0.4306432
0.06499948 0.44594592 0.17579299 -0.04106088 0.06339348 0.40509832 -0.025696587 0.83021486
-0.5718902 0.51019764 -0.6022102 -0.49364063 0.1397993 0.38288453 0.07221834 0.5779833
0.2345071 0.13739002 -0.13954447 0.121993974 0.19005467 0.7284944 0.28103754 -0.001975801
-0.056633912 -0.24288231 0.14929052 -0.7928587 -0.908622 0.62910056 0.07585653 -0.6086445
0.10546654 -0.47338477 -0.3873314 0.20753898 0.0481779 -0.027168002 0.061155044 0.39741918
-0.23550107 -0.39016077 0.43796122 0.27196363 0.71616143 0.123937994 -0.32512853 -0.5562337
0.31325108 0.04082189 -0.55154127 0.40887004 0.52816296 0.35073283 0.4801983 -0.34148395
-0.32545066 0.16108629 -0.32139978 -0.18066354 0.26892805 0.1181588 -0.39892522 -0.12418885
-0.28374234 -0.11250716 -0.28319013 -0.24846844 0.13121872 0.9068067 0.4560107 -0.07830658
-0.07322132 -0.61601704 -0.014900908 0.1681778 -0.3476071 0.4388155 0.059575096 -0.00402445
-0.6756312 -0.6550499 -0.76204467 0.16871548 0.2143921 0.103353515 0.45011836 0.23334019
0.08606846 0.055668283 -0.70220065 -0.21993111 0.7996504 -0.48423547 -0.61734384 0.9778532
0.08691307 0.06855909 0.21306668 0.21817352 -0.34656566 -0.003047148 0.029562054 0.100307696
0.2406904 -0.038297746 -0.65448004 -0.050749734 -0.49176642 -0.41838312 -0.0055887713 -0.12152833
0.40012306 0.044928905 0.1270268 -0.47460398 0.39760303 0.2455506 -0.23259169 -0.017801039
-0.26153496 -0.46367717 0.48889446 -0.261639 -0.13228667 -0.1335487 0.21743779 -0.034304895
0.21902384 -0.046195824 -0.4672734 0.3862408 0.15676354 0.24745126 0.0034636336 -0.386171
-0.013828956 -0.17256631 0.28538737 0.31094927 0.36650053 0.41937444 0.334463 -1.4129533
-0.6929154 -0.005456996 -0.18459998 0.06905038 0.122393385 -0.7936473 -0.23363674 0.086053856
-0.35054633 0.103114285 -0.06596473 0.16009678 0.9050877 -0.30478588 -0.13392639 0.27286822
0.026910178 0.417547 0.6275147 0.03237443 -0.10154045 -0.71314526 -0.24330187 0.30929053
0.2997171 -0.04292704 -0.0501737 0.38344258 -0.50617737 -0.5319172 -0.016185379 0.20030531
0.10539841 0.24675351 0.5293891 0.18585189 -0.8029988 0.13966972 0.17777827 0.045276042
0.2555782 0.093286194 -0.1894684 0.265137 0.25206858 0.16592209 -0.060352236 -0.063821375
0.2728946 0.19998872 0.27539432 0.028669074 0.073493436 -0.842834 -0.033023182 0.17585652
-0.2811594 0.37955984 -0.88027257 0.22221449 -0.12774761 0.32972682 0.21133444 0.3502134
0.24567787 0.2442032 0.4415687 -0.08141143 0.18524134 -0.048442256 0.29891628 0.51540095
0.080255166 0.13323821 0.1058705 0.2800437 -0.21441023 0.24689753 0.60521626 -0.7356802

action_head.bias f4 [11]
00000000: 9cf2 b73d d06d 7bbb 5f07 0d3e 7554 143e
00000010: c5a4 533d 3614 94be f78e 6c3d 2040 fcbb
00000020: b9c7 2d3d 7b5b c53c 89e5 763c
0.08981821 -0.0038365014 0.13772343 0.14485343 0.05167081 -0.2892167 0.05775353 -0.007698074
0.0424268 0.024091473 0.015069374
