alg/discrete_action/param/net_param/actor_net1739785711.pkl (torch, 80064 bytes, 6 tensors)

fc1.weight f4 [128, 15]
000000 d1 fb 1f bc f5 af 9d 3e b2 3d f8 3c 57 66 cb 3d
       -0.009764628 0.30798307 0.030302856 0.09931629
000010 21 f7 4c bd a0 4f 1e be c0 9d 65 3e e4 75 4c be
       -0.050040368 -0.15460062 0.22423458 -0.19966847
000020 fa b5 34 3e 6d 7d 02 3e 25 2c 74 be 58 19 2b be
       0.17647544 0.12743159 -0.23844965 -0.16708887
000030 a6 68 66 bc b1 39 62 3d c8 3b 49 bd 37 1e f0 bd
       -0.014063036 0.0552308 -0.049129277 -0.11724513
000040 4a eb a0 3e 17 b8 cd bc d9 7e 40 3d 68 40 fe 3d
       0.3142951 -0.025112195 0.04699597 0.12414628
000050 08 50 40 3d ec c5 de bd 6b c2 45 be 26 07 0e 3e
       0.046951324 -0.10877594 -0.19312446 0.13869914
000060 eb 6a 44 be c1 a4 91 bd 1b c3 0e 3e c5 e6 e9 bd
       -0.19181411 -0.071115024 0.13941614 -0.11420969
000070 f4 4b c1 bd 28 cd fe 3c 35 2f f7 3d 57 38 88 be
       -0.09438315 0.031103685 0.12069551 -0.26605484
000080 8f 5f 29 3e fa 23 be bd fe 09 44 3d 96 32 43 3e
       0.16540359 -0.09284206 0.04786109 0.19062266
000090 2b 57 15 3e 6e 8d af bd ca 1a 4e be a0 f9 3b be
       0.14584033 -0.085718974 -0.20127407 -0.18356943
0000a0 d2 5e 53 3d 0a 5d 92 3d 65 9a ab 3d 65 92 de 3d
       0.0516041 0.07146652 0.08379058 0.10867766
0000b0 b3 c3 41 3e fe e7 9b 3d bf 65 7d 3e 5b 15 19 3e
       0.1892231 0.076126084 0.24745844 0.14949553
0000c0 5f 69 a8 3d 23 3f 3b 3e 9d 9c c8 3b 0f d0 36 3d
       0.08223223 0.18285803 0.0061221854 0.044632014
0000d0 28 4b 4c 3d b2 ec 97 3d b9 d3 22 3d 54 2a 92 3d
       0.049876362 0.07418193 0.039752696 0.0713698
0000e0 8d 62 5d 3e 4b 9a a0 3b b5 16 00 3e e4 38 22 bd
       0.21619625 0.0049012057 0.12508662 -0.039605036
0000f0 a8 27 e5 bd d6 c1 90 3d 62 51 98 bd b4 b2 e6 3d
       -0.111892045 0.07068221 -0.074373975 0.11264554
000100 2f a2 1e be 43 3a fa bd c6 c4 0e be 8c 77 13 3e
       -0.15491556 -0.12218144 -0.1394225 0.14401072
000110 c4 32 ab 3d f8 dc 3f be e7 89 1f 3d 80 5b c4 3c
       0.08359292 -0.18736637 0.038949873 0.023969412
000120 5c 87 71 3e b0 8d 77 3d 5e 7a 5a 3e ef 2a 25 be
       0.23586792 0.060437858 0.21335742 -0.16129659
000130 ce fc 39 be f6 3f d8 3d ac 59 cd 3d 64 ce 4d be
       -0.18162844 0.105590746 0.10026869 -0.20098263
000140 66 00 19 3e 47 9e 33 be f8 68 ec 3d fc aa b2 bc
       0.14941558 -0.17540847 0.11543459 -0.021810047
000150 d3 52 1a 3e 85 2a 06 3e 15 5c df bc 95 3d ce 3d
       0.15070657 0.13102157 -0.027265588 0.100703396
000160 a8 fc 42 bd e1 66 27 3e 79 d7 dc 3d e3 73 37 3e
       -0.047604233 0.16347839 0.10783286 0.17915301
000170 8e 05 92 bd 46 9c b8 3c 7c eb cc bd d5 37 6a bd
       -0.07129966 0.022535454 -0.100058526 -0.05718215
000180 e7 7d 2c 3c 35 63 c4 3d 36 0f 46 3e be 18 0d be
       0.010528064 0.09589235 0.1934174 -0.1377897
000190 fa 85 56 bd 8a 7b d3 3b c1 d1 05 3e 36 90 ae 3d
       -0.052373864 0.006453936 0.13068296 0.085236
0001a0 bf 76 19 3d e4 36 3c 3e ee 1d 87 be dd f8 4f 3e
       0.03746676 0.18380314 -0.26390022 0.20309778
0001b0 45 40 3f be bd 75 48 3c 06 14 5e 3e 40 bd 3d 3e
       -0.1867686 0.012235102 0.21687326 0.18529224
0001c0 ef d4 dd bd 26 89 2d 3d 9f 93 2d 3e 69 e8 e9 3d
       -0.108316295 0.042367123 0.16950844 0.11421282
0001d0 18 58 34 be 55 97 c7 bd f1 85 d4 ba 2c 2b 83 3c
       -0.1761173 -0.09745661 -0.0016214234 0.016011797
0001e0 10 ed 53 3d 35 40 1e 3e 77 ca f0 bd 09 66 67 bd
       0.051739752 0.1545418 -0.11757367 -0.056493793
0001f0 ea d1 ca bd 9b e9 f5 bd 99 78 e5 bc 7f 9f 22 be
       -0.09903319 -0.12007447 -0.028011607 -0.15881155
000200 d3 97 6e 3e da cf 54 3d 93 f9 00 be 3e 70 d1 bd
       0.23300104 0.051956035 -0.12595205 -0.102264866
000210 d9 58 18 3e 5c ca bf bd 4b d6 54 3d 93 e9 42 bd
       0.14877643 -0.09364769 0.05196218 -0.047586035
000220 5d b9 57 3e 21 fb 98 3d 66 ca 20 be 84 4c a1 bd
       0.21066804 0.07469774 -0.15702209 -0.07875922
000230 c8 c1 15 3b 3e 72 2d 3a d7 0d cf 3d ac f4 d8 bd
       0.0022851098 0.00066164497 0.101100616 -0.105935425
000240 29 b2 80 3c 67 91 03 bc ff b0 8e 3e 1f 40 2d 3e
       0.015709953 -0.008030272 0.27869412 0.16918992
000250 97 92 cb bd 53 a4 88 be 55 53 bc bd bf ba 3a be
       -0.09940069 -0.2668787 -0.09195582 -0.182353
000260 19 e0 f6 bd a6 27 16 be 77 d5 94 3c 54 e1 ad 3d
       -0.12054462 -0.14663562 0.018168194 0.084902436
000270 28 94 e3 3d 31 9c e6 3d 0a 72 58 3e d7 1a 72 be
       0.11112243 0.1126026 0.21137252 -0.23643051
000280 6b 47 06 3e 56 cb 28 3e 3b 88 15 bd 6e c2 e2 3d
       0.13113181 0.16483817 -0.036506873 0.11072241
000290 2a 4e f5 3d fd 6c 33 3e 3d 37 86 be 89 2a b7 bd
       0.11977799 0.17522044 -0.26214018 -0.0894366
0002a0 8e 48 97 be 70 16 30 be 64 d4 db bd 64 48 05 3e
       -0.29547542 -0.17196059 -0.1073387 0.13015896
0002b0 eb 61 17 3d 56 d9 09 be 8e c9 1b be 9f ae a5 3d
       0.036958616 -0.13461813 -0.15213606 0.08089947
0002c0 d5 d9 96 3c ba 90 10 be 89 c3 f4 3d 17 e3 60 bd
       0.018414417 -0.14117709 0.11951358 -0.05490407
0002d0 af cf 20 3e ab a1 95 be fc c0 d9 3a 9a 01 06 3e
       0.15704225 -0.29224905 0.00166133 0.13086548
0002e0 51 34 14 be de 06 46 be 2d 5e 50 be 82 b5 41 3d
       -0.14473082 -0.19338557 -0.20348425 0.04729224
0002f0 63 4d 0f 3e cb 82 48 3e ee 69 31 be 8f fe 9f be
       0.13994364 0.19581144 -0.17325565 -0.312489
000300 28 29 08 bd 2f c5 34 3d 85 a2 88 3c e0 a2 5b 3e
       -0.033242375 0.04413336 0.016679058 0.2144885
000310 33 34 a8 bc b9 5e 20 be d4 48 45 be d4 40 5a 3e
       -0.020532703 -0.15661134 -0.19266063 0.21313792
000320 ab b2 8e 3d fb 5a 61 be 53 cc 80 3d f6 79 ce 3d
       0.06967672 -0.22007363 0.06288972 0.10081856
000330 84 0d 49 3e 8c 64 2e 3e 07 f1 32 3d d8 89 98 3c
       0.19634062 0.17030543 0.043686893 0.018620417
000340 8a f0 06 bd d5 eb 87 3d f5 50 69 bd 02 1d b3 3e
       -0.03294424 0.06636778 -0.056961972 0.3498307
000350 5d a4 2e bc bf c5 13 3e 4d 50 27 3d 1e e2 e0 3c
       -0.010659304 0.14430903 0.040848065 0.027451571
000360 3c 3f 94 bd 54 7f 81 3d a9 24 4c 3d 0a 2a 57 bd
       -0.072386235 0.06323114 0.04983965 -0.052530326
000370 25 cf 0c be 9b f0 22 be 2b e4 08 3c 39 30 f8 bc
       -0.13750894 -0.15912096 0.008355181 -0.030296432
000380 9d 61 91 bd e8 c7 01 be ec 5c 1e 3e 33 e7 62 bd
       -0.070986964 -0.12673914 0.15465134 -0.05539627
000390 a1 10 03 be ed 85 01 bd ba 55 0a 3e b4 c4 95 3d
       -0.12799312 -0.031621862 0.13509265 0.07312909
0003a0 39 7f 0a 3e e0 20 d3 bc d9 2d 45 bc f1 1a b8 3d
       0.13525094 -0.025772512 -0.012034857 0.08989514
0003b0 f9 81 68 3e d2 e6 a2 bd 4b f3 aa bd 8b fe e8 bd
       0.2270583 -0.07954182 -0.08347186 -0.11376675
0003c0 11 80 71 be cf 0d 3b bc 19 ab 48 bc 3c 3f 8f 3d
       -0.2358401 -0.011416866 -0.012247824 0.06994483
0003d0 48 1c 37 3e 66 7b 09 3e 86 50 0d be 9c 6f 05 be
       0.17881882 0.13425979 -0.13800249 -0.13030857
0003e0 bf 14 51 3d 41 51 90 bd 74 8e 4f 3e 60 69 7c be
       0.051045176 -0.07046748 0.20269185 -0.24649572
0003f0 a3 4a cb bd 9f bc 09 3e e6 04 2f be e5 ae 70 be
       -0.09926345 0.1345086 -0.17091712 -0.23504217

fc1.bias f4 [128]
000000 0c 27 81 3c 26 fc 1c be 20 d0 76 3d 24 c0 71 bd
       0.01576569 -0.15330562 0.060257077 -0.05902113
000010 40 45 1c be 47 26 36 bd b0 c9 76 be 7c 58 28 3e
       -0.15260792 -0.044470098 -0.24100375 0.16440004
000020 3d c1 ea bd 96 18 67 bd e0 3f 5e be 26 a6 7e 3c
       -0.114626385 -0.05641993 -0.21704054 0.015542543
000030 9d c5 85 bd 66 99 30 3e ae 69 d8 bc 70 df 6e 3e
       -0.06531832 0.17246017 -0.02641758 0.23327422
000040 eb 49 64 3e fa 62 27 3d dd 9f 48 bd 85 34 2d be
       0.22293822 0.040865876 -0.048980583 -0.16914566
000050 3d 10 06 be 7b d3 32 bd a9 df 37 be f8 7a 31 3e
       -0.13092132 -0.043658715 -0.17956413 0.17332065
000060 37 d3 24 bd c1 ed e9 3c 7a 35 94 3d 59 75 64 be
       -0.040240493 0.028555753 0.07236762 -0.2231039
000070 42 41 73 3e 06 53 ee bd 85 b7 19 be 9f ce ee 3c
       0.23755363 -0.11636929 -0.15011413 0.029151259
000080 8b fa 34 be 39 43 11 3e 7f 10 f0 bd 60 2c 5f bd
       -0.176737 0.141858 -0.117218964 -0.05448568
000090 0a 0b 0f bc 03 df 6d 3e c3 64 44 3e c9 dc 92 3e
       -0.008730659 0.23229603 0.19179063 0.2868407
0000a0 de bc 37 3d 6c da 3b 3e 15 23 63 be 89 a6 ec bd
       0.044857852 0.1834504 -0.22181351 -0.115552016
0000b0 a6 54 ee 3d a7 d2 f8 3d a1 41 2f 3e d5 75 1d 3e
       0.11637239 0.12149554 0.17114879 0.1537698
0000c0 df 38 2b 3e 17 78 0e 3e 4b 00 f8 bd 66 ba 85 bd
       0.16720913 0.13912998 -0.12109431 -0.06529693
0000d0 60 1d c6 3d c4 31 63 3e 57 58 33 3d 3f 36 87 3b
       0.096735716 0.22186953 0.04378542 0.0041263397
0000e0 1e 6f 2e 3e 22 e0 43 3e bf c7 dc bc 1d df 8f bc
       0.17034575 0.19128469 -0.026950715 -0.017562443
0000f0 17 9d 42 be 8f 21 a1 3d dc 9c ea 3d 04 b6 00 be
       -0.19005238 0.07867729 0.114557 -0.12569433
000100 3e 7b 4c be 48 ff 38 be de 61 84 3e d0 5d 6b 3e
       -0.19968888 -0.18066132 0.25855917 0.22985005
000110 3c 7b 86 3e 11 0f 88 3e bf 0c b8 3c 46 c5 09 3e
       0.26265895 0.26573995 0.022467015 0.1345416
000120 92 9e 2c 3e ce 0c 2e bd dd 81 33 be 1f a0 59 3e
       0.16857365 -0.04249268 -0.17530008 0.21252488
000130 1f 65 9e 3a 35 c2 ba 3d d5 47 da bd 05 6b b1 bc
       0.001208458 0.09119073 -0.10658232 -0.021657476
000140 70 56 7e bd 28 b0 9e 3c a2 4e 35 3e 4d 83 51 3e
       -0.062094152 0.019371107 0.17705777 0.20460244
000150 3b c6 e6 bc 25 5e 8c 3e 76 a7 a3 bd 30 2f 9d 3c
       -0.028170696 0.27415577 -0.07990925 0.01918754
000160 b3 f8 1f be ff cc 18 3d 99 0f 76 3e a3 3e 16 be
       -0.15622215 0.037304875 0.24029388 -0.14672332
000170 71 0b 88 3d 21 1f 2e be 73 41 ee bc ee 4c cd bd
       0.06642807 -0.17004062 -0.029083943 -0.10024439
000180 e8 95 c8 3c 77 08 14 be da 6d d8 3d b0 7a 79 be
       0.024485543 -0.14456354 0.105678275 -0.24363208
000190 db 6a b8 3d 39 c9 22 bd 14 df 05 be a4 47 50 3e
       0.09004756 -0.039742682 -0.13073379 0.20339829
0001a0 80 58 7d 3d 9e 5c 2d be 9d 68 ce bd 41 d9 3a bd
       0.06185198 -0.16929862 -0.10078547 -0.045617346
0001b0 f7 35 cb bd 7c 32 69 3d 99 6f 68 3d 5a 02 6f 3e
       -0.09922402 0.05693291 0.056747053 0.23340741
0001c0 d8 de 63 3c f7 9c 98 bd 78 dd 89 3e 7f c0 c6 3d
       0.013908111 -0.07451814 0.2692678 0.097046845
0001d0 6f f7 d3 bd 3c 91 39 3e 29 9d 56 3e 91 95 5e be
       -0.103499286 0.18121809 0.2095839 -0.21736743
0001e0 d7 f8 2b be bb dc 9c bd ae 5e 63 be a1 b9 9b bc
       -0.16794144 -0.076592885 -0.22204086 -0.019009413
0001f0 44 cf 15 3e f8 e3 52 be be d9 83 be ba aa 63 be
       0.14629847 -0.20594776 -0.25752062 -0.22233096

fc2.weight f4 [128, 128]
000000 72 e2 8c bd a0 fa 77 be 64 aa 25 be 65 1d 26 3e
       -0.068791285 -0.242167 -0.1617828 0.1622215
000010 84 43 86 be 23 8d 12 be e0 a3 8b 3c 38 cb e4 3d
       -0.26223385 -0.14311652 0.017045915 0.111715734
000020 29 a0 ba bd 73 fb 67 3d 54 3f e5 ba a9 9e 0d 3d
       -0.091125794 0.056636285 -0.0017490187 0.03457514
000030 6d cb 4c bd 8a 63 90 3d a2 0a 03 be ed ee 18 3e
       -0.04999869 0.070502356 -0.12797025 0.14934893
000040 31 21 80 bd 71 70 15 3e d8 68 11 be 21 68 1e be
       -0.06256331 0.14593674 -0.14200151 -0.1546941
000050 4c 6a c5 3b 88 cf 18 3e 8a 1c 23 3d b0 f7 01 3e
       0.0060246345 0.14922917 0.03982214 0.12692142
000060 c7 31 03 3e 4b 0e a8 bb d0 94 7f 3d 70 95 a5 3d
       0.12811957 -0.005128657 0.062397778 0.080851436
000070 5e cc 1a bc 21 7d 80 3d 02 1c a4 3d 45 59 47 bc
       -0.009448139 0.062738664 0.080131546 -0.01216728
000080 20 eb 15 bd b9 a7 3d bd bd 06 3c 3d 71 11 09 3d
       -0.036601186 -0.04630253 0.045904864 0.0334639
000090 a5 24 ac bc 6c 24 80 3d 83 09 9e bc ef 63 98 bd
       -0.021013567 0.06256947 -0.019291645 -0.07440936
0000a0 f3 5d fd bc 06 3a 23 be 7c a6 1d 3e 7f 41 0b 3e
       -0.030928588 -0.15940103 0.1539554 0.13599204
0000b0 7c 9c 45 3d 4f 9b 27 be 5e 58 1b be e8 54 ce 3d
       0.04824494 -0.1636784 -0.15170428 0.10074788
0000c0 aa 80 40 bd 56 8a b9 3d 78 2f d2 3d 69 9d 0f bb
       -0.046997704 0.090595886 0.1026296 -0.0021913892
0000d0 8d 9e 14 3e c0 65 78 bd d8 4a 2d be 6c 28 53 be
       0.14513607 -0.06064391 -0.16923082 -0.20620888
0000e0 36 fb ac bd 0e c6 cf 3d 07 2e 4e 3d 5c 4b 7a be
       -0.08446352 0.10145198 0.050336864 -0.2444281
0000f0 b3 33 49 be cd f0 06 3e 8b f7 27 3c 51 17 3a be
       -0.19648628 0.13177796 0.01025189 -0.18172957
000100 ab fa 07 bd 39 c1 82 be 93 36 be bb ff 7b 10 3e
       -0.03319804 -0.25538042 -0.0058048456 0.14109801
000110 30 65 b3 3d e1 94 ba bd 16 35 b4 bd c9 c2 55 bc
       0.08759534 -0.09110428 -0.08799188 -0.013046929
000120 d1 98 0b be aa 1b 19 be bd ad 04 3e e4 5b a7 3d
       -0.13632514 -0.14951959 0.12956901 0.081718236
000130 52 06 90 3e 89 1d a9 3c 30 2e 12 bb 93 01 13 be
       0.28129822 0.020643966 -0.0022305362 -0.1435607
000140 99 95 08 be a4 90 a2 bc 67 9c 2d be 68 20 83 bd
       -0.13338317 -0.01984436 -0.16954194 -0.064026654
000150 f4 7b 02 be 87 32 e9 bd 9d 97 1b be 2f ff 26 be
       -0.12742597 -0.113865905 -0.15194555 -0.16308282
000160 eb e0 b9 bd be 39 50 bb a2 82 c3 3d d5 fa 14 3e
       -0.09076103 -0.0031772698 0.095464006 0.1454881
000170 a3 52 55 3e 9d b5 f3 3d 78 43 df bc cd 0e 12 3e
       0.20832305 0.11899874 -0.027253851 0.14263459
000180 66 a3 e1 bd c9 0d 1c be a4 be cb bc 9a 86 82 bd
       -0.11017494 -0.15239634 -0.024871178 -0.063733295
000190 93 85 6c 3d f8 63 f8 bd 2a 04 7d be 91 2e 0b be
       0.057744574 -0.121284425 -0.2470862 -0.13591982
0001a0 12 93 51 3e c0 38 0f 3e c1 81 32 bd 82 93 a9 bd
       0.20466259 0.13986492 -0.043580774 -0.08280088
0001b0 3b ab 08 3e c8 02 a0 3d 74 17 0e be e5 11 e7 3d
       0.13346569 0.078130305 -0.13876134 0.1128271
0001c0 e6 20 79 3d bd 75 66 bd 7e b9 ce bb c4 b0 4c bd
       0.06082239 -0.056264628 -0.0063087335 -0.049973264
0001d0 96 8c 91 bd 97 90 07 be 0c 74 96 3d f6 71 9c bc
       -0.07106893 -0.1323875 0.07346353 -0.01909731
0001e0 44 c4 94 3c 45 70 68 3a 3b 4b 69 bd dc ac 33 be
       0.018159993 0.0008866827 -0.05695651 -0.1754641
0001f0 b9 9f 25 3e 57 52 8c 3d 98 e0 a0 3d 68 97 1c 3e
       0.1617421 0.068516426 0.07855338 0.15292132
000200 d4 f4 93 be 9c 04 a1 3d c5 bc 04 3e 58 65 f2 3d
       -0.28897727 0.07862207 0.12962635 0.11835736
000210 89 67 58 be c4 8d a3 bb 3e 79 36 bd 9d bf bb bd
       -0.21133246 -0.004991265 -0.04454922 -0.09167407
000220 72 c4 03 3d 77 9c 4b 3e 9a b2 86 bd 19 a0 23 be
       0.032169767 0.19883905 -0.06577034 -0.15979041
000230 72 a2 27 be a3 d0 0e be 55 5e 17 be 7f a9 98 3d
       -0.16370562 -0.13946776 -0.14782079 0.07454204
000240 16 7d 39 3a 9b 2c a0 3d 5c ab 01 be 85 7c b1 3d
       0.0007075829 0.07821008 -0.12663025 0.08666328
000250 cf 8f 4c 3e 02 d8 52 3e e2 73 4c 3e d5 08 e8 bd
       0.19976734 0.20590213 0.19966081 -0.113298096
000260 2b 5a d0 bd e2 18 2c 3c f9 79 21 bd db 26 07 3e
       -0.10173448 0.010503979 -0.039422963 0.13198416
000270 87 dc 0e 3e c4 ee cb 3d 7c c7 a0 bd d2 25 0a bb
       0.13951312 0.0995765 -0.078505486 -0.0021079672
000280 42 e4 77 3d 2f dc e0 3d 08 40 cd 3d c7 d5 17 3b
       0.060520418 0.10979497 0.100219786 0.0023168193
000290 16 14 0e bc 03 91 27 3e 57 f9 1b bd 05 77 8b 3d
       -0.008671781 0.16363911 -0.038079586 0.068098105
0002a0 5b 05 a5 3c 2d ad d8 bd e2 19 de 3d 71 3b 98 3c
       0.020144155 -0.10579906 0.108447805 0.018583031
0002b0 d7 40 02 be 9e 42 2a 3e c8 4e 85 be f9 23 42 3d
       -0.12720047 0.16626975 -0.26036668 0.047397587
0002c0 70 f5 34 3d 66 9d 11 bd f9 1f c4 bd 31 20 eb 3b
       0.04417938 -0.035550497 -0.09576411 0.0071754684
0002d0 f4 a4 c5 bd 06 3c 03 3e d8 b5 1a 3e bd 6b 8f bd
       -0.09650603 0.12815866 0.1510843 -0.07002971
0002e0 ad c5 11 3e 54 a1 1a 3d df 99 05 3e 66 bb eb 3d
       0.14235564 0.03775151 0.13046978 0.11510353
0002f0 ea 60 9c bc 6a e2 24 3e cd 81 ba ba c6 d7 0a 3d
       -0.019089181 0.16101995 -0.0014229357 0.033897184
000300 fb 18 ce bd 02 ff dc bd c8 89 be bd e7 02 c9 bd
       -0.100633584 -0.107908264 -0.093036234 -0.09815007
000310 bf bc 8d bd 27 85 76 3d b8 46 0c be 7d 84 19 be
       -0.06920766 0.060185578 -0.13698852 -0.14991947
000320 9f b1 80 bd 5d 5b 27 be 12 f3 9d bd de 95 dc 3d
       -0.062838785 -0.16343446 -0.077123776 0.107707724
000330 a7 a8 9e 3d 66 94 07 3d 03 77 45 be 80 21 10 be
       0.07747012 0.03310051 -0.1928368 -0.14075279
000340 dc 23 10 be 91 be e6 bc 3d 47 99 3d 9b b5 da 3d
       -0.1407618 -0.028167041 0.07484291 0.1067917
000350 f2 c5 22 be e4 c9 02 be f6 7e fd 3d 2c 53 d7 bd
       -0.15895823 -0.12772328 0.123777315 -0.10513911
000360 5e 12 e7 3c 2a f8 0a 3e ec 08 3c bd a8 24 5f 3d
       0.028207 0.1357123 -0.045906946 0.054478317
000370 79 19 68 3d 58 0a 97 3d df bb 1e 3d f8 18 03 3e
       0.056664918 0.0737502 0.038753387 0.12802494
000380 b5 30 75 be 34 c7 66 3e c4 44 79 3d 12 4e 9a 3d
       -0.23944362 0.22536927 0.060856596 0.07534422
000390 56 a3 28 3e 18 5e 5b bd ad ee 3d be 93 9e ce bd
       0.16468558 -0.05355653 -0.18548079 -0.100888394
0003a0 aa 58 9c 3d 96 06 ea 3d b0 ed fd 3d 8d 9b 0b be
       0.07634099 0.114270374 0.12398851 -0.13633557
0003b0 6b 1d e5 3d ab 74 3a 3e 04 15 cb bd f5 9d 2f bd
       0.11187252 0.18208568 -0.09916118 -0.04287525
0003c0 85 01 1e 3e 6f e4 4a bd a1 dc d8 bc f6 19 e9 3d
       0.15430267 -0.049534258 -0.026472392 0.11381905
0003d0 3a 05 1f bd ca f6 d5 3d 7f a2 94 3d f1 12 19 3e
       -0.038823344 0.10447462 0.07257556 0.14948632
0003e0 3a d3 25 3e 07 55 d0 bd e4 3e c1 bd 87 59 5e be
       0.16193858 -0.10172468 -0.094358236 -0.2171384
0003f0 9c 84 d8 3d da 6d 4a bd 35 42 b3 3d e6 e3 c7 bd
       0.10572168 -0.04942117 0.08752862 -0.09760265

fc2.bias f4 [128]
000000 fc bb d1 bc 3c 45 39 3d c1 ee 3c 3d e6 cf a3 bd
       -0.025602333 0.045232043 0.04612613 -0.07998638
000010 a0 59 db bc eb 1b c5 bb 86 3b a9 bb e0 85 93 bd
       -0.026776135 -0.006015291 -0.0051645664 -0.07203269
000020 9b b0 82 bc 12 ee be 3d e5 71 8b 3c d6 04 6f 3d
       -0.015953353 0.09322752 0.017022083 0.05835422
000030 c8 e9 d8 3c 27 ec 65 3c ba 9c 52 3d e1 47 2f bd
       0.026478663 0.014033354 0.051418997 -0.04279316
000040 a6 1a 4b 3c 35 49 8f bd 4c d7 0e bd 53 7e 89 3d
       0.01239649 -0.06996385 -0.03487329 0.067135476
000050 2d fa 30 bd ee 2f 17 3d 91 db 3f 3d 3a 5f be 3c
       -0.043207336 0.036910944 0.046840254 0.023238767
000060 ba f5 2c 3d d6 87 a2 bc 1e 1e a9 3d e5 d3 07 bd
       0.04222653 -0.019840162 0.082576975 -0.033161063
000070 88 d4 48 3c ac 5c e6 3d fd 97 a1 3d 74 8d 91 3d
       0.012257703 0.112481445 0.078903176 0.07107058
000080 2f 4d d2 bc cd e8 7a bd f8 23 a5 bc 29 d9 ed 3d
       -0.02567157 -0.061257172 -0.020158753 0.11613686
000090 73 88 af bd ba e9 88 bb b1 80 c5 3c 67 fb d5 bc
       -0.085709475 -0.004178253 0.024109216 -0.026120855
0000a0 e0 b9 3b bd a4 f7 a9 3d 40 33 b9 3b 86 26 d9 bc
       -0.04583156 0.08299187 0.0056518614 -0.026507627
0000b0 b1 e7 13 3d 6b 5a 49 bc 52 37 2a b8 8c d0 fd 3b
       0.03610963 -0.012289624 -4.058268e-05 0.007745808
0000c0 ca 0a 48 bc ac b0 2f bd 2a 77 9f bd 69 6d f7 3d
       -0.012209604 -0.042893097 -0.077864006 0.12081415
0000d0 00 47 a6 3d 28 00 eb 3d 6c f7 ac bd 92 5e 09 bd
       0.08119011 0.11474639 -0.084456295 -0.033537455
0000e0 7c 23 e9 3c 91 81 dc bb f2 89 e7 3b 1d 3e 8f 3d
       0.028459303 -0.0067293127 0.007066005 0.06994269
0000f0 3a b8 b8 3d 97 23 66 3b 02 28 2d 3c 52 d3 da bc
       0.090195134 0.0035116428 0.010568621 -0.026712094
000100 4b 99 a2 bd 1b d0 d5 3c 31 5c 7c 3b cd fd 7a 3d
       -0.079393946 0.026100209 0.0038507099 0.0612772
000110 cf 7d 2c bd 29 04 ea 3c f0 2d 71 3d 1d ea a2 bd
       -0.042112168 0.028566437 0.0588817 -0.0795481
000120 c7 60 a3 bc 5b a6 39 bd 1d cf eb 3c 1a 63 d6 3c
       -0.019943608 -0.045324665 0.028785283 0.026170302
000130 48 9b 4c 3d f7 7a 95 bd ef 20 59 3d d6 b6 b8 3d
       0.049952775 -0.07298844 0.053009924 0.09019248
000140 b5 f2 40 3d ef e2 50 3c 0c b3 85 bd af 8f b0 bd
       0.047106463 0.012749418 -0.06528291 -0.086211555
000150 4c d1 98 bd 27 c9 68 3d b7 47 14 3d c3 47 36 3d
       -0.07461795 0.05683246 0.036201205 0.04450203
000160 29 f5 9c bc 60 af fe 3c 39 08 a6 3d 99 ff 40 bd
       -0.01915987 0.031089485 0.08107037 -0.047118757
000170 f2 05 8d bb ad 46 85 3d e9 c5 c0 3d 2e f9 8b 3d
       -0.0043036873 0.06507621 0.09412748 0.06834637
000180 c0 6e 25 bc 50 6f cc 3b 99 0f 11 bd 51 61 a7 3c
       -0.010097206 0.0062388554 -0.035415266 0.020432146
000190 32 dd 59 bd dc 02 42 3d ee 1e 55 3d 37 bc 3b bc
       -0.053189464 0.04736601 0.05203145 -0.011458448
0001a0 9e b3 0f bc 12 65 d5 bb 8e 5f a4 3c f1 cb a9 bc
       -0.008770851 -0.0065122927 0.020065095 -0.02072713
0001b0 9e 6b b9 3d cb 75 9f bd b0 8b 83 bd ed 34 f3 bc
       0.090537295 -0.07786139 -0.06423128 -0.029688323
0001c0 70 cf 44 3d 99 04 57 bd 3e d8 03 3a 71 25 a1 3d
       0.04804939 -0.05249462 0.0005029476 0.078684695
0001d0 64 b9 86 3d df 34 02 3d 1b 6b 88 3c 90 da 26 bc
       0.06578329 0.031788703 0.016652634 -0.010183945
0001e0 9e a9 7f bc 3e 52 dc 3d 92 69 7d 3d 86 47 74 bd
       -0.015604405 0.10757874 0.061868258 -0.059638523
0001f0 26 0f a2 3d 0a 92 95 3b 1b a6 99 3d d6 31 ec 3a
       0.079130456 0.0045645284 0.07502385 0.0018020223

action_head.weight f4 [6, 128]
000000 ce d6 8e be 30 7e 22 be af 08 96 3d 1e bf b3 be
       -0.27898258 -0.15868449 0.07325875 -0.35106748
000010 e4 55 1f bd 2e d9 bb be f4 1f 2c 3e 78 27 a1 3e
       -0.03890027 -0.36689132 0.16809064 0.31475425
000020 46 39 ba bd 5a 87 69 bd 78 8a aa 3d ae 98 06 3e
       -0.09092955 -0.057013847 0.08327192 0.1314418
000030 7e 5c d9 bc 4a 88 92 3e aa 6d 81 bd 7a a6 d3 3d
       -0.026533362 0.28619605 -0.06319745 0.10334487
000040 23 d1 1a bd 53 cc 77 be ea 18 40 3e ab c2 53 3e
       -0.037797105 -0.24199037 0.18759504 0.20679729
000050 47 24 16 3e c0 32 d7 3d 7e 2c 84 3e c9 f7 36 3d
       0.14662276 0.10507727 0.25815195 0.0446699
000060 ca 76 3f 3e 5e 6b 2e 3e d3 b9 64 3d e6 d5 85 3e
       0.18697658 0.17033145 0.05584128 0.26139754
000070 a4 90 78 3e 07 4b cb 3e 60 f2 f2 3c 25 41 7d be
       0.24273926 0.3970568 0.029656589 -0.24731882
000080 01 ee ba 3d 85 82 44 be 8d 58 09 bd f6 9a 39 3e
       0.09127427 -0.19190414 -0.033531714 0.18125519
000090 c4 36 09 3e e8 27 85 3e fb 60 dc 3d 50 7a 00 bc
       0.13399798 0.2600701 0.10760685 -0.007841662
0000a0 97 10 4e be 6c c0 8d be b6 f5 0b 3e df 65 48 3e
       -0.20123516 -0.2768587 0.1366795 0.1957011
0000b0 20 1b 0b 3e 97 26 bf bd 18 5e d2 bd f6 a7 9b be
       0.13584566 -0.09333532 -0.10271853 -0.30401582
0000c0 58 4d c2 3c 4e dd 28 3e 1f 48 4d bd e1 25 9f be
       0.023718521 0.16490671 -0.05011761 -0.31083587
0000d0 b3 ec 5d 3e 59 16 02 3e 3b 44 1e be 86 a9 3e 3e
       0.21672325 0.12703837 -0.15455715 0.18619356
0000e0 3a e3 dd bd a3 64 d9 bd 21 72 73 be 1b 0e 07 3e
       -0.10834356 -0.10614898 -0.23774005 0.13188975
0000f0 95 e5 34 3e 46 f4 57 be 6f e8 34 3e 14 ef 8c 3b
       0.17665704 -0.21089277 0.17666791 0.0043009613
000100 95 e0 df bd 89 51 b5 3e 41 30 2b 3c 67 cd 0e 3e
       -0.109315075 0.3541377 0.010448516 0.13945542
000110 07 5f 80 be 24 e0 4e 3e 30 6b 7d be 24 be 49 3e
       -0.250725 0.2020269 -0.2474792 0.19701439
000120 1c 62 d2 bc f4 93 59 be 54 f5 54 be f0 ae ff bd
       -0.025681548 -0.21247846 -0.2079671 -0.124845386
000130 4d c8 72 be 5f 87 51 be ac 2f c0 3d f6 35 4f 3e
       -0.23709221 -0.20461796 0.09384093 0.20235428
000140 9c f4 b4 3c 86 75 7c 3e c4 cf 89 3e 1e 56 20 3d
       0.022089295 0.24654207 0.26916325 0.039144628
000150 41 a8 5e 3e ec 01 aa be 5d 88 0e be 55 8b 12 3e
       0.21743871 -0.3320459 -0.13919206 0.14310963
000160 2f 8c 4d 3e b9 6f 60 3e fb ee 90 be 65 2c 90 be
       0.20073007 0.21917619 -0.28307328 -0.2815887
000170 c4 0a 94 be 3f d0 83 bb 55 fe cf 3d fe cb 3c bd
       -0.28914464 -0.0040226276 0.10155932 -0.04609298
000180 ce a5 8b bd 91 bd 17 be 14 ce 8d be 3f 38 27 be
       -0.06818734 -0.14818408 -0.27696288 -0.1633005
000190 67 2e ee 3d 1e da 94 3e a3 87 d3 3d ba 05 84 bc
       0.11629944 0.2907266 0.10328605 -0.016116012
0001a0 92 a7 38 3e 02 93 23 3e 79 f7 1d 3e 56 f9 30 be
       0.18032673 0.15974048 0.15426435 -0.17282614
0001b0 0d 92 62 3e 1c 4a 0c 3e 5b 45 8a 3b ae 5f d8 3d
       0.22126026 0.13700145 0.0042196936 0.105651245
0001c0 fd c8 8a 3e 05 0d 9c 3d ae 4b 8f bd 14 f4 6f 3d
       0.27106467 0.07619671 -0.06996857 0.05858238
0001d0 4e e3 94 3e 10 cb 88 be e1 74 a7 bd 0e 22 1e be
       0.2907967 -0.26717424 -0.0817659 -0.15442678
0001e0 97 2d bd bc 03 b9 5e 3e dc 9a a5 be d6 0f 7b 3e
       -0.023093028 0.21750264 -0.3234471 0.2451776
0001f0 d6 4b 34 3e 3f f9 44 3e 04 0d 24 3d 98 0e f0 3b
       0.17607054 0.19235705 0.040051475 0.0073259585
000200 93 15 55 3e 0f 4b 95 3e 70 9e 26 be 31 23 a0 3d
       0.20809011 0.29158828 -0.16271377 0.07819212
000210 74 7c ab bd df 03 1e 3d 52 2f 6e be 05 4e 62 be
       -0.08373347 0.03857791 -0.23260239 -0.22100075
000220 c6 4c 93 3e c3 40 50 3e 93 6f 2a 3e fa d5 8a bd
       0.2876951 0.20337205 0.16644125 -0.06779094
000230 95 f5 ae 3d 7b 89 80 3d 32 30 55 be 05 0d fa bd
       0.08542935 0.06276222 -0.20819166 -0.122095145
000240 f7 4c 5a 3e e6 21 a9 3b 2b 15 b7 be c5 9c a9 bd
       0.21318422 0.0051615117 -0.35758337 -0.082818545
000250 63 d6 e4 bc 76 aa 26 3e 70 77 7d 3d e0 39 9b be
       -0.027934259 0.16275963 0.061881483 -0.30317593
000260 93 96 40 be c0 f3 64 3e 3d c6 41 be 87 ac cb bd
       -0.1880744 0.22358608 -0.18923278 -0.09945016
000270 ce 34 d9 3c 25 6c 5f be ca 45 03 3e 7c 8f 6f bb
       0.026514437 -0.21818598 0.12819591 -0.003655403
000280 fc a3 ab bd 4e 4e 0a 3e 84 db 6e 3e 81 12 e4 3d
       -0.08380887 0.13506433 0.23325926 0.11136342
000290 d8 fe bd 3d ab 45 53 be e9 f1 57 bd 9b b6 18 3e
       0.09277123 -0.20632045 -0.052720938 0.14913408
0002a0 54 27 56 3e c1 03 0c 3e 33 68 98 be 75 77 17 3e
       0.2091344 0.13673307 -0.29766998 0.14791663
0002b0 3b a7 9d 3d 22 ab b3 3d f0 96 33 3e 51 b2 a1 3c
       0.07697912 0.08772875 0.17538047 0.019738348
0002c0 fa d7 47 bd 12 3a 77 3e 24 73 00 be 81 9e a0 bd
       -0.048789956 0.24143246 -0.12543923 -0.07842732
0002d0 f3 f3 a1 bd 0b 9f 69 3e f9 cc 2d 3e 69 07 20 3e
       -0.07907858 0.22814576 0.16972722 0.15627827
0002e0 1f 53 3e 3e bc 8b 0e 3e 4c 7c bf 3d b6 3c f6 bd
       0.18586396 0.13920492 0.093498796 -0.120232984
0002f0 61 61 27 3c e0 53 7d 3d f0 d4 7c be ea 3a 05 be
       0.010216088 0.061847568 -0.24690604 -0.13010755
000300 94 79 1f be e1 cc b4 be 5a c4 be be e9 64 0f be
       -0.15573722 -0.3531256 -0.3725918 -0.14003338
000310 3d c6 0c 3e e6 2a 87 3d 06 96 7d 3e b2 9b 44 3e
       0.13747497 0.06599979 0.2476426 0.19200018
000320 8a 5f f3 3d 7b c7 86 3e 7d a5 cc bd 87 93 f7 bd
       0.11883457 0.26324067 -0.09992502 -0.120886855
000330 82 8a 86 3c d6 88 fd 3c 44 2c 60 be 7f 11 4f bc
       0.016423468 0.030949038 -0.21891886 -0.012638449
000340 56 27 ca 3d 23 da 78 3d 59 9a 06 be af ba 55 bd
       0.09870784 0.060754906 -0.13144816 -0.05217999
000350 80 db 03 be 8e fd 6d 3a d7 6e fd 3d 85 cd 23 3e
       -0.12876701 0.0009078615 0.12374657 0.15996368
000360 e3 05 24 be ca 3a 08 be 57 ef 3d 3e e0 0f 42 3d
       -0.1601787 -0.13303676 0.18548332 0.04737842
000370 81 51 59 3e ce d7 8a be af 5c 2f 3e 88 d3 9f bc
       0.21222498 -0.2711777 0.171252 -0.019510046
000380 c4 31 b7 3d 47 77 aa 3d 06 43 a7 3e 56 13 83 3e
       0.08945039 0.083235316 0.32668322 0.2560069
000390 8b 0a 90 be df 67 33 3d a0 0e 92 bd 7f c9 23 3e
       -0.28133044 0.04380023 -0.07131696 0.15994833
0003a0 1a 0c cd 3d ae be 1b be 3e f8 57 3e 90 35 c6 bd
       0.10012074 -0.15209457 0.2109079 -0.09678185
0003b0 0f de 06 3d 21 dd 15 be d7 69 9f bd 26 88 1e 3e
       0.032926615 -0.14635135 -0.07783859 0.15481624
0003c0 27 80 35 be 65 89 18 3e c3 a8 74 be af f3 d1 3d
       -0.17724667 0.14896162 -0.23892502 0.10251557
0003d0 9c dd f7 3d 2b a5 97 3d fd 14 04 bd 99 5b 90 3e
       0.121028155 0.0740455 -0.03224658 0.28194883
0003e0 79 20 c7 bd 17 f0 04 be 21 dd 96 3d 69 c7 56 bd
       -0.097229905 -0.12982212 0.07366396 -0.052436266
0003f0 df f9 23 3c ef 98 01 be 31 a5 3b be 42 0e d6 bd
       0.010008304 -0.12655996 -0.18324734 -0.10451938

action_head.bias f4 [6]
000000 a9 e5 5d 3d f7 3f 8d 3d cf 90 88 3d 69 4b 8f bd
       0.0541741 0.06896966 0.06668245 -0.06996805
000010 b3 77 91 bb ea 89 a7 3c
       -0.004439318 0.020451505
