alg/discrete_action/param/net_param/actor_net1-10-10001739862705.pkl (torch, 90304 bytes, 6 tensors)

fc1.weight f4 [128, 30]
000000 24 63 e6 3d 24 63 39 3e d2 48 d6 bd 26 d3 29 3d
       0.11249378 0.18104225 -0.10463108 0.041461132
000010 10 96 bf bd 45 be ed bc b8 30 01 be a5 d0 4a bd
       -0.09354794 -0.029021392 -0.12616241 -0.049515385
000020 61 94 2f 3e c1 f9 20 be e5 e7 a4 3d 1d ba 72 bc
       0.17146446 -0.15720274 0.08052043 -0.014814881
000030 a7 59 6a 3d 5b e8 ca 3d 0c 31 e6 bd cb 10 0d be
       0.057214405 0.099075995 -0.11239824 -0.13775937
000040 ff 52 0d 3e cc 5c 32 bc e0 f3 63 3d 1d 40 ef bd
       0.13801192 -0.010886382 0.0556525 -0.116821505
000050 08 ee 73 3e d8 b3 1d 3d 8a 7f aa bd d4 95 45 bc
       0.2382127 0.03850159 -0.083251074 -0.012059648
000060 46 00 fc 3b ee 2b f9 3d 60 8e a5 3d d7 8c a5 3d
       0.0076904623 0.12166582 0.080837965 0.08083504
000070 9a 48 c8 bd ff 9b 50 3e 0f fa 7b be 13 92 43 bd
       -0.09779473 0.20372008 -0.24607109 -0.04774673
000080 49 0e 2a be 6c a8 bc 3d 5c f9 b8 3b b0 a0 a1 3d
       -0.16607012 0.092118114 0.0056449603 0.07891977
000090 8b 34 1c be 09 b5 3e 3c 2d f3 31 3e 3b 04 b2 bb
       -0.15254419 0.011639842 0.1737792 -0.005432633
0000a0 98 0c 4b 3e 8c 87 0a be db c0 5c bd dd 0a ed bd
       0.19829023 -0.1352827 -0.05389486 -0.11574338
0000b0 16 c0 9a 3d ff 45 1f be 09 b7 09 3d 83 62 84 bc
       0.07556169 -0.15554045 0.03362182 -0.016160255
0000c0 a6 ca 43 3e a1 d5 ae 3c 8b 35 4c 3d af 9c 82 bd
       0.19120273 0.0213421 0.04985575 -0.06377541
0000d0 83 d5 a2 bd 1f 1c ec bc 5a 48 21 3e 5f 95 c1 3d
       -0.079508804 -0.028822003 0.15750256 0.094523184
0000e0 46 77 91 3c 5c da 34 3d fa 78 2b 3d 7f 43 9d bc
       0.01775707 0.044153556 0.04186342 -0.019197224
0000f0 b5 7e 3c 3e 02 c6 cf 3d 74 84 3c 3e 1b 48 8c 3d
       0.1840771 0.10145189 0.18409902 0.068496905
000100 00 d0 f7 3d 6b f5 29 be 2f 9e 65 be 06 43 78 3e
       0.1210022 -0.16597526 -0.22423624 0.24244317
000110 87 7f 5d be 82 da 1f be f7 73 6d bd b9 c7 44 3d
       -0.21630679 -0.15610698 -0.05797192 0.048042033
000120 bb 17 88 3d 0b 8f 49 be df e4 96 bd 0a 72 c5 bd
       0.06645151 -0.19683473 -0.073678724 -0.09640892
000130 83 3f ea bd 04 cd 71 bd 33 3c 93 bd 52 c2 17 bd
       -0.11437895 -0.05903341 -0.071892165 -0.037050553
000140 4c 59 72 3d a8 50 df 3d f0 57 21 3e f8 89 b2 3d
       0.05916719 0.10904056 0.15756202 0.08717722
000150 e1 cb 56 3e 24 0b 13 3e f1 35 48 3c 6d 3a f1 bd
       0.20976211 0.14359719 0.012219892 -0.11778722
000160 fd 8d ec bd 5d 56 c1 bd a7 3d 0b 3e dd a0 88 3d
       -0.115505196 -0.094403006 0.13597737 0.06671307
000170 32 fd 91 bd 91 d0 a7 bd d1 20 f8 3d 8f db 68 bd
       -0.07128371 -0.08194078 0.12115634 -0.056850012
000180 f7 71 4c bb a3 91 fa 3c ab b6 b1 3d 0d c2 76 3d
       -0.0031195858 0.030587023 0.08677419 0.060243655
000190 c7 e8 7a bd c3 5b 70 be f6 e8 1f 3e 04 44 1e bc
       -0.06125715 -0.23472504 0.15616211 -0.009659771
0001a0 f9 89 6f 3c 23 c3 5a 3e 04 67 64 be c5 1e 54 bd
       0.014620298 0.21363501 -0.22304922 -0.051787157
0001b0 b5 3d 8a 3d 3c a6 4b 3e ae 59 f6 bd 35 a4 31 3e
       0.06750051 0.19887632 -0.12028824 0.17347796
0001c0 c4 d8 26 3e 2d ee 48 3d 92 85 6a bd 40 85 28 be
       0.16293627 0.049055267 -0.05725629 -0.16457081
0001d0 b7 65 3f 3e 71 a0 b2 bd 53 55 16 3e fd 3f f8 3d
       0.18691145 -0.08722008 0.14680986 0.1212158
0001e0 21 6d 08 3e d1 89 36 3e 3e e9 e8 bd b6 bb 97 bd
       0.1332288 0.1782601 -0.113726124 -0.0740885
0001f0 27 da ba 3d 60 df 10 be 6c 40 21 3e 71 16 c2 bd
       0.091236405 -0.14147711 0.15747231 -0.094769366
000200 31 71 8a bd f0 71 a2 3d d7 f1 14 3e 63 84 c7 3c
       -0.06759871 0.07931888 0.1454538 0.02435512
000210 e8 75 1b bd 91 75 46 be f0 38 14 3e ed bc 11 3e
       -0.03795424 -0.19380786 0.14474845 0.14232226
000220 e5 5d 24 3d b2 37 03 3e b1 74 aa bd 34 b0 f2 bd
       0.040128607 0.12814215 -0.08323038 -0.11850014
000230 42 7a dd 3d 9b 03 60 3e 54 4b ab 3d ac 2c 46 3d
       0.108143345 0.21876375 0.08363977 0.048382446
000240 85 89 10 3e a6 74 15 be 60 ea 9c 3c ab 59 b6 bd
       0.1411496 -0.14595279 0.019154727 -0.089038216
000250 ed e5 58 be af c2 41 3e 67 a2 ce be 9d b1 b1 3d
       -0.2118146 0.18921922 -0.40358278 0.08676455
000260 55 5d 8a be ab 33 ad be 88 54 8d be 97 19 16 3e
       -0.27024332 -0.33828482 -0.27603555 0.14658199
000270 e0 98 d6 be 69 9a a3 be 58 e5 2a 3e a9 d4 84 be
       -0.4191351 -0.31953743 0.1668905 -0.25943497
000280 7d 83 46 3e 00 3d 2e 3e 79 2b bd 3d c0 73 81 3d
       0.19386096 0.17015457 0.092368074 0.06320906
000290 44 bd 65 3d 97 f6 66 3e 84 bb 9b 3d 85 b4 99 3d
       0.0560887 0.22555004 0.07604125 0.075051345
0002a0 2b c8 6b bb e6 4a 89 3d be 0e 01 3e 2a 91 d0 3c
       -0.0035977464 0.06703739 0.1260328 0.025459845
0002b0 12 bb 55 bd 47 15 d8 bb a3 cb 81 bd d9 83 44 be
       -0.052180357 -0.0065943333 -0.06337669 -0.19190921
0002c0 b7 c0 1d 3e ca 1f 53 bd cc a8 16 3e e7 63 08 3e
       0.15405546 -0.05154399 0.14712828 0.1331936
0002d0 91 c1 ac be ac b8 57 3e be c8 c5 bd 07 b5 09 be
       -0.3374143 0.2106654 -0.09657429 -0.13447963
0002e0 5b 46 c5 3d d9 a2 30 3e b0 c3 57 be 01 aa a5 bc
       0.0963256 0.17249621 -0.21070743 -0.020222666
0002f0 7b 2f ee 3b 8b 45 f9 bc 64 e1 7a bd 3c d8 47 3e
       0.0072688437 -0.030428668 -0.061250106 0.1951608
000300 0c 4a 66 bd f3 b5 b5 3d 74 1d 32 3e dc 92 80 3d
       -0.05622296 0.08872595 0.17394048 0.06278011
000310 af c9 5e 3d 91 d6 b6 bd ec d4 3f bd ba 71 48 3b
       0.05439156 -0.08927644 -0.046833917 0.0030585364
000320 bb 73 58 3d 05 12 b8 3c 5d 11 74 3e 00 2b 91 3d
       0.052844744 0.02246953 0.23834749 0.0708828
000330 8e 44 0d be 3b 61 c8 bd dd 2d 8e 3d 38 29 d2 bd
       -0.13795683 -0.0978417 0.069423415 -0.10261768
000340 f5 79 0c be c3 57 f0 bc 94 55 cf 3c 87 3f 8c 3e
       -0.13718398 -0.029338723 0.025309362 0.27392218
000350 f5 0a 0b 3e 56 a1 09 bd 0c 2b 56 bd d0 a8 d6 3d
       0.13578399 -0.033601128 -0.052287146 0.10481417
000360 dd 85 98 3e cc 10 ad bd 22 37 a3 3c 86 44 37 3e
       0.2978963 -0.084504694 0.01992375 0.17897233
000370 12 cb fb bc 43 bf 93 3b 94 1e 13 3e 38 58 5f 3c
       -0.03073648 0.004508884 0.14367133 0.013631873
000380 17 28 72 bd 46 79 b2 bc 64 e6 c8 bc 0f eb a4 bd
       -0.059120264 -0.021786343 -0.024523921 -0.08052646
000390 90 ad c5 bc 94 74 a2 3b cd 4d 82 be 09 b9 67 be
       -0.024130613 0.004957745 -0.25449982 -0.22629179
0003a0 8e 2e 4a 3b 9d fa 46 3e 74 36 da 3d 69 f4 a6 bd
       0.0030850503 0.19431539 0.10654917 -0.08152086
0003b0 f6 f3 96 3d a0 ae b3 3d aa 29 f1 3d d3 9e 90 bc
       0.073707506 0.087735415 0.11775525 -0.017653858
0003c0 58 ce 7e bd a6 b3 52 3e b0 fc 7f be 30 f7 70 be
       -0.062208503 0.20576343 -0.24998736 -0.23531795
0003d0 6a 14 76 be 10 06 59 3e 73 b7 19 3d 73 d6 12 be
       -0.24031225 0.21193719 0.037528466 -0.14339618
0003e0 da d3 07 3e b0 eb 4e be ca 8c dc 3d d3 b8 34 be
       0.13264409 -0.20207095 0.10769041 -0.1764863
0003f0 75 dd b9 bd 76 ca 01 3e 6b ae 66 bd 17 82 41 3e
       -0.09075443 0.12674889 -0.05631868 0.18897282

fc1.bias f4 [128]
000000 ca ff 3b be 9b 48 a4 bc a1 c6 b7 ba 25 8a 12 be
       -0.18359295 -0.020054152 -0.0014020988 -0.1431051
000010 79 3b f7 bd ba ae 2a bd ed 04 61 3b 3d 18 a8 bd
       -0.120718904 -0.04167054 0.0034335211 -0.08207748
000020 83 0d 19 3e ea 08 fc 3b d9 0d b0 bc 7b 92 ef bd
       0.1494656 0.0076914923 -0.021490978 -0.11697861
000030 30 19 2b 3d 9b a3 35 be a7 17 22 be ae 3d 84 3d
       0.041772068 -0.17738192 -0.15829335 0.06457077
000040 56 42 d3 bd 15 f2 13 3d 61 fc a2 3c 0f 18 3b bd
       -0.10315387 0.03611954 0.019895734 -0.04567724
000050 87 fb 06 3e 22 16 75 bd c7 b4 be 3d db 56 89 bd
       0.13181888 -0.05983556 0.09311824 -0.067060195
000060 4b 92 81 bd 87 4d dd bd 44 bf eb 3d a1 68 29 bd
       -0.06326731 -0.10805803 0.115110904 -0.041359548
000070 65 4a 08 3b 05 ca 28 3d 81 16 97 bc 4b 5c 93 3d
       0.0020796296 0.041208286 -0.018443348 0.07195338
000080 db 55 af 3d 31 2f 88 bd fd 85 96 3c f7 88 98 bd
       0.085612975 -0.06649626 0.018374437 -0.07447999
000090 7e 95 d5 bb 7c 35 41 3c d5 30 d1 bd 1c ea 4c 3e
       -0.006518065 0.011792537 -0.10214392 0.2001118
0000a0 93 24 12 3e 9c ed 77 3d 97 ba b6 3d 83 99 ae bc
       0.14271764 0.060529336 0.08922308 -0.021313434
0000b0 63 e1 c7 3c 2b d0 a3 3d 38 ab 2c 3e bd 7d c7 bc
       0.024399465 0.07998689 0.1686219 -0.024351949
0000c0 f3 5c c6 bd 61 17 0a bd 1d 42 00 3e 3d e4 9b bc
       -0.096856974 -0.033713702 0.1252522 -0.01902973
0000d0 00 4a 6c bc 40 fa f8 bd a6 d2 12 be bf 61 5e 3d
       -0.01442194 -0.121571064 -0.14338169 0.054292437
0000e0 c7 a2 83 ba f9 a9 35 3d 38 ed 9a 3d c5 c6 57 3d
       -0.0010043018 0.04435155 0.07564777 0.052679796
0000f0 29 17 83 3d 88 f8 95 3d ae 42 34 bc 49 80 9d 3d
       0.06400902 0.07322794 -0.011002226 0.07690484
000100 ac 23 b7 3d 2f f7 e6 bc fb c5 23 3d aa 05 5e bd
       0.08942351 -0.028194038 0.03998373 -0.05420462
000110 b8 0d 42 bd 4f 99 1a 3e ec 8c 2a 3e 71 a3 4b 3e
       -0.047376364 0.15097545 0.1665532 0.19886567
000120 3c 4a e2 bd fd 5d 9e bd f9 49 ce 3d ea af 39 3e
       -0.11049315 -0.077327706 0.10072703 0.18133512
000130 fb f4 7e bd ee 19 12 be b6 d7 b9 3d ca 30 ab bd
       -0.06224535 -0.14267704 0.09074347 -0.08358915
000140 ca 74 6d 3e 35 ce e2 bd ff bf 8e 3d e0 36 13 bd
       0.23189083 -0.11074487 0.06970214 -0.035941005
000150 67 66 b4 bd f7 aa 36 be 90 ca d5 3d e3 38 8a bd
       -0.08808594 -0.17838655 0.10439026 -0.067491315
000160 df ce 1a be e7 4f 6c 3e 81 9d 37 3e 48 b2 9b 3d
       -0.15117978 0.23077355 0.17931177 0.07602364
000170 28 0a 9f bd a9 cf 1d 3d 84 83 57 3c a0 d4 e6 3c
       -0.07765609 0.03852812 0.013153914 0.02817756
000180 35 da 12 3e 79 c7 da 3c 7e a3 5b bc b3 06 8e bd
       0.14341052 0.026706444 -0.013405679 -0.069348715
000190 74 23 1b 3c a8 b9 80 bd 2d 78 26 bd 63 ea c2 bb
       0.009468902 -0.06285411 -0.040641952 -0.005948351
0001a0 eb ae bd bd 15 0f cc ba 3c 4e dd 3d b3 82 b7 bc
       -0.092618786 -0.001556846 0.10805938 -0.02240119
0001b0 16 c7 1b 3e 8b a9 8f 3d cc 82 e4 bb 5b 22 26 3e
       0.15212664 0.0701476 -0.0069736 0.16224043
0001c0 12 8d 27 bc c7 f5 2e be 5b 8f bf 3d 8c 9b 1b be
       -0.010226505 -0.17085944 0.09353515 -0.15196055
0001d0 e3 d2 29 3d fd 9c 00 3e e1 ac 3f bd 17 59 af bd
       0.041460883 0.12559886 -0.04679573 -0.085619144
0001e0 87 bf 88 3d 99 57 1e 3e 93 05 45 3e 9b be 8c 3d
       0.06677156 0.15463103 0.19240408 0.068722926
0001f0 77 a1 83 3d be c3 38 3e 09 ed 16 3d 70 91 10 be
       0.06427281 0.1804342 0.036847148 -0.1411798

fc2.weight f4 [128, 128]
000000 ab 0c 29 be e5 9b 52 3d 96 ba af 3c b7 99 ab 3d
       -0.16508739 0.051418204 0.021451276 0.08378928
000010 5d 9b 98 3b 95 2b 3f be e3 90 db 3d b2 47 81 3d
       0.0046571926 -0.18668969 0.10720994 0.06312503
000020 25 6f 8f 3d 5f 35 d1 3d 17 00 43 bd 54 30 f9 bd
       0.07003621 0.10215258 -0.047607508 -0.12167421
000030 7f 6d b6 bc 5f ef 28 3d 63 7d be bd c9 6f bc bc
       -0.022269009 0.041243907 -0.09301259 -0.023002522
000040 84 3c a1 bc 3b bf 9a 3d 26 45 68 3d f8 28 00 be
       -0.019682176 0.075560056 0.05670657 -0.12515628
000050 2b 5f b4 bd de 4f 03 be b5 42 ca 3a 8b 0f bb 3d
       -0.08807214 -0.12823436 0.0015431257 0.09133824
000060 8f 34 24 3e b0 d7 00 be 88 96 0a be bb 90 04 3e
       0.16035675 -0.12582278 -0.13533986 0.12945835
000070 f7 69 eb bd c8 56 f7 3d 1a b6 0e 3e db 5e 04 bd
       -0.114948206 0.12077099 0.13936654 -0.032317024
000080 81 9e 01 bd 2d 6b 13 be 95 c2 af bc 40 01 ec 3d
       -0.0316453 -0.14396353 -0.021455089 0.11523676
000090 56 cc 81 3d 3b f1 25 3d 4f f8 06 3e 52 5f 9f bd
       0.06337802 0.04051326 0.1318066 -0.07781853
0000a0 75 26 9e 3d 5f 60 6a be 76 76 b0 bc 14 cb 77 3d
       0.07722179 -0.22888325 -0.021540862 0.060496405
0000b0 58 56 9b bd fb f1 6e 3c 48 68 2a be 38 91 3b 3e
       -0.07584828 0.01458406 -0.16641343 0.18317115
0000c0 ee 42 60 bd 0f 6b 04 3e 27 42 4b bd c5 66 1f 3d
       -0.05475133 0.12931465 -0.049623635 0.038916368
0000d0 f9 a5 47 bd 4f b9 3d 3d 00 6d 16 be 2f 22 cd 3b
       -0.04874227 0.046319302 -0.14690018 0.0062601785
0000e0 5c 28 00 be 81 5e 45 3c b5 19 21 be 56 71 29 bd
       -0.12515396 0.012046457 -0.15732463 -0.04136785
0000f0 83 b5 7b bd 39 de 9c 3d 52 ce 4a 3c 91 04 fd bd
       -0.0614524 0.07659573 0.012378292 -0.123543866
000100 1e af 84 bc 1a b1 37 bd 8e 93 13 bd 46 5f 1c 3d
       -0.016196784 -0.04484663 -0.03602939 0.038176797
000110 d8 de 0c be 04 13 5a bd 1c c1 d1 bd 65 a6 3b bd
       -0.13756883 -0.05324079 -0.10241911 -0.045812983
000120 4e 14 7d 3d a2 bd 5c be 24 02 d6 bd 5f 0c eb bc
       0.061786942 -0.21556714 -0.10449627 -0.028692422
000130 ca 44 cd bd 3c b2 14 3e d2 31 4a b9 07 b5 a8 bb
       -0.10022886 0.14521116 -0.0001928278 -0.0051485333
000140 cd 4c fa bc 83 17 3a 3d fa e9 01 3e 0b c8 26 bd
       -0.0305542 0.04543258 0.12686911 -0.04071812
000150 9d 0d 2c bd 0f eb ac 3c 32 7e 01 be 94 e3 bb b9
       -0.04200517 0.021108178 -0.12645796 -0.00035836978
000160 e7 0e 0a be 34 8d b6 3d 06 a1 4f bd e5 51 34 be
       -0.13482247 0.08913651 -0.050690673 -0.17609365
000170 49 b4 25 3e a2 33 c1 3d 04 4d 22 be 86 03 3e ba
       0.16182055 0.09433676 -0.15849692 -0.000724845
000180 b4 ce 16 bd 26 35 96 bd ff 7c 85 bd 27 3a aa 3d
       -0.03681822 -0.07334356 -0.06517982 0.08311873
000190 d1 2b 30 bd d4 91 c2 bc 14 67 f7 3d dd 40 0c 3c
       -0.043010537 -0.023751177 0.120802075 0.0085603865
0001a0 2f b5 f3 3d 0c 64 98 3c 06 ae 4c 3d d7 62 b7 bc
       0.118997924 0.018602394 0.04997065 -0.022385998
0001b0 53 14 36 3e 8c ca 91 3d 28 e5 61 3d 4a f2 d6 3d
       0.1778119 0.07118711 0.05515018 0.10495432
0001c0 f9 0b 86 bd 11 37 e4 bd 9b fc a1 bd ce 1f 95 bd
       -0.06545252 -0.111433156 -0.07909509 -0.07281457
0001d0 6e 2d 49 3d 9f 1a 9a 3d d2 81 bb bd d4 cf fc 3d
       0.04911559 0.07524609 -0.09155621 0.123443276
0001e0 0e bd e4 3c 29 8c 55 bc a8 c1 0d 3e 8f ad b0 3b
       0.02792218 -0.013033905 0.13843405 0.0053917835
0001f0 ec c9 10 3e ef 85 8f 3d e8 ef aa 3d e1 55 17 3e
       0.14139527 0.07007968 0.0834654 0.14778854
000200 74 74 d0 bd 4b d1 0f be 7f 5e 7c 3d d7 9c d5 3d
       -0.10178462 -0.14044683 0.061613556 0.104303055
000210 6e 9a d2 3d 20 27 ba 3e d3 8d 26 3e d5 af 96 bd
       0.102833614 0.36357975 0.16265039 -0.07357756
000220 14 5d 2d 3d 3e 48 3b be ab 90 9c 3d 16 ea 28 bd
       0.042325094 -0.18289277 0.07644781 -0.041238867
000230 dc 6b d5 3d 3c 6b e6 bd ba f5 49 3e f0 95 95 bd
       0.10420963 -0.11250922 0.19722643 -0.07303989
000240 1b c1 7c 3d 72 d8 e1 3d 7c c3 f9 3d dd 65 f0 bd
       0.061707597 0.11027612 0.12195489 -0.11738179
000250 41 1a e5 3c 24 71 e4 bd 23 25 df 3c 9f ff b3 3d
       0.02796662 -0.11154392 0.027239388 0.0878899
000260 c8 38 4a be 84 f9 ff 3d 1f 82 05 3e 2e 14 ff 3d
       -0.19748223 0.12498763 0.13037919 0.12455021
000270 a1 20 a0 3d fa d4 af 3b d6 bc b3 3d 08 18 a3 3c
       0.078187235 0.005365965 0.08776252 0.01990892
000280 68 16 d0 3d 4d 07 bd bd 97 8f 78 3d 71 62 e7 bb
       0.10160524 -0.09229908 0.060683813 -0.0070612957
000290 cf ea 14 3e 45 ba ba 3d ce 4d 30 3e 78 22 5a 3e
       0.14542697 0.09117559 0.1721718 0.21302211
0002a0 c3 a3 b9 3d 3d bf c8 bd 6a ec d7 3c a7 88 0e be
       0.09064438 -0.09802101 0.026357848 -0.13919316
0002b0 78 22 a3 3d 1d dd f7 bd ee 5e 92 3e fe 3a bd bd
       0.07965559 -0.12102721 0.2858805 -0.092397675
0002c0 46 38 67 bd 85 cc c0 3c 1f 23 40 be 52 ce 5d bd
       -0.05645015 0.023535023 -0.18763398 -0.05415184
0002d0 ec 7f 17 bc 9d bd bf 3d 25 48 25 3d f5 42 5a bd
       -0.009246808 0.09362338 0.040352006 -0.05328651
0002e0 30 06 c5 3d 4e 29 1b 3e 2f 48 44 3d 43 6b e7 bd
       0.09620321 0.15152475 0.047920402 -0.112997554
0002f0 6f 8a b8 3d f5 27 3c bd f6 9e 81 bd 91 03 ff 3c
       0.09010779 -0.045936543 -0.063291475 0.03112963
000300 03 a4 1c be 28 37 d1 3d cc 91 d4 3d d1 41 bc bd
       -0.1529694 0.10215598 0.10379371 -0.09192241
000310 79 ab 2c bd a0 a3 42 3d 26 fe e5 3d ba 9a 07 3e
       -0.042155717 0.047519326 0.112301156 0.13242617
000320 ac f4 fc bd b6 ff db bd c6 32 8a 3e d9 f5 64 3e
       -0.12351355 -0.10742132 0.26991862 0.22359408
000330 d3 9a c6 bd 79 9f 89 be 6a 02 d9 3c 3a 1f e8 3c
       -0.09697499 -0.2687948 0.026490409 0.028335202
000340 f2 c5 08 be 07 3a a0 bd a2 92 1d 3d c5 68 83 3d
       -0.1335676 -0.07823568 0.038469918 0.064164676
000350 32 b0 35 3e b9 ea 26 3d 23 67 08 be d7 f3 18 3c
       0.17742994 0.040751193 -0.13320594 0.00933548
000360 90 44 66 be 05 6b 9a 3d b4 db 77 3e ee c8 bd 3c
       -0.22487092 0.075399436 0.24204904 0.0231671
000370 ea 0e e8 bb ad a6 88 3d fe 94 c6 bc ac 0e e3 bd
       -0.007081856 0.06672416 -0.024240967 -0.11086783
000380 68 0e 54 3e 25 03 29 3d f0 b6 d4 3d 1a 1f 38 be
       0.2070862 0.041262764 0.10386455 -0.17980614
000390 3c 07 59 3d 27 dd b6 3c 46 16 55 bc 3a 81 92 3b
       0.052985415 0.02232225 -0.013005799 0.0044709714
0003a0 f4 22 74 be 08 71 21 3e 63 12 e1 3d 77 ea 91 3d
       -0.23841459 0.15765774 0.10989835 0.07124799
0003b0 28 ea 4a 3d d0 4b 89 3d 9a 0e 01 3e 7e 15 8d bd
       0.049539715 0.06703913 0.12603226 -0.06888865
0003c0 85 a5 31 3e 8e d3 d8 bc 5a 0e 72 bd fb f8 28 be
       0.17348297 -0.026468065 -0.059095718 -0.16501229
0003d0 b9 96 c6 bd 34 d9 dd bd 25 cf 1d be f2 b4 8a 3d
       -0.09696717 -0.10832444 -0.1541105 0.06772794
0003e0 26 d3 f5 bc fc 24 32 bd d0 db 9e 3d 6e 0d a8 bd
       -0.03000791 -0.043492302 0.0775677 -0.082056865
0003f0 7d 8b 48 3e 19 2e e4 3d 35 62 dd 3d 73 f3 0c be
       0.1958446 0.11141605 0.10809747 -0.13764744

fc2.bias f4 [128]
000000 e8 b1 d5 3d 94 27 dd bb 70 9d 31 bd b0 f4 4b 3d
       0.104343235 -0.006749103 -0.043363035 0.0497939
000010 8b c4 87 bc c8 31 11 3d b3 ce f3 3c 74 25 d1 3d
       -0.016573211 0.035447866 0.029761648 0.10212222
000020 ea 8b 9d 3d 52 ef 75 3c 4e 8a 97 bd 41 ff b6 3d
       0.07692702 0.015010672 -0.073994264 0.089354046
000030 83 a3 26 bd bc eb c8 bd cf 42 67 3d 36 9e f2 3d
       -0.04068328 -0.09810588 0.056460198 0.118465826
000040 93 8a 25 3d 51 6b 18 3d 13 71 1b 3d 9b e7 73 bd
       0.040415358 0.03721172 0.037949633 -0.059547048
000050 9d 95 6c 3d 92 6c 90 bd d1 ee 99 bd 8c 14 6e 3d
       0.05775987 -0.07051958 -0.07516254 0.058125064
000060 e8 54 9c bd d3 9f 1a 3d 4c c0 ae 3d af 14 b6 3d
       -0.07633382 0.037750077 0.085327715 0.08890664
000070 11 9d 3b bd a9 2b 03 3e 04 ec 5f 3d 71 7f a0 bd
       -0.045804087 0.12809624 0.05466844 -0.078368075
000080 19 2f 8d 3d 7a e2 d8 ba e4 0f ae 3d bd 99 53 3d
       0.06893749 -0.0016546987 0.08499125 0.051660288
000090 ea 3d 6d 3d 9e 5c 08 3d cc 1e 8b bd b9 4d 75 3d
       0.057920374 0.03329145 -0.067929834 0.059888575
0000a0 e0 49 d0 bd cd 9e 7b bc 0e c1 8b bd 98 a5 e9 3c
       -0.101703405 -0.015357685 -0.06823932 0.028521344
0000b0 53 34 1d bd a6 f7 be bc 94 8f 1c 3c 59 e6 93 bd
       -0.03837998 -0.023311447 0.009555716 -0.0722167
0000c0 15 17 17 bd f8 7f af bd 87 c6 c4 3d dc 93 ce bd
       -0.036887247 -0.0856933 0.096081786 -0.10086796
0000d0 49 9e d6 bb a9 be f6 3c e2 75 3a 3d b5 33 c5 3c
       -0.006549631 0.03012021 0.045522578 0.024072507
0000e0 2e 9f 9e 3d 0b e4 30 3d e2 b8 86 bc b6 9c 26 bc
       0.07745205 0.04318623 -0.01644558 -0.010169199
0000f0 09 a2 b1 3d 14 69 a5 3b 9e 4a ce 3c 9b ab c7 3c
       0.08673484 0.0050479267 0.025182065 0.02437382
000100 cd 9e bf bb 62 83 0c be 88 21 26 bd 55 94 9c bc
       -0.005847788 -0.13721994 -0.04055932 -0.019113699
000110 88 50 f7 bc 98 fc 02 3d 84 83 bb bc d4 08 1d 3d
       -0.030189767 0.031979173 -0.02288986 0.038338497
000120 ed b3 88 bd a8 4e a9 3d 25 e4 9d bd 66 c6 15 3d
       -0.06674943 0.082669556 -0.07709531 0.03656616
000130 40 2b ad 3d f4 88 e4 3d 71 7a a6 3b 36 c5 cd bd
       0.08455515 0.11158934 0.005080514 -0.100473806
000140 7d bf e4 3d 18 08 58 bd 93 30 04 3d f2 1f 60 bc
       0.11169336 -0.052742094 0.032272886 -0.013679491
000150 eb cc 0c 3b 1e e5 df 3c 2a e9 5e bb 91 db 03 bc
       0.0021484445 0.027330931 -0.0034013488 -0.008047954
000160 a8 f1 42 bd 87 7f 21 3b 38 43 4a bc 86 82 f4 bd
       -0.047593743 0.0024642663 -0.012345128 -0.11938958
000170 62 cf a3 bd cd 60 c8 3c 40 b7 aa 3d 10 fb 2b 3c
       -0.079985395 0.02446022 0.083357334 0.01049687
000180 f6 53 c4 3c 81 11 84 3b d5 ef aa 3d ed 36 cf 3c
       0.023965817 0.004030407 0.083465256 0.025294745
000190 0e ef 86 3c 50 98 82 bd ac 07 dc bc d2 3e 35 bd
       0.016471412 -0.063767076 -0.026859127 -0.044249363
0001a0 76 42 84 3d 25 7c bc bd 6d e9 4f bd f2 1b 82 bd
       0.06457989 -0.09203366 -0.05075972 -0.063529864
0001b0 65 3a 38 3c 49 ee 8f 3d 4d 2e 93 bc 8d 3f 6e bd
       0.011244391 0.07027871 -0.017966414 -0.058166075
0001c0 da a3 40 bc bf 52 e4 bd bc d3 71 bd 81 aa aa bd
       -0.011757815 -0.11148595 -0.059039816 -0.08333302
0001d0 cb d9 0b 3d c3 4d ae bd b7 91 c0 3d f2 3d 24 bc
       0.03414325 -0.085109256 0.09402793 -0.010024535
0001e0 c2 db 13 3c 24 8c 0f bd 7a e7 98 3d 50 45 6b bd
       0.009024562 -0.035045758 0.07466026 -0.05743915
0001f0 d5 1f d3 bc 2a cc ac bd 49 6c 52 bd 3f 59 5f bd
       -0.025772015 -0.08437379 -0.0513728 -0.05452847

action_head.weight f4 [11, 128]
000000 db 77 49 be c9 72 56 3e f0 22 ad be d4 d8 ac bb
       -0.19674627 0.20942225 -0.33815718 -0.0052748714
000010 04 aa df 3e 3b 30 06 3d 09 34 2c be 9d 2e 17 be
       0.436844 0.03276084 -0.16816725 -0.14763875
000020 16 d6 38 3d 0d 2d bb 3e f1 b0 8f 3d ec 8e b9 3e
       0.045126043 0.3655781 0.07016171 0.36241853
000030 5b e8 cb 3e 14 a1 8f 3e 08 c2 9f 3d e4 a3 da bd
       0.3982571 0.2805258 0.078006804 -0.10675791
000040 56 5d 46 3e e5 86 0d 3e 2a 36 29 be 1c 16 86 3e
       0.19371542 0.1382099 -0.16524568 0.26188743
000050 96 6f 9e bd e0 e0 dc 3d 5c 36 58 be 22 80 06 be
       -0.07736127 0.10785079 -0.21114486 -0.13134816
000060 be 3e c8 3d 17 a1 3d bd ec 53 5c be c2 8e 2e bd
       0.09777592 -0.046296205 -0.21516389 -0.042616613
000070 c8 02 16 be 09 d5 12 be 7d b2 00 be 10 ad a0 3e
       -0.14649498 -0.14339079 -0.12568088 0.31382036
000080 39 05 97 3d 9b 31 8e 3e 44 f5 55 3b 5b e1 93 bc
       0.07374043 0.2777222 0.003264741 -0.018051794
000090 04 98 b3 bc d7 bc 96 3e a0 2e ff bc 42 60 c2 3e
       -0.021923073 0.29440948 -0.031150162 0.37964064
0000a0 2f 8f 86 be bc 7d 9e 3e 3f 42 19 be ab 7d 25 be
       -0.26281115 0.30955303 -0.14966677 -0.1616122
0000b0 91 8d db 3d d2 57 8a 3e cb 66 05 3e 01 37 32 3e
       0.10720361 0.27020127 0.13027494 0.17403795
0000c0 23 bb 86 3d 52 55 ae 3d d4 ad 78 bc bd f8 bd 3d
       0.06578662 0.08512367 -0.015178163 0.09275959
0000d0 31 81 38 3e 7e 40 7e 3e dc 71 ff 3d 07 fa 52 bc
       0.18018033 0.2482929 0.12472889 -0.012876994
0000e0 87 b8 da bd fa 1a 3c be a1 40 bd 3d d6 91 41 be
       -0.10679727 -0.18369666 0.092408426 -0.18903288
0000f0 85 ff 5d be 23 2b 34 3e 2e 02 76 3d fc 8f 6a be
       -0.21679504 0.1759458 0.060060672 -0.22906488
000100 92 86 e7 bb 85 fc 4a be e4 3f b4 bb 88 b8 80 3e
       -0.0070656026 -0.19822891 -0.0055007804 0.25140786
000110 4b a3 42 3d 42 53 68 bd 37 04 c2 3d d2 3b 81 3e
       0.04751901 -0.056720026 0.0947346 0.25240952
000120 ac 2f 34 be 0f 20 64 be bf 01 62 3d c9 a3 58 3e
       -0.1759631 -0.22277854 0.055177446 0.21156229
000130 e6 33 ee 3e 8f ee 33 bd 38 34 57 be 4e 16 72 be
       0.4652397 -0.04392868 -0.21016014 -0.23641321
000140 2f d5 2b 3e f0 b3 c0 3d 8b c8 42 be 1b fa 07 3e
       0.16780542 0.0940932 -0.19021814 0.13279001
000150 16 58 42 3d ca 13 39 3c c3 32 91 3e 9d ed 27 be
       0.047447287 0.011296222 0.2835904 -0.16399236
000160 d7 26 de bd be 45 12 3e db 79 40 bd c2 3e ae bd
       -0.10847252 0.14284417 -0.04699121 -0.08508064
000170 ab de 83 3d 3d a1 05 3e ed 28 91 be cf 12 ea bd
       0.06438955 0.13049789 -0.28351536 -0.11429369
000180 d0 4b 21 3d 8e 3a e2 bd 7d f1 13 be c3 75 f1 bd
       0.03937894 -0.11046325 -0.14447589 -0.117900394
000190 1d 6e 1e 3e c0 03 b0 3e 83 b9 94 3e 21 43 3e 3d
       0.15471692 0.3437786 0.29047784 0.046450738
0001a0 fe 2e 0b be 23 4f 11 bd 8f 44 81 3d cc ed 33 3e
       -0.13592145 -0.03547586 0.06311905 0.17571181
0001b0 ec ce 9b bd 56 d5 8c 3e 19 b5 b2 3d 80 88 b0 bd
       -0.076078266 0.27506512 0.08725948 -0.08619785
0001c0 3d 14 49 be c2 00 03 be 51 3d 52 be 13 8d a5 3d
       -0.19636627 -0.12793258 -0.20531203 0.080835484
0001d0 bc 27 81 3e 94 ab 10 3e c6 e3 8f 3e 4a 83 73 3e
       0.25225627 0.14127952 0.28103465 0.23780552
0001e0 c5 57 d1 3d bf 0c b7 bc 0c c1 54 be a3 3a 04 be
       0.10221819 -0.022344945 -0.20776767 -0.12912993
0001f0 e2 c6 f2 3e b5 ae 91 be 23 5e 96 be 5c 4e 92 3e
       0.4741736 -0.28453603 -0.29368696 0.28575408
000200 07 33 bc 3d 37 27 65 bc c2 84 85 3d f5 d6 3b 3e
       0.0918942 -0.0139864 0.06519462 0.18343718
000210 30 c1 c3 be d1 b4 71 bd f9 3b 21 3e 39 cd 1d 3e
       -0.38233328 -0.05901033 0.15745534 0.15410317
000220 8b e3 32 3e 9e ef 8a bd 7f 77 52 be 56 23 b4 3c
       0.17469613 -0.067839846 -0.20553397 0.021989506
000230 20 d9 99 be ce 86 3a be 14 76 a2 3d 8d 1d 54 3d
       -0.30048466 -0.18215486 0.07932678 0.051785994
000240 09 9c 82 3e 7f ca d7 b9 b1 2f 5e 3e 9c 93 c1 bd
       0.2550967 -0.00041158867 0.2169788 -0.094519824
000250 18 89 45 3e a2 8e 5d 3e e3 70 f2 bd ee 80 db bd
       0.19290578 0.21636441 -0.11837938 -0.10717951
000260 8d c6 ef bd d1 0a a4 bd 69 d9 68 3e 93 cc 9d 3c
       -0.117077924 -0.080098756 0.22739185 0.019262588
000270 9e ee 8e bc 50 34 34 3c ac 3f 52 3e 2d cc 60 bc
       -0.017447766 0.0109988 0.20532101 -0.013720554
000280 bf ec 47 3e 86 71 36 bc f0 75 47 be e0 a1 73 3e
       0.19523905 -0.0111354645 -0.19478583 0.23792219
000290 f2 ce 4f 3e e4 2f 30 3e b6 bc aa bc 96 ab ae bd
       0.20293787 0.17205769 -0.020841938 -0.08528821
0002a0 cf f3 0f 3d 16 cf 43 bd b8 c4 fc 3d 84 66 83 3d
       0.035144623 -0.047804914 0.123422086 0.06416038
0002b0 4d dd 49 3e 29 a2 a3 3e c7 53 93 3e 35 a9 96 be
       0.19713326 0.31959656 0.28774855 -0.2942597
0002c0 64 85 91 be d7 01 e9 bd b2 f4 be 3c c3 68 59 3c
       -0.2842208 -0.11377304 0.02331004 0.013269606
0002d0 4d a7 0d 3e af 1a 22 be 7c 99 73 be 26 05 1f 3e
       0.13833351 -0.15830491 -0.23789018 0.15529308
0002e0 3d a2 c2 bd 98 ea af bb 14 4c 17 be 8c f7 98 3d
       -0.09503601 -0.005368542 -0.14775115 0.07469091
0002f0 54 e6 fc 3d 31 d0 38 bd af 50 90 bd a1 4a 0c 3e
       0.12348619 -0.04512042 -0.07046639 0.13700344
000300 75 93 e5 3d a4 42 57 3e 9c 43 87 3e 83 3d 74 ba
       0.11209766 0.21021515 0.2641877 -0.0009317027
000310 53 fc ed bd 01 95 8c be 73 83 67 be 22 05 93 3e
       -0.11620393 -0.2745743 -0.22608738 0.28714854
000320 23 b1 4a 3e 9a 44 71 bd 92 1c 0a be 2d 7c 9d 3e
       0.19794135 -0.058903314 -0.13487461 0.307588
000330 76 e0 9f be 99 54 8c be 52 dd 67 bb b4 77 d6 3d
       -0.31225938 -0.27408293 -0.003537972 0.1047205
000340 e8 a5 06 3e c0 28 51 3e 9e 89 36 3e 2c 57 93 3e
       0.13149226 0.20425701 0.17825934 0.28777444
000350 21 d3 c0 be ff 24 24 3e 78 ee 1d 3e ec 6a d4 3c
       -0.3766108 0.16029738 0.15423 0.02592989
000360 29 63 25 3c 86 fd 81 3d 05 b7 86 bc 85 ab ed 3d
       0.010094442 0.06347184 -0.016444692 0.116049804
000370 4d bc 9d 3e e6 cf d8 3d 1d 58 02 be 2d 27 6e 3b
       0.30807725 0.105865285 -0.12728925 0.0036339269
000380 14 61 61 3e af c5 a9 3d 62 c6 b3 3d ec 1a 9c bd
       0.22009689 0.08289658 0.08778073 -0.076223224
000390 a8 c6 09 3d d0 76 e6 bd 5e dd c7 bc 95 57 42 3e
       0.03363672 -0.112531304 -0.024397548 0.18978722
0003a0 66 07 9f bd f3 69 31 3e 66 48 b2 be 45 e2 15 3e
       -0.07765083 0.17325573 -0.3482086 0.14637096
0003b0 71 c4 e6 bd d6 3a 69 3e 22 ba 47 3e 15 a8 0e 3e
       -0.11267937 0.2277635 0.19504598 0.13931306
0003c0 db 6b 44 3e c6 bd 02 3e 90 15 50 3e a4 02 29 bd
       0.19181769 0.12767705 0.20320725 -0.041262284
0003d0 78 c4 ad 3d 7a 18 c8 bd d7 46 46 3e 67 5b b5 3e
       0.08484739 -0.097702935 0.19362961 0.35421297
0003e0 e5 2e ec bc cd a2 3b 3e ff b0 1c 3e 67 b7 1a 3e
       -0.028830955 0.18323822 0.15301894 0.15109025
0003f0 04 99 06 be 9e 00 36 3e b7 75 31 3e 59 15 58 be
       -0.13144308 0.17773673 0.17330061 -0.21101893

action_head.bias f4 [11]
000000 2c 34 da 3c 2f 69 eb 3c 9d d0 dd 3d 2d eb b3 3d
       0.026636206 0.028736679 0.108308055 0.087850906
000010 6a c3 1f 3c 05 ef 05 bd d6 93 a3 3c 17 ef 98 bb
       0.00975118 -0.03269865 0.019967955 -0.0046671736
000020 e0 d1 c7 3c 18 2b 50 3b f0 07 63 bc
       0.024392068 0.0031763967 -0.013856873
