alg/discrete_action/param/net_param/actor_net1-8-5000-1739960890.pkl (torch, 86208 bytes, 6 tensors)

fc1.weight f4 [128, 24]
00000000: 0dcd 69be feeb 8dbb 6114 c83d 987e 77be
00000010: dcf0 993d b40f 473b b4d1 913e f638 e2bd
00000020: 8fd1 1a3e d915 003e 2685 0bbe 2c6f 783e
00000030: a994 ed3d 3b3b 4fbd 246b 293e 2689 41be
00000040: 1ca8 c83d 14e0 c9be 6785 78bd b8d6 113e
00000050: 8515 76bc c9a6 d63d a4c9 cabd 45b5 223c
00000060: 6d2e ac3e 4229 ce3d c127 503e 090e 19bd
00000070: 9f1c 78be b2a6 5e3e ee5c 2cbe f466 ec3d
00000080: ed11 febc f047 48bd a4c1 c83d 0934 713d
00000090: f31d 96bd 0341 493e 65f8 293e 1434 9ebc
000000a0: 11de b13c 4446 803d 371e c3bd adf8 04be
000000b0: bbfc 07be 4a88 40be c3ba 103e 954c dbbd
000000c0: a8ba 2dbe 6192 c63c 539a 103e acd0 a23c
000000d0: 1e69 83bd ab3f b43c d607 a53c 12bf 6d3d
000000e0: 58fe 94bc 03c7 eebd 3dde c83c f471 e13d
000000f0: 8533 c03d c1fe 023e 2858 b6bc 796f 133d
00000100: 0ae2 a63d 2e69 a13b aef9 cc3d 5c1b 983d
00000110: b11f 453d 1cdb ca3e defc f53d 6566 533c
00000120: 6148 953e d1f3 8b3e 786b f3bc 363a d23c
00000130: 727a 103e d65e 093b 25c2 9e3d ca01 2d3b
00000140: 7ded 863b 60d3 91be d184 b83d eef8 083e
00000150: b44b 2e3d 78a4 9a3d 2d81 ed3b 1dfa c93c
00000160: 81e5 f53d 152f f8bd bb67 1b3e 4fa7 443e
00000170: e022 a23d 3ee3 3abe 9d62 e9bc 783c 493e
00000180: 31cf 24bd c439 4d3e 8744 0d3e a585 6cbf
00000190: c830 93bd 4ac8 b2bc e319 81bd 04ed c3bc
000001a0: 39ab 493e 6e15 ebbe 45e0 fb3c 7ae8 90bd
000001b0: 3945 38bd 54ca 373e 53e1 febc 3c4c e7bc
000001c0: 33f2 f53d 780e 6f3d a3a7 ab3c 4f8b 47be
000001d0: 7c95 6a3d 2456 843e 4496 9c3d c10b 723d
000001e0: c924 02bf c827 3cbe 1067 68be f8ea 3b3e
000001f0: 2b77 18bf 0865 36be 94a2 27bd 3895 37be
00000200: e56b 053e 0866 563d 7c8f ae3d 884f f93d
00000210: 9fa3 b3bd 0900 133e 1a28 9f3d f8c6 69be
00000220: ecc9 903e bc18 143e 320a 8bbd 84f9 f53c
00000230: 11c1 89bd a5ae 343d 2b0c 29be 8c74 dfbd
00000240: fbc2 b43d f2b8 0f3e d4bf 91bd e761 7b3e
00000250: a189 ac3d 0756 693e c15c 893d 3b9b ecbd
00000260: 70ad 453e 66c6 7a3e f178 8e3c 42c1 fd3d
00000270: 94d1 b43d 798c 42bd 6f1a e23d 8dfb 28bd
00000280: cf10 c33d fd87 0dbf 0883 8e3c 4c80 053d
00000290: 276f 5a3e e198 d33d d71f dcbc f1d2 f23c
000002a0: 2a2d bdbd eab0 313d 74af ab3d a408 27be
000002b0: ffe3 c0be 27ab 0a3e eda8 82be bb9e 8a3d
000002c0: 79af 0dbd ba25 1a3e 5f46 473e 76ca 8bbe
000002d0: 9211 4e3e 60a1 dcba d04f e73d b3df 2f3d
000002e0: 5105 173d a08c 17be 2fbc 883e f6c9 b7bd
000002f0: 2251 5f3e 523f 053e f880 843e 7649 0b3e
00000300: 13df 12bf 46bb 563c 7e60 8fbe 31e4 813d
00000310: 0d9c 4f3e 1587 0abe 1dd2 0fbe be6c 15be
00000320: e48a e23d 9c14 2d3d 798f 4fbd 42e6 51bd
00000330: 7185 c0bd 585e adbd ff7d 06bd f8b4 e3bd
00000340: 0843 903e 97e8 7ebc 1aad 263b 2ca7 233b
00000350: a087 e13d 133f 4ebd 9a77 dfbc 72c2 1cbe
00000360: 6b84 673e ca64 2b3e 9f26 043e f532 a33d
00000370: 6349 39bd 7efa 133d a1b2 02be 30d4 11be
00000380: 958e c83d 1f75 ef3d bd7a d83d c72b 6c3c
00000390: 814a 913d 4672 923d db08 1f3d 4188 98bd
000003a0: 3a72 af3d 53c6 41be 558b fcbd 59a4 b33b
000003b0: 850f cc3d 20e5 84be 2ee3 03be 8204 1bbc
000003c0: 57fe 9abe e5ca c7bd 78bc 44be 061b 2abe
000003d0: 9898 c93c 405c 16bb 043f 803e 0a76 8b3e
000003e0: a5d2 0f3e 454c 9bbd b76f 3fbd 79c0 40bd
000003f0: 3bc7 8a3d 012e 433c 466b ebbd e476 85bd
-0.22832127 -0.004331111 0.09769512 -0.24169385 0.075166434 0.003037435 0.28480303 -0.11046021
0.15119003 0.12508334 -0.13625011 0.24261159 0.1160062 -0.050593596 0.16544777 -0.18899974
0.09797689 -0.3942877 -0.060674097 0.14242065 -0.015019779 0.104810305 -0.09901741 0.009930913
0.3362917 0.10066463 0.20327665 -0.0373669 -0.24229668 0.21743277 -0.16832325 0.11543074
-0.031014407 -0.04889673 0.09802559 0.058887515 -0.07329931 0.19653706 0.16598661 -0.019311942
0.021712335 0.06263402 -0.095272474 -0.12985487 -0.13280003 -0.1880199 0.14133744 -0.10707966
-0.16965735 0.02423972 0.1412137 0.019874893 -0.06416534 0.022003016 0.020145338 0.058043547
-0.018187687 -0.11659052 0.024520034 0.11008063 0.093848266 0.12792493 -0.022258833 0.03599498
0.08148582 0.0049258685 0.1000856 0.074270934 0.048125926 0.39620292 0.12011121 0.012902831
0.29156783 0.27334455 -0.029714331 0.025662523 0.14109209 0.0020961068 0.07751874 0.0026398771
0.0041176663 -0.2848158 0.09009708 0.13376209 0.042552665 0.07550901 0.007248065 0.024655396
0.12006665 -0.12118355 0.15176289 0.19204448 0.07916808 -0.18250749 -0.028489405 0.19651973
-0.040236656 0.20041567 0.13795672 -0.92391425 -0.07187039 -0.02182402 -0.063037656 -0.023916729
0.19694223 -0.45914787 0.030746588 -0.070755914 -0.04498789 0.17948276 -0.031113302 -0.028234594
0.120090865 0.058363408 0.020953959 -0.19486736 0.057271466 0.2584697 0.076458484 0.05909324
-0.5083738 -0.1837455 -0.22695565 0.18351352 -0.59556836 -0.17811978 -0.04092653 -0.17928016
0.1302944 0.0523434 0.08523461 0.121733725 -0.087714426 0.14355482 0.07771321 -0.22829807
0.28279054 0.1446256 -0.06789054 0.030026205 -0.067262776 0.044111867 -0.16508548 -0.109109014
0.08826252 0.14035395 -0.071166664 0.24549066 0.08424688 0.22786723 0.067071445 -0.11553045
0.19304442 0.24489745 0.017391654 0.123903766 0.08829036 -0.047497246 0.11040198 -0.041255523
0.0952469 -0.55285627 0.017396465 0.032593057 0.21331464 0.10331894 -0.026870651 0.0296416
-0.0923713 0.04338161 0.083830744 -0.1631189 -0.37673947 0.13541852 -0.25519505 0.06768557
-0.034591172 0.15053454 0.19460438 -0.27302903 0.2012389 -0.0016832761 0.1129452 0.042937946
0.036870304 -0.14799738 0.26706073 -0.08974068 0.21808293 0.13012436 0.25879645 0.13602242
-0.57371634 0.013106173 -0.28003305 0.06342352 0.20274372 -0.13528092 -0.14044996 -0.14592263
0.110616475 0.042255983 -0.050673936 -0.05124498 -0.09400452 -0.0846526 -0.032835003 -0.111185014
0.2817614 -0.015558383 0.0025432766 0.0024971468 0.110121965 -0.05035312 -0.02727871 -0.1530855
0.22609107 0.16737667 0.12905358 0.07968704 -0.045236003 0.03612756 -0.12763454 -0.142411
0.0979282 0.11692261 0.105702855 0.014414734 0.070942886 0.07150702 0.038826805 -0.07447863
0.08566709 -0.18923311 -0.12331263 0.0054822383 0.099638976 -0.25956059 -0.12879631 -0.009461524
-0.3027217 -0.09755496 -0.1921252 -0.16611871 0.024608895 -0.002294317 0.25048077 0.27238494
0.14045198 -0.07582907 -0.0467374 -0.047058556 0.067762814 0.011912824 -0.1149507 -0.06516817

fc1.bias f4 [128]
00000000: 2b09 5f3e 5eb9 813e 69b3 6abe 0e7c 30be
00000010: d366 c53d f6b7 46be 55db c23c 8e60 73bd
00000020: d288 4ebd 305c 203e 651d c63c d4cb 4f3e
00000030: 467c aebc ceea 523e d1e1 213e c3c8 5cbd
00000040: ea9b aabd c089 853e 51b4 2abe 83d8 4d3e
00000050: c465 1c3e 3aaf 3b3c 8916 81bc aa50 06bd
00000060: 3110 293c f4d4 3a3d 2fc1 66bd 1b88 493e
00000070: 80e6 a7bd a614 33bd 080e 3c3e f4e6 e0bc
00000080: 8ddd 993e bc43 8abd d5bd 41be f1bf a53e
00000090: 458c 333e a130 3b3d 98b7 dbbd ced0 2cbe
000000a0: ce87 a6bd 717d ff3b 4adb 82bc 2126 bdbc
000000b0: c008 783c 8c5a 81bc 2a85 283e a85b 1b3d
000000c0: 2d9f 973e 919d 0fbe 59b6 23be 6acf 9bbd
000000d0: 4f3b 113e a88a fdbd 2fb1 613e 548a 0b3b
000000e0: 029d 493e bae1 803d d80b d6bd 7891 c63d
000000f0: bf78 a23c c999 44be 8e93 f03d 4483 203e
00000100: 6afa a63c fc07 0f3d 571d 80bd e2b4 2e3e
00000110: ef0f e0bd bade 833e 5e10 843e 67f0 ce3d
00000120: 723d 19be e5f5 abbd 3dba 02be bdab 753e
00000130: 0e4c 18be d8ef 31be b553 89bd 9384 a93d
00000140: 3ae8 1ebe 7842 dbbd 8ced 48bc 748a 7c3a
00000150: 9aae 203e a30e 7d3d d334 80be fe36 17be
00000160: 7c3a fb3d f4c0 35bd 291e 08be 9aac 403d
00000170: c543 97bd 98ed a9bd ffc3 fc3c 15a6 e5bd
00000180: 0867 fdbd ea80 e23d a1ad 46be ba07 1bbc
00000190: bf4d da3d cd59 f4bd 5d8c b53c 9544 0fbe
000001a0: 3b21 f63c d9d8 463d 2fe7 c63d 321d 5dbe
000001b0: f6ad c7bc 1469 e23d cba1 19be 061e 823d
000001c0: 0b64 2bbd e3fc 4d3e 827f ebbc e402 cfbc
000001d0: 02a6 d73c 3b31 b8bd 5fb6 10bc 92dd 43be
000001e0: edd6 813e 4e6c 3a3e 2bd7 40bb 4d48 393d
000001f0: 962e 70bd 0a74 7f3c e682 593d ff2f 44be
0.21780841 0.25336736 -0.22920002 -0.17234823 0.09638753 -0.19406113 0.023786226 -0.059418254
-0.05042345 0.15660167 0.024183938 0.20292598 -0.021299493 0.20597383 0.15808798 -0.0539024
-0.083305195 0.26081657 -0.16670348 0.20102124 0.15273196 0.0114553515 -0.015757816 -0.03279177
0.010318802 0.045613244 -0.056336578 0.19680826 -0.08198261 -0.043720864 0.18364727 -0.027453877
0.30051842 -0.067512006 -0.18920071 0.32373002 0.17533977 0.045700673 -0.10728377 -0.16876528
-0.081313714 0.007796936 -0.015973706 -0.02308947 0.015138805 -0.015790246 0.16457048 0.037929207
0.2961363 -0.1402495 -0.15987529 -0.076079205 0.1418278 -0.12379962 0.22040246 0.0021292167
0.196888 0.06293054 -0.10451478 0.09695715 0.019832967 -0.1919929 0.11746894 0.15675074
0.020383079 0.034919724 -0.06255596 0.17061189 -0.10940539 0.25755864 0.25793737 0.10104447
-0.14964846 -0.0839651 -0.12766357 0.23991294 -0.14872763 -0.1737665 -0.06705419 0.0827724
-0.15518275 -0.10706037 -0.012263667 0.0009633668 0.15691605 0.061781537 -0.25040302 -0.14767072
0.122670144 -0.044373468 -0.13292755 0.047039606 -0.07385973 -0.082972705 0.030855177 -0.11213318
-0.12373167 0.11059745 -0.19402172 -0.009462291 0.1065936 -0.11931191 0.022161657 -0.13991006
0.030045142 0.048546646 0.097120635 -0.21593168 -0.024374943 0.11055198 -0.15003125 0.06353383
-0.041843455 0.20116 -0.028747324 -0.025269933 0.026324276 -0.08993765 -0.008832543 -0.19127491
0.25359288 0.18205377 -0.0029425125 0.045234967 -0.058638178 0.015591631 0.05310335 -0.19158934

fc2.weight f4 [128, 128]
00000000: 10f1 ebbd b01d d33d ccda d2bd f855 dabc
00000010: c0ca 863e c480 dabd c5ea e53c 1a8e 523e
00000020: eb52 76be 0416 3cbc b958 8d3b 5004 bcbc
00000030: 82e9 703e 2b63 5f3d a787 06bd f531 0fbd
00000040: ef80 41bc 125f b4bd 706b 963e bed4 cfbe
00000050: 0afe 7ebd d0d1 1e3e 17f2 2ebf d3d4 91b7
00000060: a047 043e e456 a93c 5ff7 ca3c 21a6 063d
00000070: dd99 a83d 2b10 303d f007 cc3d 1457 8f3e
00000080: 55c8 963d b43c 0e3d ed1e 3fbd 3000 e23d
00000090: 1606 82bd 1df0 6f3e dbb9 eabc 31ab 19be
000000a0: 6840 143d 7c84 b7bc 2b9d 473d 5065 8bbd
000000b0: 4af9 133d e193 d73d 5903 cd3c c7b1 4a3c
000000c0: 99bb 23be b14d 643d fd3b d3bd 318a ee3d
000000d0: f226 923e 443b a9be c96d d2bd a095 e33b
000000e0: 8ca8 e93c 1a48 f13d 3261 26be fc60 8e3e
000000f0: b833 7bbc 6496 d73e 4ed9 aa3c be23 78be
00000100: 0481 c8bd a7a5 c73e 6c0b 66be 8350 68bd
00000110: f868 3f3e f360 a73c 87a2 313d f966 e03d
00000120: f3cf 3cbd 2184 9a3d 0c21 d83d d1e7 1a3c
00000130: 8c20 44bc cd26 3bbd fa8d e9bd 0885 d7bd
00000140: 95d3 4f3e 0c4e 3e3e 911a 813d d042 983e
00000150: f336 efbd 8236 17be 3627 4ebe cebf 9c3d
00000160: 548a 863d b8ad e9bd 6817 e8bd 4796 4e3e
00000170: 000a 923d c37e 203c 2f1f 423d 1b19 18be
00000180: 332a 423e 7e1d c43d a27c 8bbe 8265 853d
00000190: 50db cabd b1d0 9abc c5e6 e7be cd21 c4be
000001a0: 12ed bf3d 6971 873d fb50 45be 0d89 39bf
000001b0: 79e1 243e d8dc 903e e40c 91bd 11f3 fd3d
000001c0: 12c8 673e 9423 d33d 999b 1f3b b952 43be
000001d0: 7bef bbbe 4fb2 0abd af0e f53d 9394 3d3e
000001e0: e340 edbd 5e7a e4ba 0ff6 07bd 6314 223e
000001f0: 253c 49bd 9b2f 133d 115a f2bd 424c 5c3d
00000200: 6aa8 1f3e e9f0 fbbc 27af 95bd 09dd dabd
00000210: b453 8bbe fa33 dd3c fcd8 2d3e e42b 2fbc
00000220: dc5d 5d3d dee1 543e 5add 563d 8caf 323e
00000230: 9cec e9bc fd9c 3f3e c0d0 163e d824 c4bc
00000240: 6975 013e 48ec 003d 9a41 38be 1ba1 9b3e
00000250: 60ee f03d 3fb7 203e 681a 5a3f 3676 d93c
00000260: b32c 18be b9e0 53bd 6fed 6bbc 069e 523e
00000270: b51a 9cbd 0abf eebb 0aff 05bd 54ac eabe
00000280: 0639 883e 1f46 273c 4769 063e 326a b639
00000290: 79e2 12be 5cfc eebd 58cc 52be 7894 b6bc
000002a0: 8d1b 3e3e 8176 4c3e 472a e03d 67af 203e
000002b0: f6c0 593d bfec a5bd 8031 20bd 0790 223e
000002c0: 2162 443e 5e5c 503d 837c 703c e674 48bd
000002d0: c34f 8c3d f0f9 ab3d 43c7 6dbc 8ce2 f73d
000002e0: d32f 083d ee60 9dbb 615d db3d 747c 663d
000002f0: 4648 2fbe 7b65 83be eff7 dc3c 8a5f eb3e
00000300: e81b 7dbd e5de 9abd 6a55 313e 2fc2 263e
00000310: a728 91be ce34 4dbd 141d 4abd d8f8 dcbd
00000320: 8b56 c33c 6900 19be 41c9 ee3d 5058 263d
00000330: 4a4d 1c3c 87ad 58bc a540 12bc 4da6 aebd
00000340: 581a 7a3d a47b 3abd 3c7b 20be 2098 5ebd
00000350: 5396 233d 785e 803e 2345 99bd 5b5c fbbd
00000360: 402e b8be 529d 393e 4641 aa3e e856 8fbd
00000370: cbc8 153e 712b 803d bfb2 cabd 4f05 ec3b
00000380: d9e6 08be 993f bc3e a6a0 283d 1555 833c
00000390: 34b6 ddbd 1324 0dbe effc a1bc cad6 3c3f
000003a0: bdbf e1bc c575 08bd a95b 443e 59c2 2a3f
000003b0: b4d6 4fbd 32c7 cc3c 6d58 d1bc b36d 9abc
000003c0: a25a 08be e2f3 493b 2686 bdbd 445f 20be
000003d0: b7c5 ba3e fda9 cc3d f30e a03d 11bf ddbe
000003e0: 3bd9 07bd 7407 993d d94a cdbd df2c a63d
000003f0: 570d 0e3e 5f0e 7cbc 784e 653d a972 2cbe
-0.115205884 0.10308397 -0.102956384 -0.026652321 0.2632656 -0.10669091 0.028066048 0.2056202
-0.24055068 -0.011479858 0.004313555 -0.022951275 0.23526576 0.054537933 -0.032844212 -0.034959752
-0.011810525 -0.08807196 0.29378843 -0.40591997 -0.06225399 0.15509725 -0.6833815 -1.7384451e-05
0.12917948 0.020671315 0.024776159 0.032873277 0.08232472 0.04298417 0.099624515 0.27996123
0.07362429 0.03472586 -0.046660352 0.11035192 -0.06348817 0.2343144 -0.028653076 -0.1500671
0.036194235 -0.02240204 0.04873387 -0.06806433 0.036126412 0.105262525 0.02502601 0.012371487
-0.15989532 0.055738155 -0.10314176 0.11647452 0.28545338 -0.3305303 -0.10274846 0.006945327
0.028522752 0.117813304 -0.16248015 0.27808368 -0.015332155 0.42106926 0.020855572 -0.24232385
-0.09790233 0.3899357 -0.22465295 -0.056717407 0.18692386 0.020431971 0.04336789 0.109571405
-0.046096753 0.07544733 0.10553178 0.009454683 -0.01197065 -0.0456913 -0.11404033 -0.105234206
0.20295556 0.1858446 0.06303895 0.29738474 -0.116804026 -0.14766887 -0.20132145 0.07653771
0.06569353 -0.11410087 -0.113325894 0.20174514 0.071308136 0.009795847 0.04739302 -0.14853327
0.1896141 0.09575938 -0.27243525 0.06513502 -0.09905112 -0.01889834 -0.4529325 -0.38307038
0.093713894 0.06613428 -0.19269173 -0.7247475 0.16101636 0.2829349 -0.07082537 0.12399877
0.22634915 0.1030952 0.0024354218 -0.19074525 -0.36706147 -0.033861455 0.11965691 0.18513708
-0.11584642 -0.0017431488 -0.033193644 0.1582809 -0.049129624 0.035934072 -0.11833585 0.053783663
0.15591589 -0.030754523 -0.07308798 -0.1068669 -0.27212298 0.027002323 0.16977304 -0.010691617
0.05404459 0.20789286 0.05245719 0.17449778 -0.028555207 0.1871223 0.1472807 -0.02394335
0.12642445 0.031475335 -0.17993775 0.3039635 0.117642164 0.15694903 0.8519654 0.026545625
-0.14860801 -0.051727984 -0.01439987 0.20568094 -0.076222815 -0.007285957 -0.032713927 -0.458346
0.26606005 0.010209589 0.13126098 0.00034792867 -0.14344205 -0.116692275 -0.20585763 -0.022287592
0.18565197 0.1996708 0.10945564 0.1569191 0.053162538 -0.08101796 -0.039109707 0.15875255
0.19178058 0.05086934 0.014678123 -0.048939608 0.06851151 0.08397281 -0.01451284 0.12103757
0.033248734 -0.0048028147 0.1071117 0.05627103 -0.17117414 -0.2566336 0.026973693 0.45971328
-0.06179419 -0.07562045 0.17317739 0.16285013 -0.28351328 -0.050099187 -0.049344137 -0.10789651
0.023844978 -0.14941563 0.1165948 0.040611565 0.0095399115 -0.013224966 -0.008926545 -0.08527813
0.06106028 -0.04552807 -0.1567201 -0.054344296 0.039938282 0.25072074 -0.0748389 -0.12273475
-0.35972786 0.18126419 0.33252925 -0.06998998 0.14627378 0.06258286 -0.09897374 0.0072027813
-0.13369311 0.3676727 0.04116883 0.016031781 -0.10825768 -0.13783292 -0.019773928 0.7376524
-0.027557248 -0.03331544 0.1917559 0.667028 -0.050741866 0.024997327 -0.02555486 -0.018851137
-0.13315824 0.0030815531 -0.092541024 -0.15661341 0.3647897 0.0999336 0.07815351 -0.43309835
-0.03316615 0.07472125 -0.10024042 0.08114027 0.13872276 -0.015384286 0.055983037 -0.16840614

fc2.bias f4 [128]
00000000: 32cd 323d 65cb db3d 4ac6 e63c d4ac 98bd
00000010: 42f6 043e 9f4d 70bd 7509 3f3e b618 07bd
00000020: dc3d 9d3d 0d5b d23d e447 b83c c3d3 eebd
00000030: 8e78 803d 9ef9 07be 08fe 49bb 3cfd 33bd
00000040: 3509 ddbd 649a c1bd a907 e1bd b953 efbd
00000050: 5f0e aa3d 74e3 623d abeb 5fbd 3ef8 52bd
00000060: 06ff 43bd a3e9 003e 9868 343d c662 863d
00000070: 20c3 a63d 5d8a 913c d4d4 af3d cb9b 4dbc
00000080: 42e7 ee3c 6b07 bdbc 8bae 89bd e354 5fbd
00000090: 8759 9d3d 60bc ca3c b459 ccbc 69fc 023e
000000a0: 1e1a 2d3c 0ec9 843d 68b4 60bd fa51 afbd
000000b0: 1a41 7abd d2eb e4bd f25d 963b 1712 81bd
000000c0: 0ef3 11bd 1f9e 71bd a428 b23a f7c0 27bc
000000d0: 12e2 28bc d118 863c d0fd 5e3c 64ee 733d
000000e0: 2184 92bd e718 3a3d 905f d13d 63f6 2ebd
000000f0: 23b4 df3d 134f de3d 395a cd3c 884d 6fb8
00000100: 87b3 a1bb 935a e43c 9393 4f3c 8235 7fbc
00000110: 9c92 47bd c043 963d 42ad 003c 8c28 bd3d
00000120: 595d 883d 007e fbbc 1ca8 e83c 09e3 df3c
00000130: cdc3 333c 4a25 f33d dacd 9bbc 31de 373a
00000140: 7a71 b93c 1ec2 81bd 4775 53bd 8e20 943d
00000150: a927 a9bd 09b3 683d ba2a c4bd 52ed 2f3d
00000160: c6ab e03d 7c35 6a3d 1f80 d2bd a8b6 e43d
00000170: c29d 073e c15b b33d ce85 3ebd d5b2 133e
00000180: 8f70 d43d 60d3 163d 06d1 42bc b185 b53d
00000190: a67c 1a3d 019d febd 7bd4 f23d 011c 9ebd
000001a0: a76d 0a3e 1f23 a0bd db9a 2dbd c17b a33d
000001b0: 2724 8ebc 5246 32bc ed3e a3bd e70c 5bbd
000001c0: b70e 14bd d495 e8bd c3e6 bf3b 8253 9c3c
000001d0: f1c0 943d 5d6a 603d 0ea2 2b3d 8d68 08bd
000001e0: 3d80 a03d b39c 43bd b5c1 50bc ea05 a8bb
000001f0: 3c70 b73c e7ae 573d 9d95 843c 4f48 a83c
0.04365272 0.10732154 0.028170723 -0.07454839 0.12984565 -0.058667775 0.18655951 -0.03298255
0.07677814 0.10271273 0.022495218 -0.11661484 0.06272994 -0.13278815 -0.003082158 -0.043942675
-0.10792772 -0.09453276 -0.10987789 -0.11685891 0.08303522 0.055392697 -0.05466811 -0.051506273
-0.04785063 0.12589125 0.04404506 0.06561808 0.08142686 0.017766172 0.085855156 -0.012549351
0.029163007 -0.023074826 -0.067227446 -0.054524314 0.076830916 0.024748027 -0.024945118 0.127916
0.010565309 0.06483661 -0.05485955 -0.08560558 -0.061097242 -0.11177792 0.004588836 -0.063022785
-0.035632186 -0.058988687 0.0013592434 -0.0102388775 -0.010307806 0.016369255 0.013610318 0.05955352
-0.07154108 0.045433905 0.10223305 -0.04271544 0.1092303 0.10854926 0.025067436 -5.7054247e-05
-0.0049347314 0.02787522 0.012669462 -0.015576722 -0.048723802 0.07337141 0.007853808 0.09236249
0.0665843 -0.03069973 0.028400473 0.027329938 0.0109719755 0.11872347 -0.019019056 0.0007014005
0.022637118 -0.06335853 -0.051625516 0.07232772 -0.08259518 0.056811366 -0.09578462 0.042950936
0.10970263 0.057179913 -0.102783434 0.111676514 0.13243774 0.08757735 -0.046514325 0.14423688
0.10373031 0.036822677 -0.011890655 0.0886339 0.03771653 -0.1243229 0.11856934 -0.07720185
0.13518392 -0.07819199 -0.04238401 0.079825886 -0.017351223 -0.0108810235 -0.079709865 -0.0534791
-0.036146846 -0.113567024 0.0058563664 0.019082788 0.07263363 0.054788936 0.041902594 -0.033302832
0.078369595 -0.047756862 -0.012741496 -0.005127658 0.022392385 0.052657034 0.016184622 0.020542292

action_head.weight f4 [9, 128]
00000000: 8504 5abd 7b28 3a3e e5ba 193e 7e47 9e3e
00000010: b807 23bf 16e6 f63b b580 2e3f c054 4a3e
00000020: 6a19 de3d d3a3 a33e 3cf9 423d d9ec 46bf
00000030: b54d 0dbf 26ae 94be 2cf9 3b3d 6b36 193e
00000040: 54e3 c33a 4ce3 1dbf 6117 b73d 8a14 1abf
00000050: 4f5f 8e3e 0e10 cf3e 557f 85bf b8e8 3d3c
00000060: dcca 673e 3d2a 3a3e a834 a53e 38ff a73e
00000070: 5ab9 d0bc 0365 803e c63e b5be 3f91 35bf
00000080: ee49 f6be a15d 90be 9062 15bf 5078 ebbd
00000090: 2fa6 1d3e c0b0 123d 6c97 1fbf b97d 563f
000000a0: 503f 993e df34 2d3f 8baf 0c3e 1abf 1fbe
000000b0: 5e9c 1abf 2cf8 e83e 84c4 a0bd 073b be3e
000000c0: de85 00bf a2d6 05bf 23a2 f3be e3bc 56bc
000000d0: 98f8 09bf 4ec3 b6be 6339 1abe 7603 213d
000000e0: 78f1 b63c 7b6a 1ebf 295d 203e 4140 a2be
000000f0: 1234 d53e 9bd9 9f3e a735 65be 4137 383e
00000100: 4a04 bc3e 3436 883e f283 ce3e 930b c23e
00000110: 1406 273e 5fd6 a33d 275c 843e 6e06 b3be
00000120: 7ff7 713d 60bc cbbe c548 3d3f 37f4 04be
00000130: 46e4 c4be af7c d3be c210 893e e3bf e83e
00000140: 4f9c c43e f37f 34bf 87ac f23d 0589 423e
00000150: d66e 56bf a560 c5bb 9415 d0be 714a 6f3f
00000160: b2f2 c93e cd86 e13c efb0 57bf fa65 f93e
00000170: 6e82 f63e 8351 883e 2627 523d bb9f 023e
00000180: 4eb8 6a3e 9dff 4c3e 17d1 873e e91b 5e3e
00000190: 86eb 4bbf 9193 3ebf 228a 463e aee3 27bd
000001a0: 09ca c63e e8ad fdbe 4117 69bf d287 8b3e
000001b0: fd45 793e a2a2 3fba 2c1b 3dbf 048e 0b3f
000001c0: 11ba e53d 7403 f2be 141e 3c3f 831c 543e
000001d0: 004d 9f3e 5cf6 da3e 60b1 2c3e d294 743e
000001e0: 752e 483e 19bb 303d 7569 17bf c702 1dbd
000001f0: 956b e73e 9c2d d03c ddd7 1ebf c871 643f
00000200: 61e5 a53d f263 d8be 25fa 873e 3e06 bdbe
00000210: ff5e 213f 474a 333e 3ec6 f4be c905 e5bc
00000220: 1619 36be 38d7 343e 3112 1a3e 09ff 2c3f
00000230: 8244 f63e ac5c 523c 6881 b83c f61e 22be
00000240: 4797 1e3e 021f 153f aca0 793e 28aa a43e
00000250: 0636 28be 5ccb 7cbe 96f7 063f fa38 693d
00000260: bb17 2f3e 525e 603c 24f8 c4bc 30e9 5d3c
00000270: a15e 95be f3d7 fcbc dca0 e83e 275e 473f
00000280: afa5 b23e aaa1 513e fcba 213f 67e8 313e
00000290: b3dc aebe 0254 413e e593 c53e 91af 63bf
000002a0: a7a9 afbe 7c5e ecbe d8f6 b9be d932 803d
000002b0: 062d df3d af63 d5be afa1 9c3d da3f 79be
000002c0: 9ff6 f23e b0db 7c3e acff bc3e bb43 183e
000002d0: ab60 e33e 8a74 82bc 15e3 be3c ad46 273e
000002e0: 5f77 8e3d 93df 1c3f 2c46 39be 69c6 57be
000002f0: 9204 81be 5ed0 95be bac9 bd3e 9985 703e
00000300: 3d27 97be 7349 f6bc fb66 9abe a438 1fbe
00000310: 6618 32bc 8fd9 3dbe 6b9d 513e 867e b03e
00000320: 8924 aa3e a084 d73e 0191 4bbf 2060 a83d
00000330: 4c3d f03e a3b9 e33e 7695 1ebf 039b 32bf
00000340: 9bf6 24be 8753 3d3f 1d7f a23d 2d97 e93d
00000350: 8d9d c23e cbb8 8d3e 8fd8 0e3f f99a 82bf
00000360: 6af3 3f3e 1356 a1bd bd19 093f 7ee2 edbe
00000370: ded0 b7be 1e06 8f3e 03bf 543d 5d74 d93d
00000380: b2b0 55be 35eb 0cbe a1d6 85bd dbe1 a43d
00000390: 674e ec3e 6c53 153f 14bb d7be e131 e53d
000003a0: 8125 98be f005 cbbb 1a24 173f 7f0b 0fbe
000003b0: 9288 b3be f675 c4bc ae6b db3e 8ffb 1fbf
000003c0: 5891 8b3e a05f 8e3e e77b e5be 47b0 d03c
000003d0: 044b 353e b4da 32bf 1d5b 9dbc 8b7a b1be
000003e0: 811d 1a3d fd98 893e 06ed 9d3e 7a28 d73d
000003f0: 75ee eebe 8e11 193e bb7c 6a3e fb05 1abf
-0.053226966 0.18179505 0.15012701 0.3091392 -0.6368365 0.0075347526 0.6816514 0.19758892
0.10844691 0.31960925 0.04760097 -0.7770515 -0.55196697 -0.29039115 0.045891926 0.14962165
0.0014945068 -0.6167495 0.08940006 -0.6018759 0.2780709 0.40441936 -1.0429484 0.011591129
0.22635978 0.18180175 0.32266736 0.32811904 -0.025479008 0.25077066 -0.35399455 -0.7092475
-0.4810328 -0.28196433 -0.5835352 -0.11497557 0.15395425 0.035813093 -0.62340426 0.8378559
0.29931116 0.676588 0.1373884 -0.15600243 -0.6039485 0.4550184 -0.078499824 0.3715441
-0.50204265 -0.5228063 -0.47584638 -0.013106558 -0.5389495 -0.3569588 -0.15060954 0.03930994
0.022331938 -0.61881226 0.15660538 -0.31689647 0.4164129 0.31220707 -0.22383748 0.17989828
0.36722022 0.26603854 0.4033504 0.37899455 0.16310912 0.079998724 0.25851557 -0.34965843
0.05907392 -0.39792156 0.7393916 -0.12983786 -0.3845541 -0.41306064 0.26770598 0.45458898
0.38400504 -0.70507735 0.11849313 0.18997581 -0.8376287 -0.006023484 -0.40641463 0.93472964
0.39442974 0.027530098 -0.84254354 0.48710614 0.48146385 0.26624689 0.051306866 0.12756245
0.22921869 0.20019384 0.2652671 0.21690334 -0.79656255 -0.7444392 0.19388631 -0.040988617
0.38826016 -0.49546742 -0.9105111 0.2725206 0.24343105 -0.0007310306 -0.73869586 0.54513574
0.1121713 -0.4726826 0.73483396 0.20714001 0.31113434 0.42766082 0.16864538 0.23884895
0.19548972 0.04314718 -0.5914529 -0.038332727 0.45199266 0.025412373 -0.6204813 0.89236116
0.08100391 -0.42263752 0.26558033 -0.36918825 0.6303558 0.17508803 -0.47807497 -0.02795686
-0.17783007 0.17660224 0.15046002 0.6757665 0.48099142 0.0128394775 0.022522643 -0.15832123
0.15487395 0.5825044 0.24377698 0.3216107 -0.16426858 -0.2468695 0.52721536 0.056939103
0.17098896 0.013694363 -0.024044104 0.013544366 -0.2917376 -0.030864691 0.45435226 0.7787804
0.34892032 0.20471826 0.6317594 0.1737381 -0.34152755 0.18879703 0.38589397 -0.8893977
-0.34309122 -0.46165836 -0.3632114 0.062596984 0.108972594 -0.41677615 0.07648026 -0.24340764
0.47453782 0.24693179 0.36913812 0.14869587 0.4440969 -0.01592471 0.02330164 0.16335554
0.06956362 0.6127865 -0.18093175 -0.21071781 -0.251988 -0.29260534 0.37067968 0.23488463
-0.29522124 -0.03006432 -0.30156693 -0.1554895 -0.010870075 -0.18540023 0.20470206 0.3447153
0.33231 0.42093372 -0.79518133 0.082214594 0.46921766 0.44477567 -0.6194681 -0.6976778
-0.16109698 0.7395558 0.07934401 0.114057876 0.38010827 0.27680048 0.5579919 -1.0203544
0.18745199 -0.078777455 0.535549 -0.46461862 -0.3590154 0.27934355 0.051939975 0.10617898
-0.20868185 -0.137616 -0.06535078 0.08050891 0.46153566 0.58330417 -0.42134917 0.11191154
-0.29716113 -0.006195776 0.5903946 -0.13969229 -0.35065132 -0.02398203 0.4285559 -0.6249322
0.27259326 0.2780733 -0.44821092 0.02547468 0.17704397 -0.69864964 -0.019208485 -0.34663805
0.037625793 0.26874533 0.30844897 0.10505767 -0.46666303 0.14948103 0.22899143 -0.60165375

action_head.bias f4 [9]
00000000: 9f6e b03d ad98 e4bd 5a8b 5fbf 043a b2be
00000010: a2e7 a1be a0f4 d7bd 9bf9 5cbf e6d6 3dbf
00000020: b8ea 74bf
0.08614849 -0.11161933 -0.8732201 -0.34809887 -0.31622034 -0.105447054 -0.8631837 -0.74156034
-0.9567065
