alg/discrete_action/param/net_param/actor_net1739790060.pkl (torch, 80064 bytes, 6 tensors)

fc1.weight f4 [128, 15]
0	0xbc903398	-0.017602727
1	0x3e991801	0.29901126
2	0x3b83151c	0.004000319
3	0x3dc812b0	0.09769189
4	0xbd81d16e	-0.06338774
5	0xbe1e4fa0	-0.15460062
6	0x3e55a6da	0.2086443
7	0xbe4c75e4	-0.19966847
8	0x3e2b048a	0.1670095
9	0x3e0f5769	0.13998188
10	0xbe6bd95b	-0.23032133
11	0xbe3486cd	-0.17629547
12	0xbcfb3244	-0.030663617
13	0x3d62a3ee	0.055332117
14	0xbd0d7836	-0.03453847
15	0xbdcb73b1	-0.09934176
16	0x3ea05ac6	0.31319255
17	0xbc3852d2	-0.011250215
18	0x3d6e8e70	0.058241308
19	0x3e10674b	0.14101903
20	0x3d314f0b	0.043288272
21	0xbddec5ec	-0.10877594
22	0xbe4aa135	-0.19788058
23	0x3df4bada	0.119497016
24	0xbe446aeb	-0.19181411
25	0xbda1e372	-0.0790471
26	0x3e143192	0.14472035
27	0xbdd7fbc4	-0.10546067
28	0xbdac4477	-0.08411496
29	0x3c9eb060	0.019371212
30	0x3de3c1c4	0.11120942
31	0xbe83c1c5	-0.25733772
32	0x3e2df249	0.16986956
33	0xbdaf4b52	-0.08559288
34	0x3cf6db26	0.030133795
35	0x3e40b078	0.18817317
36	0x3e145a48	0.14487565
37	0xbde3900d	-0.1111146
38	0xbe44b21e	-0.19208571
39	0xbe41f4e4	-0.18941075
40	0x3d83460e	0.06409846
41	0x3d90561d	0.07047675
42	0x3db1f72a	0.08689721
43	0x3dfb449b	0.12268945
44	0x3e3e48c1	0.18582441
45	0x3da87c86	0.08226876
46	0x3e757d70	0.23973632
47	0x3e13cc1f	0.14433335
48	0x3daf726c	0.08566746
49	0x3e43d0bb	0.19122593
50	0x3c1d5180	0.009601951
51	0x3d4fc89f	0.050728437
52	0x3d90246f	0.07038199
53	0x3d8cf1d8	0.068820655
54	0x3d272073	0.04080243
55	0x3d6d7850	0.057976067
56	0x3e567e1c	0.20946544
57	0xbbb98bab	-0.0056624017
58	0x3dea8250	0.114506364
59	0xbd23e9b6	-0.040017806
60	0xbdebf4cd	-0.115213014
61	0x3d6f6baa	0.058452286
62	0xbdabd240	-0.083897114
63	0x3dc5f415	0.096656956
64	0xbe2ee647	-0.17080031
65	0xbe169502	-0.1470528
66	0xbde06db4	-0.10958424
67	0x3dfb4611	0.122692235
68	0x3dac405c	0.08410713
69	0xbe250f21	-0.16119052
70	0x3d1cc726	0.03827586
71	0x3cef4d75	0.02921174
72	0x3e783d7b	0.24242203
73	0x3d87ca0d	0.06630335
74	0x3e6089c2	0.2192755
75	0xbe389146	-0.18024167
76	0xbe345788	-0.17611516
77	0x3db92881	0.09040929
78	0x3dc45935	0.095873274
79	0xbe632a87	-0.22184192
80	0x3e137748	0.14400971
81	0xbe08e56e	-0.1336877
82	0x3dd31315	0.10306374
83	0xbc9359a4	-0.01798708
84	0x3e180072	0.1484392
85	0x3e07ab66	0.13248977
86	0xbd0942c9	-0.033510957
87	0x3dcc4af1	0.099752314
88	0xbd03a6e4	-0.03214158
89	0x3e307f08	0.17235959
90	0x3de9b864	0.11412123
91	0x3e34169d	0.17586751
92	0xbd6ca36e	-0.057773046
93	0x3c5fd194	0.013660807
94	0xbdb3ebf2	-0.08785237
95	0xbd6a37d5	-0.05718215
96	0x3cbae10d	0.02281239
97	0x3da02ada	0.07820673
98	0x3e4ad89e	0.19809195
99	0xbe156f85	-0.14593323
100	0xbceb98a3	-0.028759306
101	0x3d0bc36f	0.034121927
102	0x3e0d02de	0.13770625
103	0x3dcf532e	0.10123287
104	0x3d4d3e55	0.050108273
105	0x3e34ac78	0.17643917
106	0xbe86e0ee	-0.26343483
107	0x3e484c77	0.19560419
108	0xbe4573c8	-0.19282448
109	0x3b9c7e56	0.0047758026
110	0x3e59a815	0.21255524
111	0x3e3d0296	0.18458018
112	0xbdf41801	-0.11918641
113	0x3d469b42	0.04848791
114	0x3e2bd8ad	0.16781874
115	0x3deedf92	0.116637364
116	0xbe3b1bcf	-0.18272327
117	0xbdc7ceb7	-0.097562246
118	0x3b97c4d3	0.0046316176
119	0x3c97a271	0.018510075
120	0x3d2d6b17	0.042338457
121	0x3e01ea9b	0.12687151
122	0xbe198462	-0.14991906
123	0xbd2d1660	-0.042257667
124	0xbdb0955a	-0.086222365
125	0xbdf5e99b	-0.12007447
126	0xbc8a4d72	-0.016882632
127	0xbe229f7f	-0.15881155
128	0x3e64613d	0.22302718
129	0x3d09c1ab	0.03363196
130	0xbe0297e3	-0.12753253
131	0xbdd728d7	-0.105058365
132	0x3e085027	0.13311826
133	0xbdef6212	-0.11688627
134	0x3d48f1db	0.049058776
135	0xbcec3bc2	-0.028837088
136	0x3e6589d0	0.22415853
137	0x3dcdeadd	0.10054562
138	0xbe23ffd7	-0.16015564
139	0xbd8fdd7e	-0.07024668
140	0xbbb69b5f	-0.005572721
141	0xba41c6f4	-0.0007392012
142	0x3e04691e	0.12930724
143	0xbdd45718	-0.10368174
144	0x3d1794d6	0.037007175
145	0xbc45dca5	-0.012076532
146	0x3e872702	0.26396948
147	0x3e35c980	0.17752647
148	0xbdee54ed	-0.11637292
149	0xbe763593	-0.24043874
150	0xbdc51bc3	-0.09624436
151	0xbe2d4cfa	-0.16923895
152	0xbdbe0810	-0.092788815
153	0xbe0cb308	-0.1374017
154	0x39aad36f	0.00032582457
155	0x3da2860d	0.079357244
156	0x3dd2ed76	0.10299198
157	0x3dba788e	0.09105025
158	0x3e69eb4a	0.22843662
159	0xbe721ad7	-0.23643051
160	0x3e025f7d	0.12731738
161	0x3e22dc1a	0.15904275
162	0xbca18366	-0.019715976
163	0x3df6003e	0.12011765
164	0x3dd64513	0.104623936
165	0x3e29d976	0.16586861
166	0xbe720a49	-0.23636736
167	0xbd670010	-0.056396544
168	0xbe8ab584	-0.2709161
169	0xbe38fc12	-0.18064907
170	0xbdf698ee	-0.12040888
171	0x3df7a10d	0.12091265
172	0x3d0fe3e3	0.03512944
173	0xbe09d956	-0.13461813
174	0xbe21fdfc	-0.15819544
175	0x3d9d10ab	0.07669195
176	0x3c3f5d59	0.011679971
177	0xbdf76d13	-0.12081351
178	0x3e03a76f	0.1285684
179	0xbd89212b	-0.066957794
180	0x3e0cab59	0.13737239
181	0xbe856077	-0.2605016
182	0xbcee02e0	-0.029054105
183	0x3e10d4ed	0.14143725
184	0xbe152418	-0.1456455
185	0xbe4606de	-0.19338557
186	0xbe505e2d	-0.20348425
187	0x3d41b582	0.04729224
188	0x3e0fed64	0.14055401
189	0x3e50662e	0.20351478
190	0xbe10947c	-0.14119142
191	0xbe93149f	-0.2872667
192	0xbd363ad3	-0.044489693
193	0x3d4938ab	0.04912631
194	0x3d49bfc2	0.04925514
195	0x3e4ddc5b	0.2010359
196	0xbc74197c	-0.014898654
197	0xbe1b0256	-0.1513761
198	0xbe400ccc	-0.18754882
199	0x3e575514	0.21028548
200	0x3d8f8263	0.07007291
201	0xbe610503	-0.21974568
202	0x3d3bc629	0.045843277
203	0x3de1ff30	0.11035001
204	0x3e4270c7	0.18988334
205	0x3e2bcc70	0.16777205
206	0x3d2d21e5	0.042268652
207	0x3d1d3454	0.038379982
208	0xbc3b441d	-0.011429814
209	0x3da6ac31	0.08138312
210	0xbd3045ab	-0.04303519
211	0x3eb4498d	0.35212365
212	0xbb87af14	-0.004140744
213	0x3e1f78ce	0.15573427
214	0x3d89d6d7	0.067304306
215	0x3c85d501	0.01633692
216	0xbd943f3c	-0.072386235
217	0x3d7bfec5	0.061522264
218	0x3d2919b3	0.041284274
219	0xbd163a82	-0.03667689
220	0xbe01e30b	-0.12684266
221	0xbe0dffb8	-0.1386708
222	0x3b1c8509	0.0023883006
223	0xbcf8c37e	-0.030366655
224	0xbd623246	-0.055223726
225	0xbdf82345	-0.12116102
226	0x3e186258	0.14881265
227	0xbd688c4f	-0.056774434
228	0xbe028495	-0.12745889
229	0xbca19fda	-0.019729543
230	0x3e14e84e	0.14541742
231	0x3d97d98a	0.07414539
232	0x3e1db15b	0.15399687
233	0xbcd1c0bd	-0.0256046
234	0xbcb566ea	-0.0221438
235	0x3da82621	0.082103975
236	0x3e66a677	0.22524439
237	0xbda5488a	-0.08070476
238	0xbdc0cea4	-0.094144136
239	0xbded5744	-0.1158891
240	0xbe738d53	-0.2378438
241	0xbbb70342	-0.005585105
242	0xbcac7a4b	-0.021054408
243	0x3d9b05e1	0.07569481
244	0x3e32e2bc	0.17469305
245	0x3e108a62	0.14115289
246	0xbe117da4	-0.14208084
247	0xbe18a043	-0.14904885
248	0x3d40325f	0.046923038
249	0xbda6eb1e	-0.08150314
250	0x3e44af38	0.19207466
251	0xbe75e52f	-0.24013208
252	0xbdbcad77	-0.09212773
253	0x3e1009ba	0.1406621
254	0xbe2ab0d1	-0.16669013
255	0xbe5d98dd	-0.21640344

fc1.bias f4 [128]
0	0x3be54626	0.0069968877
1	0xbe20f0aa	-0.15716806
2	0x3d6223a0	0.055209756
3	0xbd69dd67	-0.05709591
4	0xbe22f548	-0.1591388
5	0xbd365185	-0.044511337
6	0xbe6dd688	-0.23226368
7	0x3e210a2d	0.15726538
8	0xbe04e1a3	-0.12976699
9	0xbd1dd766	-0.038535498
10	0xbe6409e8	-0.22269404
11	0x3c03148b	0.008000503
12	0xbd60aa92	-0.05485017
13	0x3e30c726	0.17263469
14	0xbcc289ea	-0.023747403
15	0x3e72b268	0.23700869
16	0x3e661ec0	0.22472668
17	0x3d51bd2f	0.05120581
18	0xbd61dbcd	-0.05514126
19	0xbe30d494	-0.17268592
20	0xbe0bc9a1	-0.13651134
21	0xbd2068c0	-0.039162397
22	0xbe400d3d	-0.1875505
23	0x3e37df1e	0.17956206
24	0xbd072eec	-0.033003733
25	0x3c13ee8c	0.009029042
26	0x3d82869f	0.06373333
27	0xbe647559	-0.2231039
28	0x3e73741c	0.23774761
29	0xbdd63525	-0.10459355
30	0xbe181298	-0.14850843
31	0x3cb25a5c	0.021771602
32	0xbe370c82	-0.17875865
33	0x3e0fbcfe	0.14036939
34	0xbde17a3d	-0.11009643
35	0xbd4e8a72	-0.050425
36	0xbc92737e	-0.017877337
37	0x3e640fe7	0.22271691
38	0x3e4a5328	0.19758284
39	0x3e916fec	0.28405702
40	0x3d2bc2a0	0.041933656
41	0x3e3c25c6	0.18373784
42	0xbe632315	-0.22181351
43	0xbdfdfb69	-0.12401468
44	0x3deb832a	0.11499627
45	0x3e064cf9	0.131153
46	0x3e2c53fa	0.1682891
47	0x3e0f6633	0.1400383
48	0x3e2b6fa2	0.16741803
49	0x3e10120f	0.14069389
50	0xbdef622d	-0.116886474
51	0xbd804d5d	-0.06264756
52	0x3dcd10b7	0.10012954
53	0x3e676173	0.22595768
54	0x3d174718	0.036933035
55	0x3aabef58	0.0013117595
56	0x3e345c27	0.17613278
57	0x3e4edd9b	0.20201723
58	0xbc8913e0	-0.01673311
59	0xbc5c6931	-0.013452814
60	0xbe6c35bb	-0.23067372
61	0x3db17317	0.0866453
62	0x3deae156	0.11468761
63	0xbe1be62c	-0.15224522
64	0xbe48fcff	-0.1962776
65	0xbe376703	-0.1791039
66	0x3e85244c	0.26004255
67	0x3e6c6b08	0.23087704
68	0x3e8610f7	0.26184818
69	0x3e8be666	0.27324218
70	0x3c23364e	0.009961678
71	0x3dfd15bd	0.12357662
72	0x3e30c190	0.17261338
73	0xbd04ebd7	-0.032451477
74	0xbe31b7d5	-0.17355283
75	0x3e6c1bc8	0.23057473
76	0x39bae6a9	0.0003564854
77	0x3ddc6f3a	0.10763402
78	0xbdda0ad4	-0.106465966
79	0xbd10bf1d	-0.03533851
80	0xbd8ee6f7	-0.06977647
81	0x3c5816db	0.013189043
82	0x3e3576d9	0.17721118
83	0x3e564ef6	0.20928559
84	0xbc8f6896	-0.017505925
85	0x3e89e5e4	0.26933205
86	0xbdaf1c74	-0.08550349
87	0x3c194ea7	0.009357131
88	0xbe231c03	-0.15928654
89	0x3d4f427a	0.050600506
90	0x3e80b03d	0.2513446
91	0xbe19ce3d	-0.1502008
92	0x3da96321	0.082708605
93	0xbe2d6bcf	-0.16935657
94	0xbd0f0bc0	-0.034923315
95	0xbdca3640	-0.098736286
96	0x3cc18f96	0.023628037
97	0xbe0f89a4	-0.1401735
98	0x3db4e0fe	0.08831976
99	0xbe797ab0	-0.24363208
100	0x3dc01ac7	0.093801074
101	0xbd2a4836	-0.041572772
102	0xbe06a047	-0.13147078
103	0x3e59cefa	0.21270362
104	0x3d78f39f	0.06077921
105	0xbe30c9af	-0.17264436
106	0xbdbe82cf	-0.093022935
107	0xbd760615	-0.060064394
108	0xbdb5ce66	-0.08877258
109	0x3d540657	0.05176386
110	0x3d4058b1	0.046959583
111	0x3e70d0af	0.23517106
112	0x3caeb519	0.021326588
113	0xbd951bbc	-0.072806805
114	0x3e8b3670	0.2718997
115	0x3dce5858	0.10075444
116	0xbdc5c7a0	-0.09657216
117	0x3e3f17dc	0.18661445
118	0x3e5f7d83	0.21825223
119	0xbe5e9591	-0.21736743
120	0xbe4d5556	-0.20052084
121	0xbdc34832	-0.095352545
122	0xbe635eae	-0.22204086
123	0xbccd64ed	-0.02507254
124	0x3e1b609a	0.1517357
125	0xbe650c8f	-0.22368072
126	0xbe83d9be	-0.25752062
127	0xbe63aaba	-0.22233096

fc2.weight f4 [128, 128]
0	0xbd6e236e	-0.058139257
1	0xbe744015	-0.2385257
2	0xbe1c9e84	-0.15294844
3	0x3e269dbf	0.16271113
4	0xbe743652	-0.23848847
5	0xbe0df75e	-0.13863894
6	0x3cdcb992	0.026943956
7	0x3dd90788	0.105971396
8	0xbd85514e	-0.06509648
9	0x3d3c0f26	0.045912884
10	0x3c43689b	0.011926795
11	0x3d15ab22	0.036540158
12	0xbd085af2	-0.033289857
13	0x3d943070	0.07235801
14	0xbde3bdb8	-0.1112017
15	0x3e1e1afa	0.15439978
16	0xbd9e21ae	-0.07721268
17	0x3e150e4d	0.14556237
18	0xbdf29ac7	-0.11845928
19	0xbe1fcb1d	-0.15604825
20	0xbc819ad2	-0.015820894
21	0x3e0cd99b	0.13754885
22	0xbc812542	-0.015764836
23	0x3e0aa3f8	0.13539112
24	0x3e0a65f9	0.13515462
25	0xbb62552f	-0.0034535637
26	0x3da0959c	0.07841036
27	0x3da59570	0.080851436
28	0xbc3547d5	-0.011064489
29	0x3d891f3b	0.0669541
30	0x3d58d42d	0.05293672
31	0xbba77fce	-0.005111671
32	0xbd165d19	-0.03670988
33	0xbd25db80	-0.040492535
34	0x3d5d0d66	0.053967856
35	0x3d0f8e26	0.035047673
36	0xbc5b70a3	-0.013393554
37	0x3dac4e44	0.084133655
38	0xbc5ea786	-0.013589745
39	0xbd78b72c	-0.06072156
40	0xbce0ecb6	-0.027456623
41	0xbe15e9b0	-0.14639926
42	0x3e1da67c	0.1539554
43	0x3dea2a29	0.11433823
44	0x3d6af054	0.0573581
45	0xbe2000b4	-0.15625268
46	0xbe22b3bd	-0.15888877
47	0x3dcd2bcd	0.1001812
48	0xbd2a7011	-0.04161078
49	0x3dc7e2bc	0.09760043
50	0x3dd711a8	0.105014145
51	0x3b91894b	0.0044414154
52	0x3e1f02e2	0.15528443
53	0xbd71542a	-0.058918156
54	0xbe1d4afd	-0.15360637
55	0xbe498876	-0.19680962
56	0xbd9e4292	-0.07727541
57	0x3dd95f78	0.10613912
58	0x3d1178b2	0.035515495
59	0xbe6f498a	-0.23367897
60	0xbe170ad3	-0.14750223
61	0x3e07adb1	0.13249852
62	0x3bdb5530	0.0066935048
63	0xbe25f227	-0.16205655
64	0xbbf100e8	-0.0073548444
65	0xbe67e09a	-0.22644272
66	0x3a114b13	0.0005542498
67	0x3e0a2c24	0.13493401
68	0x3db75790	0.08952248
69	0xbdc613b8	-0.0967173
70	0xbd917872	-0.07103051
71	0xbb6198eb	-0.0034423422
72	0xbe02e870	-0.1278398
73	0xbe15d85f	-0.1463332
74	0x3e04adbd	0.12956901
75	0x3db0eea9	0.08639271
76	0x3e81fe78	0.25389457
77	0x3d2f42c6	0.04278829
78	0x3b879b19	0.004138362
79	0xbe041f64	-0.129026
80	0xbdfe676e	-0.124220714
81	0xbd1c3cd0	-0.038143933
82	0xbe1f588c	-0.15561122
83	0xbd6c9209	-0.057756457
84	0xbdc42b34	-0.09578553
85	0xbdce9f47	-0.100889735
86	0xbe14bfcf	-0.14526294
87	0xbe1b5395	-0.15168603
88	0xbda4c16a	-0.08044703
89	0xbc1841f9	-0.009293073
90	0x3dd19abd	0.10234592
91	0x3e069f2b	0.13146655
92	0x3e359e1d	0.17736097
93	0x3e05647c	0.13026613
94	0xbca7b192	-0.020470414
95	0x3e059629	0.13045563
96	0xbda32850	-0.079666734
97	0xbe132d39	-0.1437272
98	0xbc965ed2	-0.01835576
99	0xbd82869a	-0.063733295
100	0x3d91ca78	0.07118696
101	0xbe09efbe	-0.1347036
102	0xbe5909be	-0.21195123
103	0xbe142a42	-0.14469245
104	0x3e451341	0.19245626
105	0x3e188cf9	0.14897527
106	0xbd80eb7a	-0.062949136
107	0xbd839eae	-0.0642675
108	0x3e138f8b	0.14410226
109	0x3d24c21b	0.040224176
110	0xbdfd6106	-0.123720214
111	0x3dee6cab	0.116418205
112	0x3d628186	0.055299304
113	0xbd368a15	-0.04456528
114	0xbbb040ef	-0.0053788344
115	0xbd810249	-0.06299264
116	0xbd8d9193	-0.06912532
117	0xbde9d633	-0.114178084
118	0x3da7c5d4	0.081920296
119	0xbc9c71f6	-0.01909731
120	0x3d023d0f	0.03179651
121	0x3b5f31f2	0.003405687
122	0xbd694b3b	-0.05695651
123	0xbe354fb8	-0.17706192
124	0x3e2ea457	0.17054878
125	0x3d7c782a	0.061638035
126	0x3da0e098	0.07855338
127	0x3e1c9768	0.15292132
128	0xbe8de255	-0.2771174
129	0x3db3637f	0.08759212
130	0x3dff99d9	0.12480516
131	0x3dfae65f	0.12250971
132	0xbe64a0f6	-0.22327027
133	0xbbdabd89	-0.0066754264
134	0xbd3e2ab5	-0.046427447
135	0xbdb23ab4	-0.08702603
136	0x3d2463db	0.040134292
137	0x3e41b690	0.18917298
138	0xbd81a02c	-0.063293785
139	0xbe05f0fb	-0.13080208
140	0xbe049c65	-0.12950285
141	0xbe098135	-0.13428195
142	0xbe0e8407	-0.13917552
143	0x3db3766a	0.0876282
144	0xbbaf9e11	-0.005359419
145	0x3d92bd49	0.071650095
146	0xbdd90c73	-0.105980776
147	0x3d9a35fa	0.075298265
148	0x3e39fc15	0.18162568
149	0x3e4b28fb	0.19839852
150	0x3e1f4a4b	0.15555684
151	0xbde7bdeb	-0.11315521
152	0xbdd6e56b	-0.10492977
153	0x3d3a7237	0.04551908
154	0xbca2c624	-0.019869871
155	0x3e0726db	0.13198416
156	0x3e112e53	0.14177828
157	0x3dd58ed3	0.10427632
158	0xbdbdecfa	-0.09273715
159	0xbc3736da	-0.011182511
160	0x3d7aeb15	0.061259348
161	0x3dead75e	0.11466859
162	0x3da070a3	0.07833984
163	0x3c8979b5	0.016781667
164	0xbc16acf9	-0.009196513
165	0x3e2ee69d	0.1708016
166	0xbd1e4029	-0.038635407
167	0x3d91b988	0.071154654
168	0x3bd3f0af	0.0064679007
169	0xbdd45df2	-0.10369481
170	0x3dde19e2	0.108447805
171	0xbc20f26d	-0.009823424
172	0xbe103996	-0.14084467
173	0x3e23b7e0	0.15988111
174	0xbe7f273d	-0.24917312
175	0x3d59d30b	0.053179782
176	0x3d332861	0.04373968
177	0xbd2467db	-0.040138107
178	0xbdbe6b4f	-0.09297811
179	0x3b5b7a7a	0.003348975
180	0xbdc9f0f3	-0.098604105
181	0x3e042cdf	0.12907742
182	0x3e155659	0.1458372
183	0xbdac92ba	-0.08426423
184	0x3e14c7fb	0.14529411
185	0x3d07da2b	0.033167046
186	0x3e04ab21	0.12955905
187	0x3dd4d443	0.10392048
188	0x3d268db4	0.040662482
189	0x3e2326a5	0.1593271
190	0x3bf49569	0.0074641
191	0x3cf96e80	0.030448198
192	0xbdd12639	-0.102123685
193	0xbdbcf709	-0.09226806
194	0xbdaa8b55	-0.08327357
195	0xbdc6f8c8	-0.0971542
196	0xbd8978d3	-0.067124985
197	0x3d6bd689	0.057577644
198	0xbdfdf8b9	-0.12400956
199	0xbe1b4dbe	-0.15166375
200	0xbd7a82c9	-0.061159883
201	0xbe13e775	-0.14443763
202	0xbd94f024	-0.07272366
203	0x3dd81720	0.10551286
204	0x3c9de86e	0.01927587
205	0x3d29fcc0	0.041500807
206	0xbe3aa726	-0.18227825
207	0xbe0e09bc	-0.13870901
208	0xbde67663	-0.11253049
209	0xbd283812	-0.041069098
210	0x3d978c12	0.07399763
211	0x3de5d6a1	0.11222578
212	0xbdfc6d5f	-0.123255484
213	0xbe01d563	-0.12679057
214	0x3df97d23	0.12182071
215	0xbdd8c300	-0.10584068
216	0x3cc3d623	0.02390582
217	0x3e107714	0.14107925
218	0xbd55eaec	-0.052225992
219	0x3cf8a74c	0.03035321
220	0x3d3483af	0.044070896
221	0x3da7398d	0.08165274
222	0x3d458bcb	0.04822902
223	0x3df523de	0.11969732
224	0xbe5b9152	-0.21442154
225	0x3e677a1d	0.22605176
226	0x3d8a08d2	0.067399636
227	0x3d9a4e12	0.07534422
228	0x3e34624b	0.17615621
229	0xbd6f63c9	-0.058444772
230	0xbe177880	-0.14792061
231	0xbdcebaee	-0.10094248
232	0x3d8b1c76	0.06792538
233	0x3dbd47c6	0.09242205
234	0x3df65874	0.1202859
235	0xbdf5127a	-0.11966415
236	0x3dcde0f7	0.10052674
237	0x3e2719cb	0.16318433
238	0xbdc7d9ce	-0.0975834
239	0xbd226229	-0.039644394
240	0x3e1b7a2f	0.15183328
241	0xbd48e2fd	-0.049044598
242	0xbca8a631	-0.020587059
243	0x3dc72d3b	0.09725424
244	0xbd48d30b	-0.04902939
245	0x3dda276a	0.10652049
246	0x3d98026c	0.07422337
247	0x3e1912f1	0.14948632
248	0x3e10852f	0.14113306
249	0xbddbee45	-0.10738806
250	0xbdc13ee4	-0.094358236
251	0xbe4f7932	-0.20261076
252	0x3de46e46	0.111538455
253	0xbd7fe003	-0.062469494
254	0x3db34235	0.08752862
255	0xbdc7e3e6	-0.09760265

fc2.bias f4 [128]
0	0xbc9c4dc5	-0.019080052
1	0x3d4e5498	0.050373644
2	0x3d22be04	0.039731994
3	0xbda45c00	-0.0802536
4	0xbcdb59a0	-0.026776135
5	0xbaf72000	-0.0018854141
6	0xbc0c25ae	-0.008553905
7	0xbd9ff809	-0.07810981
8	0xbc4b0979	-0.012392395
9	0x3dc9ca68	0.09853059
10	0x3c9b937e	0.018991228
11	0x3d6e067e	0.05811166
12	0x3cfe6dbb	0.031058183
13	0x3c539c67	0.012915707
14	0x3d5dfb7e	0.05419492
15	0xbd37cc26	-0.044872425
16	0x3c9226d1	0.017840775
17	0xbd83895a	-0.06422682
18	0xbd3c69a6	-0.04599919
19	0x3d84ec5a	0.06490393
20	0xbd46ac9c	-0.048504457
21	0x3d294067	0.041321184
22	0x3d1c0782	0.038093098
23	0x3ca993e2	0.020700399
24	0x3d1b0ff7	0.037857022
25	0xbc539c3a	-0.012915665
26	0x3d9e8ece	0.077420816
27	0xbd37f0b8	-0.0449073
28	0x3c0f8455	0.008759578
29	0x3dd9e9f0	0.10640323
30	0x3daa9f65	0.08331183
31	0x3d9604b7	0.07325118
32	0xbcea27be	-0.028583404
33	0xbd67118e	-0.056413226
34	0xbc706a3a	-0.014673764
35	0x3de5b1d5	0.112155594
36	0xbd9e35fd	-0.07725141
37	0xbc0b6fed	-0.008510572
38	0x3cb25872	0.02177069
39	0xbcd5fb67	-0.026120855
40	0xbd3573ed	-0.04430001
41	0x3dae6e88	0.08517176
42	0xbb636b0c	-0.0034701256
43	0xbcd92686	-0.026507627
44	0x3d18e40e	0.037326865
45	0xbc495a6b	-0.012289624
46	0xb82a3752	-4.058268e-05
47	0x3c34eb7e	0.011042474
48	0xbc1ab2d2	-0.009442048
49	0xbd064e96	-0.03278979
50	0xbd9f772a	-0.077864006
51	0x3df80cd1	0.121118195
52	0x3d9d12f5	0.076696314
53	0x3dfa6db5	0.12227956
54	0xbdacf76c	-0.084456295
55	0xbd02f612	-0.031972952
56	0x3ce9237c	0.028459303
57	0xbbdc8191	-0.0067293127
58	0x3c26bd2a	0.010176936
59	0x3d8a0027	0.0673831
60	0x3dade7a7	0.0849145
61	0x3afa05f2	0.0019075258
62	0x3a6c803b	0.00090217934
63	0xbcd9a371	-0.026567193
64	0xbda2994b	-0.079393946
65	0x3ccbc16e	0.024872508
66	0xb9283f01	-0.000160452
67	0x3d61fc47	0.05517223
68	0xbd3327b1	-0.043739025
69	0x3d010226	0.03149619
70	0x3d806510	0.06269276
71	0xbd9c91fe	-0.07645033
72	0xbc8696b0	-0.016429275
73	0xbd2f377a	-0.042777516
74	0x3d0e0cf8	0.034680337
75	0x3cee07b4	0.029056408
76	0x3d4d38c9	0.050102983
77	0xbd99171d	-0.07475112
78	0x3d442cfe	0.04789447
79	0x3db3fc8e	0.08788405
80	0x3d44a5ec	0.048009798
81	0x3c2827fc	0.010263439
82	0xbd8bb569	-0.068217106
83	0xbdb08faf	-0.086211555
84	0xbda340db	-0.079713546
85	0x3d677e74	0.05651708
86	0x3d1d2afc	0.03837107
87	0x3d3efdfa	0.04662893
88	0xbccaa810	-0.024738342
89	0x3cdbdb31	0.026837917
90	0x3db0437a	0.0860662
91	0xbd3d7707	-0.04625609
92	0xba9b3069	-0.0011839989
93	0x3d69c874	0.057075933
94	0x3dc18545	0.09449247
95	0x3d8bf92e	0.06834637
96	0xbc256ec0	-0.010097206
97	0x3c438561	0.0119336555
98	0xbcfc7154	-0.030815758
99	0x3cd02320	0.025407374
100	0xbd7124c8	-0.058872968
101	0x3d1f9927	0.038964417
102	0x3d3403f9	0.0439491
103	0xbb98151e	-0.0046411892
104	0xbc01f4ba	-0.0079318825
105	0xbc109ab9	-0.008825951
106	0x3cdf82a9	0.027283983
107	0xbca9cbf1	-0.02072713
108	0x3db5544e	0.088539705
109	0xbd9f75cb	-0.07786139
110	0xbd838bb0	-0.06423128
111	0xbca873fe	-0.020563122
112	0x3d3dff63	0.046386134
113	0xbd52e683	-0.051489364
114	0xbc0678f3	-0.0082075475
115	0x3da8a981	0.08235455
116	0x3d7cd0aa	0.061722435
117	0x3d07bdfe	0.033140175
118	0x3c886b1b	0.016652634
119	0xbbd9bc79	-0.006644782
120	0xbc7682fd	-0.0150458785
121	0x3dcfcf06	0.101469085
122	0x3d921d84	0.07134536
123	0xbd82f61e	-0.063945994
124	0x3da08e31	0.07839621
125	0x3a6565dd	0.00087508356
126	0x3d5f8f8c	0.054580256
127	0x39d9cb3e	0.00041540893

action_head.weight f4 [6, 128]
0	0xbe80bc9c	-0.25143898
1	0xbe13d427	-0.14436398
2	0x3d781f43	0.06057669
3	0xbea23ff3	-0.31689414
4	0xbd1f55e4	-0.03890027
5	0xbe9d3981	-0.30707934
6	0x3e09b3f2	0.1344755
7	0x3e9431cd	0.28944245
8	0xbda58c27	-0.080833726
9	0xbd36c556	-0.044621788
10	0x3db39f9a	0.08770676
11	0x3e002c08	0.12516797
12	0xbc9bd2a9	-0.019021349
13	0x3e8b0da9	0.2715886
14	0xbd79467d	-0.06085824
15	0x3dc667d5	0.09687773
16	0xbcf68404	-0.030092247
17	0xbe61a1bb	-0.22034352
18	0x3e2b56dc	0.16732353
19	0x3e5004aa	0.20314279
20	0x3e0f48e8	0.13992655
21	0x3de584e5	0.11206988
22	0x3e755c35	0.23960955
23	0x3c49a177	0.012306563
24	0x3e2cb0d7	0.16864334
25	0x3e335c17	0.17515598
26	0x3ccac8e9	0.024754005
27	0x3e6fb74c	0.23409766
28	0x3e72fe27	0.23729764
29	0x3ec01fd3	0.3752428
30	0x3d0bac4b	0.03409986
31	0xbe6bd81a	-0.23031655
32	0x3da4f7ab	0.080550514
33	0xbe315c3b	-0.1732034
34	0xbce8f197	-0.028435512
35	0x3e2e9398	0.1704849
36	0x3e03a05c	0.12854141
37	0x3e791843	0.24325661
38	0x3dd01792	0.10160746
39	0xbc007a50	-0.007841662
40	0xbe48b1e3	-0.19599108
41	0xbe79d3b2	-0.24397162
42	0x3dedc0b8	0.11609024
43	0x3e4865df	0.1957011
44	0x3e018c62	0.12651208
45	0xbdbf2697	-0.09333532
46	0xbdd25e18	-0.10271853
47	0xbe86d0ac	-0.2633108
48	0x3cb95d49	0.02262749
49	0x3e314e1e	0.17314956
50	0xbd4d481f	-0.05011761
51	0xbe99cf9f	-0.30041215
52	0x3e54c3df	0.20777844
53	0x3e05a8a4	0.13052613
54	0xbe1e443b	-0.15455715
55	0x3e387071	0.18011643
56	0xbddde33a	-0.10834356
57	0xbdd964a3	-0.10614898
58	0xbe66a743	-0.22524743
59	0x3def6c14	0.11690536
60	0x3e297fc6	0.16552648
61	0xbe2cb22e	-0.16864845
62	0x3e18de42	0.14928535
63	0xba0cce89	-0.00053713523
64	0xbddfe095	-0.109315075
65	0x3ea574c6	0.32315654
66	0xbc82a999	-0.015950011
67	0x3dff8044	0.124756366
68	0xbe4b8ef6	-0.19878754
69	0x3e4fd362	0.2029548
70	0xbe72adbb	-0.23699085
71	0x3e468b4e	0.19389078
72	0xbcd5ae58	-0.02608411
73	0xbe493c7a	-0.19651976
74	0xbe4f3bfc	-0.20237726
75	0xbe016eec	-0.1263997
76	0xbe5d0ea9	-0.21587624
77	0xbe42bd0a	-0.19017425
78	0x3da57a46	0.080799624
79	0x3e465d7e	0.19371602
80	0x3cd25295	0.025674144
81	0x3e70169f	0.2344613
82	0x3e829a79	0.25508478
83	0x3d20561e	0.039144628
84	0x3e466512	0.19374493
85	0xbe9fa6ea	-0.31182033
86	0xbe02e578	-0.12782848
87	0x3e106907	0.14102565
88	0x3e39f3ee	0.18159458
89	0x3e4b2cf9	0.19841374
90	0xbe88621b	-0.2663735
91	0xbe896c43	-0.2684041
92	0xbe839920	-0.25702763
93	0xbcda8909	-0.026676672
94	0x3dd7dd1b	0.105402194
95	0xbd3ccbfe	-0.04609298
96	0xbd8ba5ce	-0.06818734
97	0xbe04aff3	-0.12957744
98	0xbe856dd5	-0.26060358
99	0xbe0f0310	-0.13966012
100	0x3dc5f5ba	0.09666009
101	0x3e8d9359	0.2765148
102	0x3dc50bff	0.09621429
103	0xbc07863d	-0.008271751
104	0x3e2f2b41	0.17106344
105	0x3dde65db	0.10859271
106	0x3e25177b	0.16122238
107	0xbe30f956	-0.17282614
108	0x3e58a233	0.21155624
109	0x3e0c4a1c	0.13700145
110	0x3b8a455b	0.0042196936
111	0x3dd8230f	0.10553562
112	0x3e86a3e5	0.26296917
113	0x3daab6db	0.08335658
114	0xbdae700d	-0.08517466
115	0x3d822683	0.06355002
116	0x3e8df142	0.27723128
117	0xbe6c9045	-0.2310191
118	0xbda774e1	-0.0817659
119	0xbe0d8335	-0.13819583
120	0xbd13c8da	-0.03608022
121	0x3e494db4	0.19658548
122	0xbe98f5d1	-0.29875043
123	0x3e72c25b	0.23706953
124	0x3e2bffed	0.16796847
125	0x3e35c41e	0.17750594
126	0x3cd31000	0.025764465
127	0xbc0d9086	-0.008640414
128	0x3e50909f	0.20367669
129	0x3e935449	0.28775242
130	0xbe14d809	-0.14535536
131	0x3d6a3c9d	0.05718671
132	0xbdab7c74	-0.08373347
133	0xbc215c35	-0.009848644
134	0xbe57e430	-0.2108314
135	0xbe53b685	-0.20675094
136	0x3e9410e2	0.2891913
137	0x3e49af01	0.19695665
138	0x3e2a99da	0.16660252
139	0xbd8b68e9	-0.068071194
140	0x3da9ab20	0.08284593
141	0x3d94ab08	0.07259184
142	0xbe57f5b1	-0.21089818
143	0xbdfa2aa5	-0.12215165
144	0x3e5856a0	0.21126795
145	0x3b938b87	0.004502717
146	0xbeb3a916	-0.3508994
147	0xbda8b2aa	-0.082372025
148	0xbcc826b0	-0.02443251
149	0x3e1a6177	0.15076242
150	0x3d8528f3	0.06501951
151	0xbe8eba70	-0.27876616
152	0xbe36b4a1	-0.17842342
153	0x3e5c1f79	0.21496381
154	0xbe3055ae	-0.17220184
155	0xbdae7898	-0.08519095
156	0x3cf0aa60	0.029378116
157	0xbe4cfa1f	-0.20017289
158	0x3e01eca7	0.12687932
159	0xbbdebabe	-0.0067971637
160	0xbda42d7a	-0.080164865
161	0x3e02e10f	0.12781166
162	0x3e70bbb8	0.23509109
163	0x3df015e6	0.11722927
164	0x3dbdcd0d	0.09267626
165	0xbe48ed43	-0.19621758
166	0xbd5b6303	-0.05356122
167	0x3e18b69b	0.14913408
168	0x3e5aed9e	0.21379706
169	0x3dedf161	0.11618305
170	0xbe89f010	-0.26940966
171	0x3e177775	0.14791663
172	0x3da3713a	0.07980581
173	0x3db3ab22	0.08772875
174	0x3e3396f0	0.17538047
175	0x3aabc357	0.001310448
176	0xbd46349d	-0.04839002
177	0x3e71f59f	0.23628853
178	0xbe007324	-0.12543923
179	0xbd95ef3e	-0.073210225
180	0xbd91a86a	-0.071122006
181	0x3e68f2f1	0.22748925
182	0x3e2dccf9	0.16972722
183	0x3e1f71dd	0.15570779
184	0x3e3e531f	0.18586396
185	0x3e0e8bbc	0.13920492
186	0x3db9b736	0.09068148
187	0xbde6f1dc	-0.112766
188	0x3c98b019	0.018638657
189	0x3d1697a8	0.036765724
190	0xbe6bd607	-0.23030864
191	0xbe058d66	-0.1304222
192	0xbe1f7994	-0.15573722
193	0xbea6062a	-0.32426578
194	0xbeb33ef6	-0.35008973
195	0xbe02db10	-0.12778878
196	0x3da14f85	0.07876495
197	0x3d85b5d0	0.065288186
198	0x3e7db39e	0.2477555
199	0x3e416529	0.18886246
200	0x3df5b607	0.119976096
201	0x3e80fbb2	0.25192028
202	0xbdc41747	-0.09574752
203	0xbdf58196	-0.11987607
204	0x3c277842	0.010221543
205	0x3c0d1470	0.00861083
206	0xbe554bb6	-0.20829663
207	0xbc01eca9	-0.007929959
208	0x3dc9ebfe	0.09859465
209	0x3d8833a5	0.066504754
210	0xbdf94f63	-0.12173345
211	0xbd55baaf	-0.05217999
212	0xbde05b57	-0.10954922
213	0xbc64baa7	-0.013960517
214	0x3df96d37	0.12179034
215	0x3e1d4c62	0.15361169
216	0xbe1431bd	-0.14472099
217	0xbdf92740	-0.121656895
218	0x3e39cc21	0.18144275
219	0x3d3f39db	0.046686035
220	0x3e49bfe8	0.19702113
221	0xbe857ec1	-0.26073268
222	0x3e2fa3a3	0.17152266
223	0xbc9fd388	-0.019510046
224	0x3db731c4	0.08945039
225	0x3d8cb364	0.068701535
226	0x3ea1d7d0	0.31609964
227	0x3e79ddfb	0.24401085
228	0xbe8c7ea8	-0.2744038
229	0x3d5d534c	0.054034516
230	0xbd8550d4	-0.06509557
231	0x3e1fdbd4	0.15611202
232	0x3dcccd7c	0.100001305
233	0xbdd543c8	-0.10413319
234	0x3e502441	0.2032633
235	0xbdc63590	-0.09678185
236	0x3d24aca3	0.0402037
237	0xbe15dd21	-0.14635135
238	0xbd9f69d7	-0.07783859
239	0x3e1c73a1	0.15278484
240	0xbe33bc45	-0.17552288
241	0x3e0d59a1	0.13803722
242	0xbe6571e1	-0.22406723
243	0x3dbfd062	0.09365918
244	0x3e04c070	0.12964034
245	0x3d6ddf5c	0.05807434
246	0xbd0414fd	-0.03224658
247	0x3e8d5f03	0.2761155
248	0xbdb91f08	-0.09039122
249	0xbdeb2a6a	-0.11482699
250	0x3d5150d2	0.051102467
251	0xbd42c735	-0.04755326
252	0x3c39086c	0.011293512
253	0xbdea62d2	-0.1144463
254	0xbe3a88e1	-0.18216278
255	0xbdc412ca	-0.09573896

action_head.bias f4 [6]
0	0x3d4cc06f	0.049988206
1	0x3d9b1345	0.07572035
2	0x3d90967a	0.07059951
3	0xbd58df3f	-0.05294728
4	0xbc64a01f	-0.0139541915
5	0x3d074456	0.033024155
