alg/discrete_action/param/net_param/actor_net1-5-2000-1739860447.pkl (torch, 80064 bytes, 6 tensors)

fc1.weight f4 [128, 15]
000000 90 31 ba bd fa e2 98 3e 0d 9d 8a bc 77 1e 41 bd
       -0.090914845 0.2986067 -0.01692059 -0.047148194
000010 99 0b af bc a8 33 12 be c4 b3 7f 3e e4 75 4c be
       -0.021367835 -0.14277518 0.24970919 -0.19966847
000020 ac d5 6e 3e cd 0e ee 3d ae 12 74 be 79 5b 07 be
       0.23323697 0.11623917 -0.2383525 -0.13218488
000030 44 b1 c5 3c 92 33 d2 3b cf 1a 2a bd d3 43 15 be
       0.024132378 0.006414839 -0.041529473 -0.14576654
000040 e5 df d5 3e fb 69 d3 bd 1c ba a1 bc 52 a9 db 3d
       0.4177238 -0.103229485 -0.019742064 0.10725655
000050 ba e2 4a bc 52 2e 05 be ab a7 4e 3d 4e c5 00 3e
       -0.012383157 -0.13005951 0.05045287 0.12575266
000060 eb 6a 44 be c1 b6 3d bd 34 f5 31 3e 51 58 41 be
       -0.19181411 -0.046316866 0.17378694 -0.18881346
000070 45 40 2b bc cc 43 9c 3d d5 68 66 3e 98 c1 96 be
       -0.010452335 0.07630119 0.22500928 -0.29444575
000080 30 57 2a 3e 1c f7 ef bd 61 a0 be bc 0b 01 01 3e
       0.16634822 -0.11717054 -0.023269834 0.12598054
000090 7f 5e ef 3d 07 0b 20 bd c7 33 28 be 00 bf 52 be
       0.116879456 -0.039073016 -0.16426001 -0.20580673
0000a0 8c 34 5d 3d d4 43 e1 bc 79 32 9f 3c 86 a2 da 3d
       0.05400519 -0.027498163 0.019433247 0.1067553
0000b0 6c 17 68 3e d8 a7 cd 3d 54 a4 65 3e 48 22 a2 3e
       0.22665185 0.10041779 0.22425967 0.3166678
0000c0 78 25 87 3d 17 7b 50 3e 6d 45 51 3c 02 ed 87 3d
       0.065989435 0.20359455 0.0127729 0.066370025
0000d0 66 55 21 3c cb 8c 2f 3d 69 d1 e0 3d 57 7c 03 3e
       0.009847021 0.04285888 0.10977442 0.128404
0000e0 72 44 a7 3e 2f 23 c0 3d 72 82 e0 3d d1 c9 d8 bd
       0.32669407 0.09381711 0.109623805 -0.105853684
0000f0 51 3e 3e be c1 ce b8 3c 71 da ca bb 5f 89 05 3e
       -0.1857846 0.022559525 -0.006190591 0.13040684
000100 e8 23 79 be fe bd 08 be 15 2f 0f bd b8 53 3c 3d
       -0.24330103 -0.13353726 -0.03495701 0.045978278
000110 b3 12 88 3d 27 63 e2 bd 62 0b 7d 3d e6 0c a4 bd
       0.066441916 -0.11054068 0.061778434 -0.08010273
000120 aa f0 8d 3e 67 f1 b1 3d b7 d8 72 3e 26 55 1b be
       0.27722675 0.08688622 0.23715483 -0.151692
000130 cd ad 50 be eb 4c 4b 3e 08 86 b8 3d d0 e7 8e be
       -0.203788 0.1985356 0.090099394 -0.27911234
000140 db d5 fb 3d a4 fb fa bd 45 e3 29 3d 1f 0c 29 3d
       0.12296649 -0.12255028 0.041476507 0.041271325
000150 52 15 04 3e ac 59 9d 3d 7b a5 90 bd 4d 5e 0e 3e
       0.12898758 0.07683119 -0.07062813 0.1390316
000160 06 e4 9c bd 7d a0 7a 3e d4 88 3c 3d b6 62 5f 3e
       -0.076606795 0.24475284 0.046028927 0.21814999
000170 9f eb fa bd 41 eb 7e bc f0 e6 46 bd c4 af 8d bd
       -0.122519724 -0.015559019 -0.048560083 -0.0691829
000180 de d9 06 bc a4 df df 3d 41 3d 10 3e a0 92 02 be
       -0.0082306545 0.10931328 0.14085867 -0.12751245
000190 f0 71 aa 3b b6 9d 9f bc d4 ee f9 3d 1f f0 4d 3e
       0.0052015707 -0.019484382 0.12203756 0.2011113
0001a0 64 02 67 3d 27 fe 30 3e 41 56 53 be 32 7c 96 3e
       0.056398764 0.17284451 -0.20638372 0.29391629
0001b0 47 ca 0e be 87 1e 9a 3c 41 4f 52 3e 4c 22 3b 3e
       -0.1394435 0.018813385 0.20538045 0.18274802
0001c0 b3 bd 8c be 12 eb 3d 3d bf f9 3e 3e bd 3d 01 3e
       -0.2748848 0.04636676 0.18649958 0.12621208
0001d0 18 9c 3d be 0b e4 ab bd d5 46 bd 3b ed 4c d7 3c
       -0.18516576 -0.08393105 0.005776266 0.026281798
0001e0 f0 73 8e bd b1 e8 e9 3d 1b d3 05 be 63 a1 a4 be
       -0.06955707 0.114213355 -0.13068812 -0.32154378
0001f0 21 71 32 be 9b e9 f5 bd 6f 5d e3 3d 7f 9f 22 be
       -0.17425968 -0.12007447 0.111018054 -0.15881155
000200 1e 27 5c 3e 4d d0 21 3d d3 c1 08 be 8c 74 09 be
       0.21499297 0.03950529 -0.13355188 -0.13423365
000210 c9 14 14 3e 38 5d a0 bd 5a 4e cd 3d cf d3 b7 bc
       0.14461054 -0.0783028 0.1002471 -0.022439865
000220 67 46 0d 3e 78 2c 5c bd 04 68 a5 bd e1 23 d2 bb
       0.13796388 -0.053753346 -0.0807648 -0.0064129685
000230 db 6b 41 3d 27 fe cb bd 58 78 9a 3d 38 1b ac bd
       0.047222 -0.09960585 0.07542485 -0.08403629
000240 aa 1d 83 3b 76 7c 7c 3d 44 68 a8 3e 61 9c 6a 3e
       0.004001339 0.061642133 0.32892048 0.22911216
000250 2e b1 41 3d cf b8 99 be 50 de 6f bd fb 84 67 be
       0.047288112 -0.3002381 -0.058561623 -0.22609322
000260 e1 3d 09 be 06 b9 ea bd 31 48 29 3e 94 e1 c1 3c
       -0.13402511 -0.11461072 0.16531445 0.023667134
000270 8e c5 36 3e 13 c4 52 3e 60 c4 7d 3e d7 1a 72 be
       0.17848799 0.20582609 0.24781942 -0.23643051
000280 ec f0 fd 3d 1f a4 24 3e c9 78 60 bd 8d 23 f6 3c
       0.12399468 0.16078232 -0.05480269 0.030046249
000290 97 b5 b9 3d da 34 63 bc 36 32 c5 be ac 59 ab 3d
       0.09067839 -0.013867581 -0.3851487 0.08366713
0002a0 e3 82 8a be 66 6f 0d bf 5b 17 df bd 71 de b0 3d
       -0.27052984 -0.55248106 -0.108931266 0.08636177
0002b0 4e e4 70 3c 10 04 16 be f6 99 1c be 00 8a b3 3d
       0.01470287 -0.14649987 -0.15293106 0.08766556
0002c0 d0 d5 cd ba 2b f1 32 bd 5f a5 d3 3d 7b 01 7d bd
       -0.001570398 -0.043687027 0.103342764 -0.06176899
0002d0 75 ff 0f 3e 81 12 a9 be 4c 10 f3 bc 6c a2 7b 3d
       0.14062293 -0.3302193 -0.029670857 0.061434194
0002e0 34 2a 47 bd de 06 46 be 2d 5e 50 be 82 b5 41 3d
       -0.048624232 -0.19338557 -0.20348425 0.04729224
0002f0 3b 5f 5f 3e 5e a8 5f 3e 60 e3 b3 be 4e 2c ce be
       0.21813671 0.2184157 -0.3513441 -0.40268177
000300 27 ea 78 bd a0 e9 2f bc f2 0e 44 3d 61 f6 73 3e
       -0.06077018 -0.010736853 0.047865815 0.23824455
000310 2a 90 a1 bc 2a 5f 04 be 15 11 4c be 3b 16 68 3e
       -0.019722063 -0.12926927 -0.19928391 0.2266473
000320 89 cd 0b 3d 69 1b 5d be 77 4f 57 3d f8 44 ac 3d
       0.03413156 -0.21592487 0.052566018 0.08411592
000330 a2 ab 4c 3e d5 a3 54 3e 21 35 6d 3d 58 66 58 3c
       0.19987348 0.20765622 0.057911996 0.013207994
000340 19 6c 4f bc f3 2a 35 3d bb 7e c4 bd 50 4d da 3e
       -0.01266005 0.044230413 -0.095944844 0.4263711
000350 3a 4f 41 be 14 34 16 3d 95 48 51 3e 62 e1 f6 3d
       -0.18877879 0.03667076 0.20437844 0.12054707
000360 3c 3f 94 bd 8b 79 a5 3c f2 72 e5 3c 73 af 72 bd
       -0.072386235 0.020199558 0.028008912 -0.059249353
000370 3c bf 76 be 78 34 15 be 43 5b 88 bd c4 c8 75 3d
       -0.24096388 -0.14570796 -0.06658032 0.06000592
000380 24 b6 fa bd 39 44 bb be 99 c9 a6 3d ab 66 64 bd
       -0.12241772 -0.36575487 0.081439205 -0.055761974
000390 a9 8d b3 3b d2 e9 d7 bd bb fe b3 3d e4 8e 7d 3d
       0.0054795337 -0.105426446 0.0878882 0.06190385
0003a0 de 83 31 3e a1 25 f1 bd 7e 53 ed 3c 58 0e e0 3d
       0.1733546 -0.11774755 0.028970476 0.10940236
0003b0 0a 39 a5 3e 39 26 05 bc c9 b5 8e bd b5 95 28 be
       0.3227008 -0.008126789 -0.069682665 -0.16463359
0003c0 3e 5b 36 be d0 89 08 3e 37 28 89 3d 4b b0 cb 3c
       -0.17808244 0.13333821 0.066971235 0.024864336
0003d0 99 bc 91 3e 64 19 17 3e 1d b8 3a be 8e a9 81 bd
       0.284642 0.1475578 -0.18234296 -0.06331168
0003e0 1f ce 96 3c 14 f3 95 3d f1 24 59 3e 59 97 64 be
       0.018408833 0.07321754 0.21205498 -0.2232336
0003f0 b7 d5 1b be 64 16 ce 3c 4a 40 62 be 64 10 92 be
       -0.15218244 0.025157161 -0.22094837 -0.2852813

fc1.bias f4 [128]
000000 c9 54 83 3d cf 2f 0b be 64 e7 a3 3b a6 a6 cd bd
       0.06412656 -0.13592456 0.005001949 -0.10041551
000010 18 e0 36 be f7 2c 92 bd 01 50 8b be 0c b4 43 3e
       -0.17858922 -0.071374826 -0.27209476 0.19111651
000020 f1 8f 07 be 75 b6 62 bd 6f 96 84 be 7a fb c9 3c
       -0.13238503 -0.055349786 -0.25896022 0.024656046
000030 1c 95 fd bc 1f 0c 2d 3e 32 b2 7a bb 30 fe 3c 3e
       -0.03095489 0.16899155 -0.0038253185 0.1845634
000040 e4 5a 6a 3e 05 52 68 bc ec d8 61 3c 64 eb 39 be
       0.22886235 -0.014179711 0.013784628 -0.181562
000050 94 ca 03 be f6 63 11 bd 92 e4 3f be 0b d7 1a 3e
       -0.12870246 -0.03549572 -0.18739536 0.15121095
000060 81 8e c4 bd 4e f4 6f 3d 02 c1 c1 3d 59 75 64 be
       -0.09597493 0.058582596 0.094606414 -0.2231039
000070 0d ea 6a 3e 24 aa a2 bd 0b 84 34 be d9 b3 a0 3c
       0.22940846 -0.07942608 -0.17628495 0.019617008
000080 78 9c 6b be 85 06 ed 3d e7 ab 04 be 05 70 bd bd
       -0.23008907 0.11573509 -0.129562 -0.09249882
000090 c7 8b 05 bd 7b 1b 88 3e e8 49 55 3e 69 21 aa 3e
       -0.032604005 0.26583466 0.20828974 0.33228615
0000a0 52 56 23 3c 2d e0 53 3e 15 23 63 be de e6 bf bd
       0.009969311 0.20690985 -0.22181351 -0.09370206
0000b0 94 74 0d 3e c4 15 de 3d d1 8f 46 3e 3d 33 2d 3e
       0.13814002 0.10843995 0.19390799 0.16914077
0000c0 ff 59 24 3e 4d 01 c6 3d 4b 00 f8 bd 2a e4 7e bc
       0.16049956 0.09668217 -0.12109431 -0.015557328
0000d0 20 c5 84 3d fd cd 74 3e 98 51 35 bb 06 03 d8 bc
       0.06482911 0.23906703 -0.0027667042 -0.02636863
0000e0 e5 66 0d 3e 3a f8 58 3e 09 36 1d bc 27 1e 35 bc
       0.13808782 0.21188441 -0.0095954025 -0.011054552
0000f0 4d 12 33 be b3 3a 60 3d 13 5e 03 3e 8e 3e fb bd
       -0.1748745 0.05474348 0.12828855 -0.12267791
000100 56 fb 52 be d3 7e 5b be e0 b9 52 3e af ee 59 3e
       -0.2060369 -0.21435098 0.20578718 0.21282457
000110 30 cf 7a 3e 66 50 89 3e 52 79 0f bb 5f 8c 1c 3e
       0.24493098 0.26819152 -0.002189238 0.15287922
000120 29 6a 32 3e 0c eb 12 bd 34 97 fd bd bb c5 62 3e
       0.1742331 -0.03586869 -0.12382355 0.2214574
000130 b3 fd e1 bc 9a 43 dc 3d 98 3a 14 be 18 97 a3 bb
       -0.027586794 0.107550815 -0.14475477 -0.004992377
000140 cf fc 6e bd bb 75 d2 bb 29 b1 5b 3e 99 40 03 3e
       -0.058346566 -0.006422726 0.214543 0.12817611
000150 5a 4e 10 bd 19 84 6b 3e 6d ec c9 bd 46 30 36 3d
       -0.035230972 0.2299961 -0.09859548 0.04447963
000160 86 ae 23 be 24 65 1a bc c0 06 8f 3e 97 d5 06 be
       -0.15984544 -0.009423528 0.27934837 -0.13167416
000170 a4 12 89 3d 4e 3a 58 be b7 05 c3 bc 6f 1f d8 bd
       0.066930085 -0.21115991 -0.023806436 -0.105528705
000180 2d 16 9c 3d 24 51 04 be 44 98 2d 3e b0 7a 79 be
       0.07621417 -0.12921578 0.16952616 -0.24363208
000190 2c 08 14 3e 44 17 f3 bc 4c 6d 2f be 72 06 6c 3e
       0.14456242 -0.02967418 -0.17131537 0.23049334
0001a0 92 26 cf 3d b5 1d 3f be d7 50 e6 bd 5a 79 23 bd
       0.101147786 -0.18663676 -0.11245888 -0.03991065
0001b0 2a 88 11 be be 3d 04 3d 8e 82 2d 3d 8e 9a 63 3e
       -0.14212099 0.032285444 0.042360835 0.22226927
0001c0 c9 72 15 bd d3 55 b0 bd 0e 83 39 3e a2 1f ac 3d
       -0.03648642 -0.0861012 0.181164 0.08404471
0001d0 69 a0 12 be 32 3f 51 3e 80 ff 19 3e 91 95 5e be
       -0.14319004 0.20434263 0.15038872 -0.21736743
0001e0 4a 8d 0d be fa 61 3b bd ae 5e 63 be 61 f9 4a bb
       -0.13823429 -0.045747735 -0.22204086 -0.0030971395
0001f0 35 3e 7c 3d ca a7 2d be 09 b0 16 be ba aa 63 be
       0.061582763 -0.16958538 -0.1471559 -0.22233096

fc2.weight f4 [128, 128]
000000 4e ee d9 bd 59 d0 c4 be 2f 0e 71 be ae 8f 83 3e
       -0.10641156 -0.38440207 -0.23540567 0.25695556
000010 80 4b fe be 5b 85 ad be 1f bf 83 bd 37 64 f0 3d
       -0.49666977 -0.33890805 -0.06432938 0.117378645
000020 2c 6b 46 be f3 d7 87 3d 10 af 3f 3d 8b 45 7a bd
       -0.1937682 0.06632986 0.046797812 -0.061101478
000030 78 8e 01 bf 64 da e0 3d 93 44 19 bf 6f 74 2a 3e
       -0.50608015 0.10979155 -0.5987026 0.16645978
000040 5d 7b ff 3d ee a8 3c 3e b7 42 83 bd 65 a6 a4 bc
       0.124747016 0.18423817 -0.06409209 -0.020098874
000050 48 0a 7d 3e 77 4c 38 3e 44 29 50 3e 00 78 2b 3e
       0.24710953 0.17997919 0.20328242 0.16744995
000060 5d 58 05 3e 43 72 2a be 50 9f bc be 70 95 a5 3d
       0.13021989 -0.1664515 -0.36840296 0.080851436
000070 9a f9 46 3b 3b ab 70 3e a0 95 4f 3e 69 5f a3 bb
       0.0030361176 0.23502819 0.20271921 -0.004985739
000080 59 84 be bd 5b 75 88 bc d7 aa af 3e b3 e7 f7 3c
       -0.09302587 -0.016657522 0.34310028 0.03026185
000090 44 b7 42 be c4 23 eb 3c 2e d9 ba bd 30 c6 80 be
       -0.19015223 0.028703578 -0.09123455 -0.25151205
0000a0 13 6d b2 bd f2 37 44 be 7c a6 1d 3e f2 fa 7a 3d
       -0.087122105 -0.19161966 0.1539554 0.061274476
0000b0 55 43 4e bd 7b 7d 5a be c5 95 93 be 60 9f 76 3e
       -0.05035718 -0.2133693 -0.28825203 0.24084234
0000c0 73 96 ea bc 82 9f 4b 3d 78 2f d2 3d 1b 33 e5 3d
       -0.028636193 0.049712665 0.1026296 0.11191388
0000d0 c0 15 ad 3d 28 48 c8 3c 11 c9 8b be 90 37 f6 be
       0.08451414 0.02444847 -0.2730184 -0.48089266
0000e0 ca 88 df bd 0b 89 2b 3c b4 1a 3f 3e 78 a3 49 be
       -0.10914762 0.010469685 0.1866253 -0.19691265
0000f0 e8 2b 89 be df 8f 38 3e b9 a4 90 3b a6 9b 1c bf
       -0.2679131 0.18023632 0.0044141677 -0.61175
000100 3a 82 ae bd fc ea d6 be d3 44 a5 bb 6d 9d 71 3e
       -0.085209325 -0.41976154 -0.005043605 0.2359521
000110 f7 3c 0a 3e 4f 62 82 bd 4c d3 3e bd 78 06 25 be
       0.13499819 -0.06366407 -0.046588227 -0.16115749
000120 e9 a0 51 be 7a ef 7f bd 55 c4 9c 3e 0e 0c cf 3d
       -0.20471539 -0.062484242 0.3061854 0.10109721
000130 3e bb 87 3e df 5f 07 3d e0 47 fd bc e3 c2 87 bd
       0.26510042 0.033050414 -0.030918062 -0.066289686
000140 28 da 73 be a6 a8 a5 be 9b b5 ad be 02 b7 f8 bc
       -0.23813689 -0.3235523 -0.33927616 -0.030360702
000150 33 05 2a be c9 ca 4d be 11 38 35 be 98 33 d0 bd
       -0.16603546 -0.20096888 -0.17697169 -0.10166091
000160 7f 67 66 bd d6 cc dd 3d f8 9b 8b 3c 91 9f 85 3e
       -0.056251045 0.10830085 0.017042145 0.26098302
000170 38 70 e4 3e e3 b3 3b 3e f8 70 62 be 7e 7f 78 3e
       0.44616866 0.1833034 -0.22113407 0.24267384
000180 d6 25 d1 bd b3 c5 4d be 60 ed 4d 3d 9a 86 82 bd
       -0.10212295 -0.20094948 0.050275207 -0.063733295
000190 da 26 ed 3d 74 2c f0 bd 60 14 80 be a6 c4 73 bd
       0.11579676 -0.11727229 -0.25015545 -0.05951371
0001a0 43 6c af 3e 5d 3d 0f 3d ee 4a 35 3e ba a3 0d bc
       0.34262285 0.03497063 0.17704365 -0.0086449925
0001b0 b0 5a b6 3e 2f 96 57 3e 91 62 4a be bd b7 39 3e
       0.35616064 0.21053384 -0.19764163 0.18136497
0001c0 44 06 ff 3d 44 af 90 bd 6c e3 55 3d 5d 75 c3 3b
       0.12452367 -0.07064679 0.05221884 0.0059649185
0001d0 1b 07 a9 be 2a 6d 6e be ac 6c 98 3d f6 71 9c bc
       -0.33013234 -0.2328383 0.074426025 -0.01909731
0001e0 2e c5 45 be 5e 7b 6d 3d 3b 4b 69 bd 24 f0 87 be
       -0.193135 0.05797898 -0.05695651 -0.265504
0001f0 d3 14 4b 3e 56 f1 96 3e 47 ff dd bc 68 97 1c 3e
       0.19832163 0.29481 -0.027099265 0.15292132
000200 25 e9 8e be ef ac c7 bd 72 e3 14 3e dd f8 dc 3d
       -0.2791225 -0.09749781 0.14539889 0.107896544
000210 43 20 8f be 16 e0 44 bd 05 7c c7 bd d6 0d b7 bd
       -0.279543 -0.048065268 -0.09740452 -0.08938186
000220 c7 12 2a bc 49 19 24 3e 98 a3 a6 bd ca bc c6 be
       -0.010380453 0.1602527 -0.08136672 -0.3881591
000230 1a e5 ff be 4d cc 0a be 15 94 21 bf 18 48 86 3d
       -0.49979478 -0.13554497 -0.6311658 0.065567195
000240 40 ca 59 3d f6 ff 94 3d 3b f3 fa bd 5c ed 14 3e
       0.053171396 0.07275383 -0.12253424 0.1454367
000250 32 89 ad 3e 5c d1 52 3e 02 a6 b6 3e 33 f8 e1 bd
       0.33893734 0.20587677 0.3567353 -0.11033668
000260 e6 a6 75 bd 28 68 01 be 27 e0 cd be db 26 07 3e
       -0.05997362 -0.12637389 -0.40210077 0.13198416
000270 92 f8 16 3e 99 6b 8a 3e bf 1c 60 3c 61 53 04 3d
       0.1474326 0.27035215 0.013678729 0.03230608
000280 c3 fa 09 bd 19 a1 f1 3d 0e 1e 59 3e 59 88 ff bd
       -0.03368641 0.11798305 0.21202871 -0.12477178
000290 24 97 b0 be c9 a3 1f 3e 9e 51 de 3c 97 51 e1 3c
       -0.3449031 0.15589823 0.027138527 0.027504725
0002a0 b8 f0 92 3a 38 a7 e0 bd e2 19 de 3d 28 5d b7 3d
       0.0011210656 -0.109693944 0.108447805 0.08953315
0002b0 a6 94 5e bb 79 5c 47 3e 89 d8 97 be c9 2b 4f 3d
       -0.0033963113 0.1946887 -0.2965739 0.050578866
0002c0 1a 67 88 3d 4c 5a ad bc f9 1f c4 bd 49 25 31 3e
       0.0666029 -0.021161221 -0.09576411 0.1729938
0002d0 42 23 29 be 0d 86 ff 3d c6 90 25 3e f1 58 a7 bd
       -0.16517356 0.1247674 0.16168508 -0.08171261
0002e0 eb c1 16 3e ee 4b d5 3b 2d 27 43 3e 91 5b 83 3e
       0.14722411 0.0065092957 0.19057913 0.25655797
0002f0 44 ff 1f be a4 7a 13 3e 87 99 60 bd 08 ad f3 bd
       -0.1562472 0.14402252 -0.054833915 -0.118982375
000300 42 9e 51 be 25 f7 88 be 0e f6 a7 bd 73 04 96 bd
       -0.20470527 -0.26751056 -0.08201228 -0.07325067
000310 b3 6e 6a bd 19 d4 86 3d 0e 1f ec bd 45 be 14 be
       -0.057234477 0.06583423 -0.11529361 -0.14525707
000320 86 1d 5f bd 7e 2f e2 be 7d ad de 3d 68 36 9b 3e
       -0.054471515 -0.4417686 0.10872934 0.30314946
000330 dd b0 b4 3e 2f 14 8b 3d 0e be 3a be 39 28 24 be
       0.35291186 0.06790959 -0.18236563 -0.16030969
000340 b1 8f ba be bf 3d 43 3d cd f0 a6 3d d7 1d cd 3d
       -0.36437753 0.047666308 0.08151398 0.10015457
000350 13 26 2d bf a4 b0 ec bd 47 e9 f8 3d ea 2a bf bd
       -0.6763622 -0.11557129 0.12153869 -0.09334357
000360 83 5c 46 3c 6e f4 15 3e f4 a1 5c bd 86 f5 92 3d
       0.012107017 0.14644024 -0.053865388 0.07175736
000370 b9 a3 4f 3e 8e c8 e0 3d 6f 50 14 be ab 37 0f 3e
       0.20277299 0.10975753 -0.14483808 0.1398608
000380 b4 2f 1b be 28 9c 9f 3e 03 89 e0 3d 12 4e 9a 3d
       -0.15154916 0.31173825 0.10963633 0.07534422
000390 7c 51 22 3e d4 09 6e bd 81 86 a1 be db a8 be bd
       0.15851396 -0.05811484 -0.3154793 -0.093095504
0003a0 79 06 79 3e d8 0a 83 3e f0 ab 3e 3e 9e 33 3e be
       0.24318875 0.2559421 0.18620276 -0.18574378
0003b0 f4 ba 78 3e 34 00 9d 3e 3e c6 60 be f4 ae 2a bd
       0.24290067 0.30664217 -0.21950623 -0.041670755
0003c0 50 6d 06 3e 36 67 86 bd 3b a4 09 bd 2d c4 4f 3e
       0.13127637 -0.06562655 -0.033603888 0.20289679
0003d0 b4 a7 b2 3e d1 d4 df 3d de 4f 7d 3d f1 12 19 3e
       0.34893572 0.109292634 0.061843745 0.14948632
0003e0 83 d5 65 3e f7 1f 96 bd e4 3e c1 bd af 57 83 be
       0.2244473 -0.073303156 -0.094358236 -0.25652835
0003f0 c6 b0 db 3d b6 40 fe 3d 7c be 40 be e6 e3 c7 bd
       0.10727076 0.124146864 -0.18822664 -0.09760265

fc2.bias f4 [128]
000000 a8 95 c8 bc aa 05 21 3d c7 59 8f 3d 00 a9 b1 bd
       -0.024485424 0.039312042 0.069995455 -0.08674812
000010 ad e9 15 bd 79 c7 c0 bc 6d 91 be 3c e2 6a 80 bd
       -0.036599804 -0.023532616 0.023262704 -0.06270386
000020 84 35 d4 bc 14 21 a8 3d 96 36 a3 3a 95 73 a5 3d
       -0.025904424 0.08209434 0.0012452181 0.08078686
000030 15 fa 57 3c 57 31 a8 3c ba 9c 52 3d 9f fc f7 bc
       0.013182183 0.02053134 0.051418997 -0.030271826
000040 d2 a9 98 3a 15 41 ba bd fe eb 38 3c f2 23 8b 3d
       0.001164729 -0.09094445 0.011286734 0.067939654
000050 2c 1b 15 bd 08 89 1c 3d e3 76 ca 3d 89 ec 31 3d
       -0.036402866 0.03821662 0.09885957 0.043438468
000060 f9 2b 83 3d 71 3b 1e bc b6 55 cd 3d 00 0a 97 bc
       0.064048715 -0.009657727 0.10026114 -0.018437386
000070 7e a8 91 3c 6b a1 0c 3e 7c 41 83 3d 1c 8c 87 3d
       0.017780539 0.13733451 0.064089745 0.066185206
000080 b1 62 c0 bb 45 2e 8c bd ab d0 ff bc 84 57 06 3e
       -0.00587114 -0.06844763 -0.03122743 0.13119322
000090 f2 11 80 bd f7 37 90 3c 7c d1 4a 3d 67 fb d5 bc
       -0.06253423 0.017604811 0.049516186 -0.026120855
0000a0 26 e4 56 bd 65 4c a6 3d a4 a3 eb 3c da 35 df bc
       -0.052463673 0.0812004 0.028764553 -0.027247358
0000b0 ec 8b 7f 3d 66 49 9f bc 48 98 c8 ba 4a 40 bf 3c
       0.0623893 -0.019444179 -0.0015304172 0.023346085
0000c0 f5 5b 6d bc 43 47 35 bd 63 2b 32 bd 82 57 f3 3d
       -0.014487256 -0.044257414 -0.043498408 0.11881925
0000d0 ad 4e b1 3d 4b 73 cf 3d e2 51 b6 bd 8d c4 38 bc
       0.08657584 0.10129412 -0.08902337 -0.01127733
0000e0 7c 23 e9 3c 91 81 dc bb 17 f8 0b bb 47 45 aa 3d
       0.028459303 -0.0067293127 -0.002135759 0.08313995
0000f0 c8 b6 c3 3d e9 ff a5 39 1a 8e 37 3d ed 9e 28 bc
       0.09556347 0.0003166192 0.044813253 -0.010291797
000100 a2 fd a2 bd 87 15 61 3d 56 08 b2 3c d7 29 88 3d
       -0.07958533 0.05495217 0.02173249 0.06648605
000110 ff e8 3c bd 6c 7b 3f 3d b0 66 4c 3d d7 0d 78 bd
       -0.04612064 0.046748564 0.049902618 -0.060560074
000120 7d 5a bd bc 43 f3 86 bd 8e 92 c1 3c 8f 78 9e 3c
       -0.023114437 -0.06589367 0.023629453 0.019344596
000130 3d 37 73 3d 43 eb 22 bd 24 d3 85 3d 1b 5b c6 3d
       0.05937885 -0.039775144 0.065344125 0.09685346
000140 cf f5 07 3d 2a a4 b2 3c c9 84 63 bd af 8f b0 bd
       0.033193406 0.021806795 -0.055546556 -0.086211555
000150 41 b8 74 bd a1 77 34 3d 6c 5c d3 3c 99 fe 63 3d
       -0.05974603 0.0440594 0.025800906 0.055662725
000160 41 5e 5c bc bf 8b 11 3d ca 0b 90 3d 46 40 5f bd
       -0.013450206 0.035533663 0.070334986 -0.054504655
000170 33 5a 3d bc 97 c2 da 3d 3b 12 a3 3d 2e f9 8b 3d
       -0.01155715 0.10681646 0.079624616 0.06834637
000180 ea d2 6a bc 49 04 94 ba 5e b0 3f bd b9 5d 89 3c
       -0.014332512 -0.0011292781 -0.046799056 0.016768323
000190 2e 69 03 bd 9a b3 62 3d 42 2a 64 3d aa 9b be bc
       -0.03208273 0.055347063 0.055704363 -0.023267586
0001a0 ed ad d2 3c 87 f5 dc 3b d8 f2 f3 3b e2 ac 4e bc
       0.0257177 0.0067431363 0.0074447207 -0.012614461
0001b0 10 51 c4 3d bd 38 45 bd b0 8b 83 bd 66 df b7 bc
       0.09585774 -0.048149813 -0.06423128 -0.022445392
0001c0 ac 6d 93 3d f7 77 ef bc bb fa cd 3c 54 c3 ab 3d
       0.071986526 -0.029232008 0.025143972 0.08386865
0001d0 f3 7e 94 3d d9 0f 41 3d 1b 6b 88 3c 4e 7b a5 bc
       0.07250776 0.047134254 0.016652634 -0.020200398
0001e0 3b 88 a8 3b 86 34 ea 3d 5a 0a 4f 3d 0f 11 64 bd
       0.005143193 0.11435799 0.05054698 -0.05568033
0001f0 c7 7e dc 3d 49 35 33 3c a9 14 ba 3d 02 e1 0e 3d
       0.10766368 0.010937997 0.09085972 0.034882553

action_head.weight f4 [6, 128]
000000 a7 f0 43 bf 30 9e a8 be 46 3d 8a 3e a9 6d 23 bf
       -0.7653908 -0.32933187 0.26999873 -0.63839203
000010 87 d8 3c bd 85 c2 6a bf 8c c3 dd 3e 47 bb 63 3f
       -0.046104934 -0.91703063 0.43313253 0.8895764
000020 2a 57 95 be 0a ad 82 be d0 2b 3b 3c 89 59 76 3e
       -0.29168063 -0.25522643 0.01142402 0.24057592
000030 4c 8e f3 bd 88 e0 eb 3e aa 6d 81 bd e7 c7 47 3e
       -0.11892375 0.4606974 -0.06319745 0.1950985
000040 46 b9 03 be e5 ab 2f bf 03 75 a6 3e de 45 a0 3e
       -0.12863645 -0.68621665 0.32511148 0.31303304
000050 80 3b a5 3e 69 28 77 3d 77 fc e0 3e ea c5 09 3f
       0.32271957 0.060341273 0.43942615 0.5381762
000060 81 96 db 3e 72 cc 12 3e d8 41 cf 3e a1 5b f2 3e
       0.42888263 0.14335802 0.40479922 0.47335532
000070 92 ae cb 3e 4e d1 12 3f 11 f6 02 bd 7a 88 21 bf
       0.39781624 0.57350624 -0.03197295 -0.6309887
000080 96 33 6f 3e 04 4d db be 48 fb 0a be 3e 33 ab 3e
       0.23359522 -0.42832196 -0.13572419 0.33437532
000090 0a 08 66 3e 8b bd 1d 3f 50 71 61 3e 50 7a 00 bc
       0.22464004 0.61617345 0.22015882 -0.007841662
0000a0 8b 3a cb be ec 09 02 bf 2c 41 b3 3e 83 65 48 3e
       -0.39693102 -0.5079639 0.3501066 0.19569974
0000b0 da 81 78 3e 52 1e b9 bd 5e 5c d2 bd cc 3d 52 bf
       0.24268284 -0.09038986 -0.10271524 -0.82125545
0000c0 f6 bd fd 3c 29 25 c3 3d 14 ec 99 3e b2 e2 18 bf
       0.03097437 0.09528572 0.30062926 -0.5972091
0000d0 5b d4 a7 3e 31 86 00 3d aa 93 1a be 17 10 88 3e
       0.32779202 0.031377975 -0.15095392 0.26574776
0000e0 3a e3 dd bd a3 64 d9 bd a9 cf e9 be 3e f3 e2 3e
       -0.10834356 -0.10614898 -0.45666245 0.44326204
0000f0 4b 35 9b 3e dc 8a 28 bf 9b ff b2 3e 85 d8 01 3e
       0.30314097 -0.6583688 0.34960636 0.12680252
000100 bc a7 d2 bd 13 fc 67 3f d2 f1 f7 3e 1c 88 a5 3e
       -0.10285899 0.9061901 0.48426682 0.32330406
000110 f7 bb 7c bf cc 16 82 3e 31 05 e4 be 40 6a 68 3e
       -0.9872431 0.25408018 -0.4453521 0.22696781
000120 1e 11 ba bc fc ea cc be 0c 6a d3 be c6 a1 f4 bd
       -0.02271324 -0.4002303 -0.41291845 -0.11944918
000130 d3 6e 32 bf e5 ab 33 bf a4 e4 90 3e 75 d9 b1 3e
       -0.69700354 -0.70184165 0.2829944 0.3473622
000140 e8 85 65 bd 07 87 ce 3e 2a 3d 00 3f 1e 56 20 3d
       -0.056035906 0.40337393 0.5009333 0.039144628
000150 94 11 0a 3f 83 ae f8 be f5 93 9d be 49 b0 1d 3e
       0.5393307 -0.48570642 -0.30776945 0.15399279
000160 3a cd df 3e cd f7 09 3f 34 43 03 bf b6 ca da be
       0.43711263 0.5389374 -0.5127442 -0.4273278
000170 af 37 12 bf 68 15 15 3e e6 a1 e6 3c fe cb 3c bd
       -0.57116216 0.14558947 0.028153371 -0.04609298
000180 dd 00 89 bd 37 f1 ce be 5c df e7 be 2a e7 c7 be
       -0.06689618 -0.40418407 -0.45287597 -0.39043552
000190 4b a0 87 3e 06 b8 01 3f e3 11 67 3e 19 6b 13 be
       0.2648948 0.5067142 0.22565417 -0.14396323
0001a0 05 0a 9b 3e d9 e0 e4 3e bb 92 aa 3d ab 5e 8c be
       0.30281082 0.44702795 0.08328768 -0.27415976
0001b0 27 0b b0 3e 50 72 11 3f 5b 45 8a 3b 24 dc 8c 3d
       0.3438351 0.5681505 0.0042196936 0.06877926
0001c0 5b ae 14 3f 64 ae f9 3c 8f 20 3f 3e 63 73 20 3d
       0.58078545 0.030478664 0.18664764 0.03917254
0001d0 57 d8 d9 3e 25 86 24 bf e1 74 a7 bd 28 12 c9 be
       0.42547867 -0.6426719 -0.0817659 -0.39271665
0001e0 16 4e c7 3d 27 d3 e4 3e f3 42 0e bf 6b c7 d7 3e
       0.097316906 0.44692346 -0.55570906 0.4214433
0001f0 4f 21 9d 3e c5 2e d5 3e 04 ca 93 3e f3 8a 25 3e
       0.30689475 0.41637245 0.28865063 0.16166286
000200 47 c2 11 3f d9 ab d1 3e 25 dd c7 be a1 b0 9c 3e
       0.5693707 0.40951422 -0.39035907 0.30603507
000210 9c bb 9c bd ad d0 1c 3f fd 8d ee be 4a 7a 49 bf
       -0.07652971 0.61255914 -0.46592703 -0.78702223
000220 8a 2b e7 3e 12 e2 c4 3e fb ad 61 3e de 8c 12 be
       0.45150405 0.38453728 0.22039025 -0.14311549
000230 d6 44 24 3e 36 91 24 bd 32 30 55 be f6 22 39 be
       0.16041884 -0.040177546 -0.20819166 -0.18079743
000240 e6 97 94 3e 0d 1e 87 3e e9 39 f0 be 97 3a 2e be
       0.2902214 0.26390114 -0.46919182 -0.17014538
000250 fa 77 4b be 72 ee 6e 3e a3 01 72 bd ea 08 40 bf
       -0.19869986 0.23333147 -0.059083592 -0.750136
000260 5a c6 bd be ef a7 91 3e 25 66 01 bf b8 d0 8f be
       -0.37065393 0.28448436 -0.50546485 -0.28088927
000270 e4 f9 fd bd 48 c1 be be bf 91 39 3e 0d b3 a5 3e
       -0.124011785 -0.37256837 0.18122004 0.32363167
000280 b0 a2 4c be 16 56 ae 3e f7 4c a4 3e 7d 21 b1 bb
       -0.19983935 0.34050053 0.3208997 -0.0054056034
000290 3a 1c 2a 3d e8 a7 0e bf 30 34 fd bd 9b b6 18 3e
       0.041530825 -0.55724955 -0.123634696 0.14913408
0002a0 ee a1 bd 3e 55 48 94 3e a9 f8 08 bf d7 77 17 3e
       0.37037605 0.28961435 -0.53504425 0.14791809
0002b0 bc 16 db 3c 4e 55 ab 3d 00 96 33 3e dc ed a4 3e
       0.026744239 0.0836588 0.17537689 0.32212722
0002c0 e5 ee 7e bd 6e 1b ad 3e 5d 03 01 bf 74 ef a9 3d
       -0.062239546 0.3380999 -0.50395757 0.08297625
0002d0 d2 f3 37 be e8 85 a5 3e 63 1c 2a 3e 1e c2 ef 3d
       -0.17964104 0.32328725 0.16612391 0.11706947
0002e0 1f 53 3e 3e bc 8b 0e 3e b4 d5 89 3e f9 ba cc be
       0.18586396 0.13920492 0.26920855 -0.399864
0002f0 e5 04 c9 bd c5 53 d8 3e f3 03 d8 be 50 88 6d be
       -0.09815387 0.4225141 -0.42190513 -0.2319653
000300 fa 0c 26 be cc a5 67 bf 49 ac 5a bf ae f7 9f be
       -0.16215888 -0.9048736 -0.85419136 -0.31243652
000310 77 f4 55 3f 62 f3 2b 3c ec 82 cd 3e b6 70 49 3e
       0.8357615 0.010495039 0.40138948 0.19671902
000320 48 4b ed 3d d7 4b d6 3e 10 85 e6 3c cf 82 01 be
       0.115866244 0.41854736 0.028139621 -0.12647556
000330 5e af be 3e f0 62 0a 3f 42 07 cb be 79 76 fe bd
       0.3724317 0.54057217 -0.39653975 -0.124249406
000340 30 f9 27 3e a4 ea 94 bd d6 cb af be af ba 55 bd
       0.16403651 -0.07271317 -0.34335202 -0.05217999
000350 c7 fa d1 be f2 db fb 3d 1a 0f 7a 3e 19 e2 42 3e
       -0.4101164 0.122978106 0.24419823 0.19031562
000360 15 50 bb be 8d ab db be df 64 c0 3e c4 ca 10 3e
       -0.36584535 -0.4290432 0.3757696 0.14139849
000370 3d 80 e3 3e cb 50 ce be 4f e4 65 3e 88 d3 9f bc
       0.44433776 -0.40296015 0.22450374 -0.019510046
000380 b9 c1 b5 3d 00 18 b5 3e 6c aa f7 3e e5 e4 dd 3e
       0.0887484 0.35369873 0.4837221 0.43338695
000390 65 ad cc be 98 bd 23 be 54 96 45 be 41 ff 92 3e
       -0.3997604 -0.15990293 -0.19295627 0.28710368
0003a0 de 9f fc 3c 1b 93 dc be fd fb 95 3e 4b 45 3c 3c
       0.03083795 -0.43080983 0.29293814 0.01149113
0003b0 6b 9f 88 bd 1c 89 19 bf d7 69 9f bd 9c f1 68 3e
       -0.066710316 -0.5997484 -0.07783859 0.22748417
0003c0 36 2c f3 be c3 82 5d 3e 04 5f 02 bf 28 e3 1b 3e
       -0.47494668 0.21631913 -0.5092623 0.15223372
0003d0 8c 40 ff 3b b7 0b ca 3e fd 14 04 bd 3f e1 f5 3e
       0.007789677 0.39462063 -0.03224658 0.48023412
0003e0 ba 9a 30 be 78 49 a9 be 46 c5 a1 3e e3 f7 59 be
       -0.17246523 -0.33063865 0.3159582 -0.21285968
0003f0 87 15 9c bd 54 ec aa be 1b 90 c9 be c3 b7 5a be
       -0.076212935 -0.3338343 -0.39367756 -0.21359162

action_head.bias f4 [6]
000000 37 f6 7e 3d d8 a0 80 3d d8 ec de bd b2 12 c6 be
       0.062246528 0.062806785 -0.10885018 -0.38686138
000010 46 d8 da bb a8 7c 8d be
       -0.006678614 -0.27634168
